checkpoints/single-phase/123bus/safe-ddpg/no_gradient_policy_net_checkpoint_a7.pth (torch, 3103 bytes, 4 tensors)

b f4 [100]
00000000: 96a8 26b9 8dbd 26b9 2d9a 26b9 5581 6e3d
00000010: cfcf 633b 5027 bd3a e1ca cf39 1693 a43a
00000020: e182 8b3a a901 0080 a501 0080 a701 0080
00000030: 3601 0080 3d03 593b 2f7d 3f3a 4f30 5b39
00000040: 214e dc39 c7ff 593a 5e1d 643a 8b51 623a
00000050: 0899 803c cd18 9a3b 93cc 6139 111f 123b
00000060: 71be 0080 90be 0080 b0e4 0080 32e7 0080
00000070: 1959 073b 32b8 593a 781c e43a 1bf6 df3a
00000080: 0992 c23a 12dc f939 0ba7 393b 7c46 2938
00000090: 4f26 653a a693 2f3b 55c9 8538 e36e a13a
000000a0: ebb7 f13a d2af 0b3b 6684 483a f638 6a3a
000000b0: 6dd5 213b ff16 773a b5a8 9f3a 0668 813a
000000c0: fd3e dd3a 51c9 ab3a 99e9 dc3a a7d7 263b
000000d0: e2ce 6f3a 2c82 0c3a 8694 f53a a7b4 553a
000000e0: e3a4 143b 1c1c f83a 187b 153a 78af 233b
000000f0: 5fe9 203a f21f 033b 5125 da3a f999 213b
00000100: 166c 5737 bee9 0d3b f168 4237 58ba ae3a
00000110: c35e ae39 c50c fb3a 0778 723a 4c1e ff39
00000120: bf6f a63a 2235 093b ef38 373a 20e7 343a
00000130: 7262 153b ea83 323b 7d89 093b a66f 953a
00000140: 37fb 3b3b e13c dd3a 9e37 f43a 224c 1e3b
00000150: 7f4d 683a 630a a438 bb19 3a38 f1c8 803a
00000160: 82bc 2f3b e3e5 273b 5c96 303b 7d3a be38
00000170: 44c5 dd3a 3b78 1138 39e7 0d3b 1039 033b
00000180: eff9 f439 6b06 083b 74d0 333b e7c1 9f3a
-0.00015893797 -0.00015901607 -0.00015888429 0.05822881 0.0034761315 0.0014431272 0.00039633273 0.0012556042
0.0010643863 -5.96e-43 -5.9e-43 -5.93e-43 -4.34e-43 0.0033113502 0.00073047256 0.00020903464
0.0004201988 0.0008316007 0.0008701886 0.00086333667 0.015697971 0.0047026635 0.00021533882 0.002229635
-6.8318e-41 -6.8361e-41 -8.2038e-41 -8.2937e-41 0.0020652472 0.00083053403 0.0017403504 0.0017086895
0.0014844547 0.00047656946 0.0028328325 4.0358384e-05 0.0008741365 0.0026790886 6.379435e-05 0.0012316372
0.0018441653 0.0021314514 0.00076491234 0.00089348794 0.0024693862 0.0009425729 0.0012181016 0.000987292
0.0016879734 0.0013106262 0.0016854285 0.0025458129 0.00091479544 0.00053599733 0.001873628 0.00081522245
0.0022681288 0.0018929276 0.00057022413 0.0024976414 0.00061382906 0.0020008055 0.0016643201 0.0024658425
1.2840164e-05 0.0021654214 1.1587735e-05 0.0013330681 0.0003325847 0.0019153586 0.0009249453 0.00048659963
0.0012698098 0.002093621 0.000698938 0.00069008954 0.0022794274 0.0027239271 0.002098649 0.0011401072
0.0028683671 0.0016879105 0.0018632298 0.0024154265 0.00088616455 7.822064e-05 4.436982e-05 0.000982551
0.002681524 0.00256192 0.002694509 9.0708e-05 0.0016919752 3.4682667e-05 0.0021652712 0.0020023026
0.00046725522 0.0020755779 0.002743748 0.0012188525

c f4 [100]
00000000: f6da a53a a85e 7e3b 56de 7b3b 205a f83a
00000010: 1c01 5c3b 8003 0b3b a055 2b3b a75d 023b
00000020: bfc6 393b 3161 153b 7487 2a3b e774 703b
00000030: ddb2 6e3a 9e14 103b f72c 623a 17ba 1e3b
00000040: 070e 6a3b d069 733b 03c5 c43a 2f17 293a
00000050: 9eb2 323a 63f0 8f39 df24 f73a 6f3e 183b
00000060: 3dc1 123b e8be 4b3b dd8a f33a d8a3 443b
00000070: ab7a 1539 d57d 303b 9a6a 6c3b ee3e c33a
00000080: 0606 e83a bbd6 3239 a89f 4b3a a0a5 d63a
00000090: a301 d33a c343 b33a 6b1f 6a3b 6673 223a
000000a0: 7b04 4b39 4e81 853a 027e 333b d3a7 fd3a
000000b0: 2b75 923a b49c f33a 7b19 213b ca24 733b
000000c0: 4e3d fa37 e225 303b 49c2 a939 86ba 153a
000000d0: 5cf2 833a 5872 9b3a 8afd 693a 8067 b23a
000000e0: 9aa1 0e3b d421 7e3b 62b5 d33a 361c 1f3b
000000f0: e09d f339 c77a 9c39 6578 af39 0077 633a
00000100: 88e7 653b 0ca1 093b 2ebc 993a 004d 7e3b
00000110: f07b b03a 9fc7 803a 73b2 713b 3b06 793b
00000120: 2715 b53a 5771 a93a 323b 393b 87a2 143b
00000130: 283e 413b a7e0 3f3b 7f4a 603b 7095 733b
00000140: df89 2b3a bbdd 5b3b 53db 023b db91 4b3b
00000150: 130f 5c3b d220 463b 4a68 c73a d8bb 423a
00000160: 4d70 593a ca35 1d3b 38e6 1e3b 5448 063a
00000170: e543 1e3b 268d 2d3a 7098 d339 0459 2b3b
00000180: 654f 3f3b c5cb 663b e7ed 563a c24c 583b
0.0012653756 0.0038813744 0.0038432083 0.0018947758 0.0033569997 0.0021211803 0.0026143566 0.0019892247
0.0028347222 0.0022793526 0.0026020678 0.0036690773 0.0009105632 0.0021984945 0.0008627916 0.0024219805
0.0035713927 0.0037141927 0.0015012327 0.0006450293 0.0006816777 0.00027454188 0.0018855593 0.0023230573
0.002239301 0.003108913 0.0018580813 0.0030004885 0.00014255445 0.002693047 0.0036074282 0.0014896074
0.001770199 0.00017055396 0.0007767626 0.0016376264 0.001609851 0.0013676811 0.0035724293 0.0006197005
0.00019361258 0.001018563 0.002738834 0.0019352384 0.0011173835 0.001858613 0.0024581838 0.0037100785
2.983087e-05 0.0026878049 0.00032378946 0.0005711693 0.0010066736 0.0011859639 0.0008926025 0.0013611168
0.0021763803 0.0038777487 0.0016152079 0.002427829 0.00046466198 0.00029846115 0.00033468302 0.0008677095
0.003508063 0.0021000532 0.0011729056 0.003880322 0.0013464671 0.0009825117 0.0036880046 0.0037998098
0.0013815508 0.0012927455 0.0028264043 0.0022679882 0.002948651 0.002927819 0.003422409 0.003716793
0.0006543677 0.003354891 0.0019967153 0.0031062278 0.003357832 0.0030231965 0.0015213576 0.00074285036
0.0008294627 0.002398836 0.0024246108 0.0005122472 0.0024149355 0.0006620459 0.0004035863 0.0026145587
0.002919161 0.003521667 0.00081989024 0.0033004736

q f4 [1, 100]
00000000: 7a12 d23e e4c6 033f 85fd a23e c036 7a40
00000010: 13a9 483f 3a3c e53d 15ca b13e fc4a 4b3d
00000020: 42fb 3f3e 9ac3 303f 2aa2 333f be46 0d3f
00000030: 79a8 5f3f 0b85 bc3e cb5a 053f 0ac6 1a3f
00000040: 7dd7 083f 6245 df3e a4a3 be3e 5bae bc3e
00000050: 090e 8636 0b0d 123e 407f c33e 7377 883d
00000060: dd83 493f 925d 493f da0a 913e 962e 653e
00000070: 2f1e e23d 3c47 583f f0d9 343e b88a 103f
00000080: 3f2d 493f 9cf0 673e 4a69 293f 1a62 733f
00000090: a1c2 4d3f b272 0f3f 4e38 ce3e 52b7 d63e
000000a0: baaa fe3e 4fc3 513f a453 083f 4563 013f
000000b0: cb8c 183f 41a8 583f e0b8 013d b800 fa3e
000000c0: 9f1b 593f 289f 903e 0c9c 0a3e 2065 553e
000000d0: 027b fb3e 6056 763e 526a cb3e 4a16 4b3f
000000e0: 80a6 133c 2ad9 423f 802f 7d3c 1088 843e
000000f0: 9c9b 5c3e 923b 843e 00ac 363f 5c8b 863e
00000100: cc3a 263e 011d 5b3f c636 5f3f 1c56 903e
00000110: 5f04 6d3f 19f4 403f 4993 073f 9cf7 1e3e
00000120: 6d66 563f 903d 493d f8ab 103e 8a2a a23e
00000130: 0479 7b3f d635 473f b077 2a3f 980e f53d
00000140: 47ba 313f 5096 2d3f fd82 5e3f aad0 473f
00000150: ec4a 033f d0ff 2e3d 3ea9 4b3f 5a7c bf3e
00000160: 8ace 383f 2891 c13e 2a25 073f a773 103f
00000170: 28c7 073f 86fd 403f e518 243f a845 1c3f
00000180: c8a9 753e 5b3f 2a3f 4230 553f a67e 1f3f
0.41029721 0.5147536 0.31834045 3.9095917 0.78382987 0.11193128 0.3472449 0.049632058
0.18748191 0.69048464 0.7016932 0.5518607 0.87366444 0.36820254 0.52091664 0.60458434
0.5345381 0.43607622 0.37234223 0.36851773 3.995145e-06 0.14262788 0.38183022 0.06663408
0.7871683 0.786584 0.28328592 0.22381052 0.11040913 0.84483695 0.17661262 0.5646167
0.78584665 0.22650379 0.66176283 0.95071566 0.80375105 0.56034386 0.40277332 0.41936737
0.4973963 0.8193864 0.53252625 0.505421 0.59589833 0.84631735 0.03167045 0.48828673
0.8480777 0.28246427 0.1353609 0.20839357 0.49117285 0.24056387 0.39729553 0.79330885
0.009011865 0.76112616 0.015453219 0.25885057 0.21543735 0.258267 0.713562 0.26278198
0.16233367 0.8559113 0.8719295 0.28190696 0.92584795 0.75372463 0.52959114 0.15524143
0.8375004 0.049130976 0.14128101 0.3167308 0.9823153 0.7781652 0.6658888 0.11965674
0.6942486 0.67807484 0.8691862 0.7805277 0.51286197 0.04272443 0.7955512 0.3739956
0.72190154 0.37806058 0.5279108 0.5642647 0.53038263 0.75386846 0.64100486 0.61043787
0.23990548 0.6650292 0.8327676 0.62302625

z f4 [1, 100]
00000000: e816 aa3e c029 2e3e 985b 4f3e fb87 093f
00000010: a924 7e3f 37fd 0a3f 00be 823e 58f6 ab3e
00000020: df2f 723f 37f9 1b3f 3b2f 203f 92c9 fc3e
00000030: ccb6 693f 3f8c 443f 285a 9b3d 5e1a e73e
00000040: f4ee 563f 6847 4b3f 1480 053e 0e27 fa3e
00000050: 3852 b13d 3333 363f 7cff 423f 267b 173f
00000060: 60b9 303f 8aa2 be3e a2a9 0b3f 4cee 593e
00000070: 8de2 7d3f f076 853e 201b c13d 003f 6a3b
00000080: 9851 833d 24c3 113e ba48 cf3e 00b4 b63d
00000090: b19a 1a3f 6bc9 2d3f f149 663f 845f 533e
000000a0: c0fa 943e 60d6 bf3c c723 693f 39ef 0f3f
000000b0: 8c36 453e 1e16 7b3f 59ec 273f 6aa8 a23e
000000c0: 06af e23e 1252 9b3e 1aea aa3e 208f 733d
000000d0: b855 a33d 923e 683f 100b 1d3f 1858 333f
000000e0: bc96 d53e 3caf b13e 4075 153c 08fe 073f
000000f0: f9f3 0c3f 9b8a 6b3f d6d7 513f 7a0c 433f
00000100: 738a 233f 7864 073f 8941 773f 706f da3d
00000110: d833 093e b2d8 143f 3c7e b53e a7e3 6c3f
00000120: d001 fd3e 848d 073f 38eb cc3d 6097 4e3d
00000130: 3c7e 863e 2854 2b3f 804b b43e 7015 0f3e
00000140: 70ff 973d cc39 783e a8da b23e c3d9 7f3f
00000150: 4804 9e3d a859 443e 985a 513e dab5 2c3f
00000160: 3432 183f a6a9 a83e bbc9 243f 5e87 763f
00000170: 1b08 103f bcb4 a73e 607e 533f fb02 5b3f
00000180: d282 ef3e b1a5 333f bce2 353e 7304 4b3f
0.332206 0.17008114 0.20249784 0.53723115 0.9927469 0.54292625 0.25535583 0.33586383
0.94604295 0.60927147 0.6257207 0.49372536 0.9129455 0.767765 0.07585555 0.45137304
0.83958364 0.7940583 0.13037139 0.4885792 0.0865826 0.71171874 0.7617109 0.59172285
0.6903286 0.37233382 0.54555714 0.2128231 0.99173814 0.26067305 0.09429002 0.0035743117
0.06412047 0.14234596 0.40485173 0.08921051 0.6039229 0.67885464 0.89956576 0.20641905
0.29097557 0.023417652 0.91070217 0.562244 0.19259089 0.98080623 0.6559501 0.31769115
0.44274157 0.30336052 0.3338173 0.059462667 0.07975334 0.90720475 0.61345005 0.70056295
0.41716564 0.34704006 0.009122193 0.53121996 0.5505977 0.9200837 0.81969965 0.7619091
0.6388313 0.5288768 0.96584374 0.10665786 0.13398683 0.5814315 0.35447872 0.9253487
0.49415445 0.5295031 0.10005802 0.05043733 0.26268184 0.6692529 0.35213852 0.13973022
0.07421768 0.24240798 0.34932446 0.99941653 0.0771566 0.19174826 0.20444715 0.67464983
0.59451604 0.3294193 0.64370316 0.96300304 0.5626237 0.32755077 0.8261471 0.8555142
0.46779495 0.701747 0.17762274 0.79303664
