checkpoints/single-phase/123bus/safe-ddpg/no_gradient_value_net_checkpoint_a13.pth (torch, 44119 bytes, 5 tensors)

linear1.weight f4 [100, 2]
00000000: 8e5c 09bf e779 173f e10c eabe 418f 13bd
00000010: e7f0 263f 9747 d9be 15cd de3e ca0c 033f
00000020: 85a5 09bf 63ce 1f3f a5be 383f ed00 1fbe
00000030: a700 83be 1845 033e 72f7 8b3e 635b ee3e
00000040: 6c08 c4bd aac0 81be df5d 243b c749 ce3e
00000050: df72 e13d 92af f3be 2dcb 17bf c37d d93e
00000060: ef79 bc3e 5753 34be 8b67 533e 5b66 1bbf
00000070: 815f 093f 9afe 55be b76d 2abf 426b 0e3f
00000080: 2d39 843e 431a a7be 5caa adbe 92c8 22bf
00000090: 51f2 5a3f c35d 81be 874b b3be ad2c 3bbe
000000a0: e606 4e3f 1f13 0bbf 13e1 3e3f c8e0 96be
000000b0: 86a5 43bf 0313 df3e 61d8 e1be 1784 193e
000000c0: b232 29be c8e9 16bf ab00 c53c 70dd 12bf
000000d0: d14d 0fbe 419e a8be 6f80 1b3d 625b 95bb
000000e0: 45f2 a03e ab96 23bf 5108 c73e 26aa 23bf
000000f0: 6a02 b1be 4172 02bf dce2 3f3f d668 3a3f
00000100: 0aae 883e 7b9d 9c3e 03b0 d0bd b7d9 2cbf
00000110: 8b3e 763e 5091 d8be ebfe 2e3e 72df d73e
00000120: e818 82bd cc76 86bd 3109 aabe 5723 573e
00000130: d383 0ebf 1882 133f cf20 0fbf 8991 17bf
00000140: bc0b 353f 6c24 f13e 6c7a babe bc4a 24bf
00000150: f549 f1be a979 1abf b1a9 003f 5e8d 013e
00000160: ece5 8f3e f177 8bbd c5a9 c0be 268f 97be
00000170: a60f 12bf 4c66 2cbf 0cdf 393f 5087 00bd
00000180: 8bdb 46bf 14d4 0bbf 4a7c 1b3f 6557 9dbe
00000190: 3e0c 20be 71b5 413e cef2 1abf 7f4c b6be
000001a0: 63a6 3e3f 7a57 953e b8a1 183d fe22 e6be
000001b0: 19ca 1dbf b923 d0bd daa3 f6be 0cad bb3e
000001c0: 98ee 0cbf 06a9 ea3e 353b 1f3f 9883 18be
000001d0: 5bd2 a93e f7a7 e83e c724 813e ae52 31bf
000001e0: d7d4 003f 6f9d 6e3e 455d 2a3f de28 1fbf
000001f0: 8769 343f 44ae bfbe 294c 053f 523c f93e
00000200: 2f82 013e f2fc eabe 51ba 313e 733f 193f
00000210: c993 bbbe abbe 1e3f b110 c9be f495 24bf
00000220: 755d 8bbe 468f e43d e7f8 1c3c 053f 07be
00000230: 1deb 00bf ab26 d1be b0c7 ad3e 77bc 93be
00000240: edbf 2d3e 5439 123f 6eae 96be 2bfa 3cbe
00000250: 8152 2c3f f518 df3e 2b3f 3b3e 81a3 103e
00000260: 81ab b0be 1c02 1ebf 3114 0cbf 5e01 033d
00000270: 8863 1a3f 0fb8 0d3f c3a1 8ebb c3f3 a8be
00000280: d380 b3be 2c11 1b3e ce19 d83a 8293 fdbc
00000290: a44f f4be 3137 12bf 3b09 c5be 4e26 cc3d
000002a0: f331 ff3e 97cf b7be 30ea 30bf d3e5 0fbf
000002b0: bac9 ae3e 4733 843d 5691 273f e671 a3be
000002c0: 9a9d 383d 2da2 12be cc56 333f aa89 ee3e
000002d0: b63f 87be 3927 ef3e 7c30 133f b61f 523e
000002e0: b6fa 19bf 458a 0fbf ab2c cabe 2c09 acbe
000002f0: fda0 273e 18b8 32bf 5983 e23e 5b1d 37bf
00000300: 2665 65be 38d8 093f ff3c bc3e a779 02bf
00000310: 0bb4 9b3e aa65 11bf 5764 323f 86fa 15be
-0.5365685 0.59170383 -0.4571295 -0.03602529 0.6521134 -0.4243743 0.4351584 0.5119139
-0.5376819 0.62424296 0.721659 -0.15527697 -0.25586435 0.12819326 0.27337223 0.46554098
-0.09571919 -0.25342304 0.0025080366 0.40290663 0.11008238 -0.47594887 -0.59294397 0.4247876
0.36811778 -0.17609917 0.20644967 -0.6070306 0.5366135 -0.20897904 -0.6657366 0.5563241
0.25824872 -0.32637224 -0.33919036 -0.63587296 0.85525995 -0.25266847 -0.3501856 -0.18278761
0.80479276 -0.5432605 0.74562186 -0.2946837 -0.76424444 0.43569192 -0.44110397 0.14991795
-0.16523245 -0.5895047 0.02404817 -0.57369137 -0.13994528 -0.32933238 0.03796428 -0.004558013
0.31434837 -0.63901776 0.38873532 -0.639315 -0.34572154 -0.5095559 0.74955535 0.72816217
0.2669528 0.30588898 -0.101898216 -0.67519706 0.24047296 -0.42298365 0.17089431 0.42162663
-0.06352407 -0.065656275 -0.33210137 0.21009575 -0.556699 0.5762038 -0.55909437 -0.59206444
0.7072103 0.470981 -0.36421525 -0.64176536 -0.47126737 -0.6034189 0.5025893 0.12651584
0.28105104 -0.068099864 -0.37629524 -0.296014 -0.5705513 -0.6734359 0.7260597 -0.031379044
-0.77678746 -0.5462048 0.60736525 -0.3073074 -0.1562967 0.1891687 -0.6052674 -0.35605237
0.74472636 0.29168302 0.037263602 -0.44948572 -0.616365 -0.101630636 -0.48171884 0.36655462
-0.55051565 0.4583208 0.6219972 -0.14893949 0.331683 0.45440647 0.2522337 -0.69266784
0.5032477 0.23302244 0.6654857 -0.62171733 0.7047352 -0.37437642 0.52069336 0.48678833
0.12647317 -0.45896107 0.1735623 0.5986244 -0.3663619 0.62009686 -0.39270547 -0.6429131
-0.2721974 0.1116014 0.009580827 -0.13207634 -0.50358754 -0.40849814 0.33941412 -0.28854725
0.16967745 0.57118726 -0.29429954 -0.18454807 0.6731339 0.43573728 0.18285815 0.14124872
-0.34505847 -0.6172197 -0.5471831 0.031983726 0.6030812 0.55358976 -0.0043527796 -0.32998475
-0.35059223 0.1514327 0.0016487183 -0.030954126 -0.4771701 -0.57115465 -0.38483605 0.099682435
0.49842796 -0.35900566 -0.6910734 -0.5621006 0.3413828 0.06455093 0.6545614 -0.31922835
0.045072176 -0.14319678 0.70054317 0.46589404 -0.26415795 0.46709612 0.57495856 0.2051991
-0.6014818 -0.5607036 -0.39487204 -0.33600748 0.16370006 -0.69812155 0.44240835 -0.7152917
-0.22401866 0.5384555 0.36765286 -0.50966877 0.304108 -0.5679575 0.69684356 -0.14646348

linear1.bias f4 [100]
00000000: 1103 223f 8ad3 223f d494 d23e c0f5 103f
00000010: 02aa 7dbd 1224 a9be 33fc 1d3f 7ae1 0dbf
00000020: 242a 3d3f 6612 8cbe 5dfb d6be fd1f bd3e
00000030: 030a bebe fd6b 3cbf 52e9 db3e ee11 24bf
00000040: 5f48 1d3e 817f 903e fb4b a0be 2d9f 313f
00000050: 6404 7c3e 6f2d 483c 7cde 393f c13a 1b3f
00000060: 791b 0ebe 3dea a33e af34 3e3f bb78 b2bd
00000070: 3077 25bf bf5c 18bf aea4 ecbe 5bd5 22bf
00000080: 495c 1bbe 9a45 08bd 6b4a a8be 8e59 c2be
00000090: 0687 22bf 44d5 f1bd 8ae5 1f3e 5249 7c3d
000000a0: 461d 3abe 9f34 dd3e 3a1b ec3d 8f07 87be
000000b0: ad17 1bbf 16af e33e 6ea7 823e bd75 a9be
000000c0: d502 263f 0e6f 19bf a2e7 ddbe 904d 243f
000000d0: 59a3 953e 4922 97be 636b 28bf 702f d33e
000000e0: acf4 b53e 8ab9 08bf ea10 1cbe 234c 27bf
000000f0: f960 3b3c 803a c8be 3982 87bd 96d9 34bf
00000100: 8b57 1e3f 67c7 bebe 7029 d0bd e82a 093f
00000110: b105 a2be c9f3 483f 000f 2bbe d14b 1c3d
00000120: 3d2f 573f cdf6 9abe 8489 2bbf 8259 443f
00000130: 3454 06be c138 f2be 81bf bcbe d5e8 4f3e
00000140: c735 06bf 2ca1 ca3e d6d1 3d3f 7fae b4be
00000150: 2f44 07bf 6b84 203f b8c5 1cbf c8d4 9e3e
00000160: d9e0 24bf 6896 0cbf 98f8 d73e ce00 5cbe
00000170: 28fc dabe ad47 8e3e da7e eabe 45ba 0bbf
00000180: 97f3 f4be 0391 01bf 5817 03bf 7511 13bf
0.6328593 0.63604033 0.41129172 0.56624985 -0.06192971 -0.33035332 0.6171295 -0.55422175
0.73892426 -0.27357787 -0.4198865 0.36938468 -0.37117013 -0.7360228 0.42951447 -0.6408986
0.15359639 0.28222278 -0.31307968 0.6938351 0.2461105 0.012217863 0.7260511 0.60636526
-0.13877667 0.32014647 0.7429914 -0.08714434 -0.6463499 -0.5951652 -0.4621939 -0.63606805
-0.15171923 -0.033269502 -0.32869276 -0.3795895 -0.6348728 -0.11808255 0.15614906 0.06159336
-0.1817523 0.4320421 0.115286306 -0.26372954 -0.60583 0.44469517 0.25518364 -0.3309764
0.6484807 -0.5993508 -0.43340784 0.6418085 0.29226187 -0.29518345 -0.6578886 0.4124713
0.35538232 -0.5340811 -0.15240827 -0.6535055 0.011436694 -0.39107132 -0.06616635 -0.7064451
0.6185233 -0.37261507 -0.101641536 0.53581095 -0.31644967 0.78496987 -0.16704941 0.03815824
0.84056455 -0.3026642 -0.6700671 0.7669908 -0.13118058 -0.47308925 -0.36864856 0.20303662
-0.5242581 0.3957609 0.7414831 -0.3528938 -0.52838415 0.62702054 -0.61239195 0.31021714
-0.6440559 -0.54917 0.4218185 -0.21484682 -0.42770505 0.2778906 -0.45799905 -0.545811
-0.47842094 -0.50611895 -0.51207495 -0.5744851

linear2.weight f4 [100, 100]
00000000: ccf6 193e 395f b03e 8392 d5bd 0b25 7e3c
00000010: 9650 883d 5e5b a7be 7d42 a33d 175e 15be
00000020: 3f49 103e 73e2 1dbe 3813 0bbe fc4e 673e
00000030: edad 6abe fe03 a1bc a619 e33c bd28 36bd
00000040: 2705 393d 44f1 263e 6d38 a1be 807a 7b3e
00000050: 06e0 9cbc 7547 65bd 4ad7 843e eaec 733e
00000060: 7323 b7bd b111 4dbd 92c3 3c3e 1333 f9bc
00000070: 8b0e cebc c8e3 58bd c753 1b3d d22e e6bd
00000080: 512d 34bd ea4b 0bbc 627f 70bd 5450 26be
00000090: d30f e83c 9f80 e93d d498 363e 3b87 643e
000000a0: 618e d4bd f50a 2c3e 1786 0c3e 0ffc 64bd
000000b0: 0094 9fbd b0fc 183e a8bb 313e 1e05 83be
000000c0: ab35 553e 8d0d a3be c043 28bd 317b a13e
000000d0: 5e47 0d3d d7d5 ae3c 33fd 563d df2f 533e
000000e0: 69c4 533e 75ea d2be c439 85bd d108 51be
000000f0: 3e7b e4ba 10ed cabd dc3a 41be 8ba4 83be
00000100: d5e4 2b3e b9f2 17be 748b ab3d 06ac 4b3d
00000110: 689b 88bd bf5c 0e3c e60e 1a3e 6d60 0cbe
00000120: a22a c93d a59e c0bd e6a4 6abe 95b7 683d
00000130: 8aab 1cbd 570e 6c3d e4d8 e7bd 5b53 32bc
00000140: c7fb 8ebc 62e6 3a3b ec5c 4a3e ca8d 2cbd
00000150: b2c8 a1be 40fb 0b3e e7dd d8bc b75a e6bd
00000160: bbeb c9bd ed7e 65be f069 193d 4ffc e9bd
00000170: e657 ad3d 95a5 6c3e 2715 bfbb e5c5 9bbd
00000180: 18c1 8abd b390 43be 00da ecbd 986a 9cbe
00000190: a5fe 143e 6cd5 37be 7c6f 0c3d 94e1 b8bc
000001a0: 6653 0f3d eddc be3d 9c06 66bd 9937 03be
000001b0: 8cfa bdbc aa90 50be 1cd8 8e3d 0ff5 f93d
000001c0: eb14 f53e e105 4a3e 7e6a c73c 05bb 06bd
000001d0: 7eef c43d 33e2 8d3c 347f 223e d6ae 7b3b
000001e0: 1739 21bd 94b2 393c 96ce 193e d96f 123e
000001f0: c3de 3abd 224a 1e3d ef9c 1e3d cd94 a4ba
00000200: c956 603e 9220 043e 8fb6 d6bd 4a2b 99ba
00000210: 1008 afbd 9193 463d 48c2 683e b28a 05be
00000220: 5d52 3c3d febe 133e 6e16 a83d 66ca 36be
00000230: 5215 f03a ec07 ccbd eb35 1abe ac65 cd3d
00000240: e7df fa3c 6662 1bbe 1dc8 aabe d679 1e3e
00000250: 4943 b9be 60a8 693e 6739 c73c f876 69be
00000260: d3e9 ab3d cbf3 943d f76d 843d b79c 463e
00000270: 2834 153e acc8 fa3e 15b0 b03d df78 be3d
00000280: 8f35 403c 4431 3a3e 61f9 e53d d516 c4bd
00000290: a36e 2f3d 3996 2dbc 9af4 c0bc 63dd c7bd
000002a0: b77b 343d 7dd0 a93d 92fb 00bc 9e3c a83d
000002b0: 88dc 1c3c 386b a5bd 763c e2bd 876e bf3c
000002c0: c9e9 c93c b07b 683d 10a2 d6bd 0500 a6bd
000002d0: 9aaa 083d ba29 0f3d 1d0b 55be ba50 cdbc
000002e0: 0a74 d03e 699b 74be 3f4d 89bd 7cf0 653c
000002f0: 271d ac3d e253 a13c 3d75 193e 344d 183e
00000300: 96ea d3bc 2076 8dbe 2627 493e 6a02 7f3e
00000310: b063 86bd 6929 3c3e a31d 8f3e a9f0 f73e
00000320: 102b 21be 85e9 3d3e 153d 97bd bc02 80bd
00000330: 192d 5b3d d4ef 77bc 3274 953c 6725 8a3e
00000340: 6fec 153d d999 0e3e d15c 71be c2be 93be
00000350: e3fe d3be 63dd 5ebe 3d33 fdbb 0f4c 9dbd
00000360: 7061 bf3d cb92 253e 92ba a13c 9e60 9c3d
00000370: 7f24 82bd f8f2 d43c 3c72 3bbe 6591 10be
00000380: 24e2 65bd e4db ba3d b3cf e93d 082a 803d
00000390: eabd 85be bf11 0abe c5e8 3c3e ca5e e93d
000003a0: d906 b23d 6037 093c f499 dbbd 06a5 193e
000003b0: a7fa 5fbc 7d2a 2fbe ee06 69be 4433 743e
000003c0: 067b f93c 790a 143e b984 e93d 963b fabd
000003d0: 403b 73bd 5294 423e a9b4 743e 0ac2 34bd
000003e0: eab5 7a3e 1fa8 6ebe 4014 713c aa09 be3e
000003f0: 308f 87bd 2196 183c 7342 c5bc 20e0 10be
0.15035552 0.3444765 -0.104283355 0.015511761 0.066559955 -0.32686895 0.07971666 -0.14586674
0.14090441 -0.15418415 -0.1358155 0.22588724 -0.2291791 -0.019655224 0.027722191 -0.044472445
0.04517093 0.16302973 -0.31488362 0.24558449 -0.019149791 -0.05597635 0.25945503 0.23820844
-0.08942308 -0.0500657 0.18433979 -0.030419862 -0.025153419 -0.052951604 0.037921693 -0.11239399
-0.04398853 -0.008501986 -0.05871523 -0.1624158 0.028327858 0.11401486 0.17831737 0.22317211
-0.10378719 0.16801055 0.13723026 -0.055904444 -0.07791901 0.14940143 0.17356741 -0.25589842
0.20821254 -0.31846276 -0.041080236 0.315393 0.03449189 0.021342201 0.052487563 0.2062373
0.20680393 -0.41194502 -0.065051585 -0.2041352 -0.0017431749 -0.09908497 -0.1887011 -0.25711474
0.16786511 -0.14838685 0.08376208 0.0497246 -0.066702664 0.008689105 0.15044746 -0.13708659
0.09822585 -0.09405259 -0.22914466 0.056815702 -0.03824953 0.057630863 -0.113206655 -0.010884131
-0.017454041 0.0028518667 0.1976201 -0.042127408 -0.3159843 0.13670063 -0.026472999 -0.11247771
-0.09859415 -0.224117 0.037454545 -0.11425077 0.08464031 0.2311004 -0.005831379 -0.07606105
-0.06775111 -0.19098167 -0.11565018 -0.30550075 0.14550264 -0.17952508 0.034286007 -0.022568502
0.034991644 0.09319482 -0.056158647 -0.12814178 -0.02319076 -0.20367685 0.06974813 0.12204944
0.47867522 0.19728805 0.024342772 -0.0328932 0.09615992 0.017319774 0.15868837 0.003840377
-0.039361086 0.01133408 0.15020213 0.14300479 -0.0456226 0.038644917 0.038723882 -0.0012556553
0.21908106 0.1290305 -0.10484039 -0.0011685875 -0.0854646 0.048480574 0.22730362 -0.1304119
0.045976985 0.14428326 0.08207403 -0.17850646 0.0018316901 -0.099624485 -0.1505963 0.10029158
0.030624343 -0.15174255 -0.333558 0.15476164 -0.36184147 0.22818136 0.024319364 -0.22799289
0.08394208 0.07273062 0.06466287 0.1939572 0.14570677 0.48981225 0.08627335 0.09300398
0.011731519 0.18182856 0.11229206 -0.09574667 0.04283012 -0.010594898 -0.023554135 -0.09759023
0.044063296 0.08291719 -0.007872479 0.08214687 0.009574063 -0.08077091 -0.11046688 0.023368133
0.02464761 0.056758583 -0.1048013 -0.081054725 0.033365823 0.034951903 -0.2080502 -0.025062907
0.4071353 -0.2388741 -0.06704187 0.014034387 0.08403998 0.019693319 0.14986129 0.148732
-0.025868695 -0.27629185 0.1964384 0.24903265 -0.06561983 0.18375172 0.279523 0.48425797
-0.15739083 0.18546112 -0.07384697 -0.062505215 0.053509805 -0.015132863 0.018243883 0.2698166
0.036602434 0.13925876 -0.23570563 -0.28856474 -0.414054 -0.2176414 -0.0077270553 -0.07680523
0.093447566 0.16169278 0.019742284 0.07635616 -0.06354617 0.025994763 -0.18305296 -0.14117964
-0.056123868 0.09123972 0.114165686 0.06258017 -0.26121455 -0.13483332 0.1844817 0.11395033
0.08692712 0.008375019 -0.107227236 0.15004358 -0.0136706 -0.17106052 -0.2275655 0.23847681
0.03045417 0.1445712 0.11402268 -0.12218396 -0.059382677 0.19001892 0.23897041 -0.044130363
0.24483457 -0.2330632 0.014714301 0.37116748 -0.06619108 0.009313137 -0.024079537 -0.14147997

linear2.bias f4 [100]
00000000: 27d3 133e 4ab3 3fbd ac4b a93d 7d64 663d
00000010: 9b63 c03d fb3f 51bd 8b6b b3bd 4c31 903d
00000020: 20a0 283e bdb7 2b3d 77f3 ff3c f7f8 203e
00000030: cbd6 093e 1dc2 b63d 4d95 763d 3e64 4a3d
00000040: dec6 b03d f3f3 6cbd 0c44 0a3d 2baa dd3d
00000050: 5d36 5f3d ef0a d6bc 1796 a6bb 0c77 0a3e
00000060: e9c5 663d 6d3d 073e 8093 47bd 7a49 933c
00000070: 4498 cd3d f8dc d53c 5b24 a13d c914 af3d
00000080: c10a 283d c1ed 813b 60e6 ff3d 8050 a2bd
00000090: 4fd9 a1bc 403e c93c 5f80 4bba da3d cb3d
000000a0: 6ccd 9bbd a661 fc3d 5fb0 5d3d 4d14 583d
000000b0: 165f 393d d01b 99bd 303c bbbc 9a69 3239
000000c0: cdb6 a7bd da6a 293e 0d78 81bd bb84 c1bd
000000d0: 66d8 cc3c 5900 573d 7eab 033d 28c5 c53d
000000e0: 9137 6f3d fa45 5cbd 03b2 8fbd 81e7 003d
000000f0: fc40 82bc 03d6 e73d 124c 213e 4f04 ca3d
00000100: 87a2 873d 3692 0fbd 6fff cf3d da11 ef3d
00000110: c12a 1c3d 4bc6 bfbd a5b7 b1bd 4791 503c
00000120: 36af 9b3d 6426 3b3e d18e 0a3e d41c 023e
00000130: 839a f43c a725 573d 5984 9d3c 87a2 2cbd
00000140: 6892 ab3d 6cc6 6fbd cab2 3cbd 1b52 303d
00000150: 17b1 a83d f59f c63b e78a 073e 33cb d03c
00000160: 5758 f73d 0128 273e 024b 143e 6a25 4a3d
00000170: 9875 9dbb 9b23 043e b6cd 7a3d ee1a 8dbd
00000180: 4dba 0dbc 79b0 65bd c137 5d3e 073d c43d
0.14436017 -0.046801843 0.082663864 0.056248177 0.09393998 -0.051086407 -0.087607466 0.07040653
0.16467333 0.041923273 0.031244023 0.15719973 0.13460843 0.08923743 0.060200978 0.049412005
0.08631681 -0.057849836 0.0337563 0.108234726 0.054495204 -0.02612826 -0.00508381 0.13521975
0.056341086 0.13207026 -0.04872465 0.017979372 0.10038808 0.026106343 0.078682624 0.08548886
0.04102588 0.00396511 0.124951124 -0.079255104 -0.019756941 0.024565816 -0.0007762964 0.099239066
-0.076075405 0.123233125 0.05412328 0.052753735 0.045256697 -0.07476008 -0.022855848 0.00017014742
-0.08189163 0.16544667 -0.06321726 -0.094491445 0.02500553 0.052490566 0.03214597 0.09656745
0.0584026 -0.053777672 -0.07016375 0.03147078 -0.015900128 0.11320116 0.15751675 0.09864103
0.066227965 -0.035051547 0.10156142 0.11673327 0.03812671 -0.09363993 -0.086776055 0.012729949
0.07601778 0.18276364 0.13531043 0.1270631 0.029858833 0.052526142 0.019228147 -0.042147186
0.08377534 -0.05853884 -0.046068944 0.043047052 0.08236902 0.006061549 0.13236581 0.025487518
0.12077396 0.16323854 0.14481738 0.049352087 -0.004805278 0.12904207 0.061231337 -0.06889902
-0.008650375 -0.0560765 0.216033 0.095819525

linear3.weight f4 [1, 100]
00000000: ce31 7f3f 2919 ad3e ebf9 fcbe ce01 1cbf
00000010: 038c 8f3f 4b0a 2dbf dcfd 213c bb6d 503e
00000020: 2936 9a3f eb1b c2b9 5a15 903f 8018 1dbf
00000030: eb5c 8d3f dedb eebe fd4f 843e 459f 883e
00000040: b321 39bf f28a a43e 8fc1 833f a832 2e3e
00000050: 8d49 b43e 224e ee3a 3408 993e 1bc1 843f
00000060: c2d6 953f 7b2d 7e3f fbd6 7739 7942 853f
00000070: f9fd 623f 4a50 763f 5131 37bf 145d 8abb
00000080: 5abb 523f c30d a3ba 0e22 02bf 0afb 73b9
00000090: 5d8a 783e 40ed 7139 d055 25bf 71a0 233b
000000a0: c1dd 7f3e 2661 733f 2840 973f 533d 2c3e
000000b0: 495d 823f 89aa 0b3b 8ae7 363b 9373 383b
000000c0: 926e cfba ff1c 57bf bbdc 6a3a b223 073b
000000d0: efad 4b3e f94a dc3e f758 03bf 0c8f 963f
000000e0: 33bb 6a3f 5894 9f3a 6079 5fba aedf 813f
000000f0: 2e0d 5c3e 43e0 953f b0f2 1abf 33ec 613f
00000100: e102 e43a 7926 bd3e 7e3e 7a3f 5693 983f
00000110: 56e6 a13e ada6 9d3b efd5 fd3e d9cd 673f
00000120: 0c39 01bf ae49 823f a77f 4e3f 6f24 873f
00000130: 6358 2bbf 20ac 723e 4e13 a23e b157 153a
00000140: f12e 4e3f 47d9 b13e 3c34 27bf 1533 453e
00000150: e214 16bf d072 9c39 18cc 5e3f 75d0 22bb
00000160: 3a95 5b3f 0068 873f 1eb0 863f ea0a 0a3b
00000170: cf1b 2fbf 73dd 35bf 1e3d c7be 1609 36bf
00000180: 5bd8 14bb 17e3 23bf 8387 4fbf 83bb 883f
0.9968537 0.33808258 -0.49409422 -0.60940254 1.1214603 -0.6759383 0.009887185 0.20354359
1.2047778 -0.00037023364 1.1256516 -0.6136551 1.1043981 -0.4665212 0.25842276 0.26684013
-0.72317046 0.32137257 1.0293444 0.17011511 0.35212365 0.0018181244 0.2988907 1.0371431
1.1706164 0.9928815 0.00023635842 1.0410911 0.8866878 0.9621626 -0.71559626 -0.0042225216
0.82317126 -0.0012440014 -0.50833213 -0.00023267805 0.24271531 0.00023071934 -0.64584064 0.0024967457
0.24986936 0.9507011 1.1816454 0.16820268 1.0184718 0.0021311364 0.0027909004 0.002814506
-0.0015825799 -0.8402862 0.0008959283 0.0020620641 0.19890569 0.4302595 -0.51307625 1.1762404
0.91691893 0.0012174947 -0.0008524861 1.0146387 0.21489403 1.1709064 -0.6052656 0.88251036
0.0017395878 0.36943415 0.97751606 1.1919963 0.31621045 0.004811129 0.4957728 0.90548474
-0.5047767 1.0178735 0.8066353 1.0557994 -0.6693174 0.23698473 0.31655353 0.0005696966
0.80540377 0.34736082 -0.6531408 0.19257767 -0.58625615 0.0002984018 0.8703017 -0.0024843488
0.85774577 1.0578613 1.0522497 0.0021063634 -0.6840181 -0.7104103 -0.38913816 -0.71107614
-0.0022711966 -0.64018387 -0.8106615 1.0682224
