checkpoints/single-phase/123bus/safe-ddpg/no_gradient_value_net_checkpoint_a3.pth (torch, 44119 bytes, 5 tensors)

linear1.weight f4 [100, 2]
0	0x3f16d95e	0.58925426
1	0x3e96b21f	0.2943277
2	0xbda81142	-0.08206417
3	0x3f143f96	0.57909524
4	0xbf3cdb06	-0.73771703
5	0x3ec70b1e	0.3887567
6	0x3ea4a181	0.32154468
7	0x3f029652	0.5101062
8	0xbe829a99	-0.25508574
9	0x3f100ce4	0.5626967
10	0xbd2328b1	-0.03983373
11	0xbf01ce72	-0.50705636
12	0xbf02bb4e	-0.51067054
13	0x3dfd56ad	0.12370048
14	0xbf160acd	-0.5861023
15	0xbf1b25ee	-0.6060475
16	0x3eec1310	0.46108294
17	0x3e8905f8	0.26762366
18	0x3f0d76dc	0.5525949
19	0xbf11e7ff	-0.5699462
20	0x3d44867f	0.047979828
21	0x3f229924	0.63514924
22	0xbb4158eb	-0.0029502462
23	0x3f2b4442	0.6690103
24	0xbeb9245a	-0.36160547
25	0xbf2b8578	-0.6700053
26	0xbe32e97d	-0.17471881
27	0x3f341c55	0.7035573
28	0xbea9cb97	-0.3316314
29	0x3f1714c3	0.59016055
30	0x3f1a8991	0.6036616
31	0xbf333123	-0.6999685
32	0xbf2517d7	-0.644895
33	0xbf38e748	-0.7222791
34	0x3e8e1586	0.27750796
35	0x3efc6ec4	0.49303257
36	0xbd698c80	-0.057018757
37	0xbd2028df	-0.039101478
38	0xbf0f665b	-0.5601556
39	0x3ea057b7	0.3131692
40	0x3f494c30	0.7863188
41	0x3f2395c1	0.6390038
42	0xbf2073e9	-0.62676865
43	0x3e84720b	0.25868258
44	0x3e02cdff	0.12773894
45	0xbec7f96e	-0.39057487
46	0x3f27707c	0.6540601
47	0x3eed29b3	0.46320876
48	0xbef6e554	-0.48221838
49	0x3f15d889	0.5853353
50	0x3e4aa950	0.1979115
51	0x3ef1877e	0.47173685
52	0xbeef4882	-0.46735007
53	0xbee5fd5e	-0.44919866
54	0xbf2b6967	-0.66957706
55	0x3f1dd563	0.6165373
56	0xbf128ee0	-0.5724926
57	0x3f20d4e2	0.62824833
58	0x3f4a77c9	0.7908903
59	0xbd444208	-0.047914535
60	0xbeab8842	-0.33502394
61	0x3ea38d92	0.31943947
62	0x3da8539e	0.08219074
63	0x3eb4ffd0	0.3535142
64	0x3d8008f3	0.06251707
65	0xbf0e3a4f	-0.5555772
66	0xbec507fe	-0.3848266
67	0x3e90165d	0.28142062
68	0x3f1cd72d	0.6126583
69	0xbf00ff8b	-0.5038993
70	0xbd6034be	-0.0547378
71	0xbdfc0f95	-0.123076595
72	0x3e831365	0.25600734
73	0x3e607fb2	0.21923712
74	0x3f0a9510	0.541337
75	0x3f023ef6	0.5087732
76	0x3ec1c263	0.37843618
77	0xbf382443	-0.7193033
78	0xbe2ed8d1	-0.17074896
79	0x3f02e484	0.5112994
80	0xbe908580	-0.28226852
81	0xbebff2c4	-0.37489903
82	0x3f0f2475	0.55915004
83	0x3f335b4c	0.7006118
84	0x3f140ca6	0.578318
85	0x3ea04b77	0.31307575
86	0xbecc55ba	-0.39909154
87	0x3f35c91d	0.7101
88	0xbf11b172	-0.56911385
89	0xbecfd8d7	-0.40595123
90	0x3f68f091	0.90992075
91	0x3f194c73	0.5988228
92	0x3d898912	0.06715597
93	0x3f0a0952	0.5392047
94	0x3e2164dc	0.15761131
95	0xbf2e8f75	-0.6818765
96	0xbe566cdf	-0.20939969
97	0x3e9b8c34	0.30380404
98	0xbea8e32a	-0.32985812
99	0xbf1d3977	-0.6141581
100	0xbe767c5d	-0.24070878
101	0xbefee974	-0.49787486
102	0x3f2ee18e	0.6831292
103	0x3eae43f8	0.3403623
104	0x3e85268e	0.26005977
105	0xbf3b71dd	-0.73220617
106	0x3c5ea20d	0.013588441
107	0x3e45d665	0.19320066
108	0x3ee0128a	0.43764144
109	0xbedbef1e	-0.4295587
110	0x3f51fe98	0.82029104
111	0x3ea2fc3d	0.31833068
112	0xbf152f39	-0.5827518
113	0x3f1e1fc6	0.6176723
114	0x3f451834	0.76990056
115	0x3e0aaf17	0.13543354
116	0xbf18ec0a	-0.5973517
117	0xbf294d46	-0.66133535
118	0xbe059b9d	-0.13047643
119	0x3e8875fa	0.2665251
120	0x3ea16de6	0.31529158
121	0xbe520085	-0.2050801
122	0x3f0d2503	0.551346
123	0xbe9e3519	-0.30899885
124	0xbc90151b	-0.017588189
125	0xbde11847	-0.10990959
126	0xbf2774d8	-0.65412664
127	0x3ef2e8f1	0.47443345
128	0x3f381f38	0.71922636
129	0xbe49ae02	-0.19695285
130	0xbf3277fe	-0.69714344
131	0xbed8e752	-0.42363983
132	0x3f2732cf	0.653119
133	0x3f2781c8	0.65432405
134	0x3f8053f4	1.002562
135	0xbea7743d	-0.3270587
136	0x3f28501c	0.6574724
137	0xbde37f51	-0.11108268
138	0xbdc6a818	-0.0970003
139	0xbea8fde2	-0.33006197
140	0x3f15a1ba	0.584499
141	0x3f0b930b	0.54521245
142	0x3e23de0e	0.16002676
143	0x3eccf647	0.40031645
144	0xbe4cb10b	-0.19989412
145	0xbf2b5a09	-0.6693426
146	0xbd897a1f	-0.06712746
147	0xbed2dfb6	-0.41186303
148	0x3f18cdae	0.5968884
149	0x3eb8a239	0.36061266
150	0x3e3b020c	0.182625
151	0x3ea2ccf2	0.31796986
152	0xbe43ee15	-0.1913379
153	0x3ed58386	0.41701907
154	0xbd31fbfe	-0.04345321
155	0x3f32e625	0.6988242
156	0xbe95999a	-0.2921875
157	0xbeb124e2	-0.34598452
158	0x3ebacda7	0.36485025
159	0xbefab54d	-0.48966447
160	0x3f4a0584	0.78914666
161	0x3ebb08d5	0.36530176
162	0xbe2fc949	-0.17166628
163	0xbeb697ee	-0.35662788
164	0x3e8d066e	0.27543968
165	0x3d948f38	0.07253879
166	0x3c8c285a	0.017109085
167	0x3f09d5fa	0.5384213
168	0xbea553d7	-0.32290527
169	0xbf180253	-0.59378546
170	0x3f515644	0.81772256
171	0x3e7c8ba7	0.24662648
172	0x3f4ae198	0.7925048
173	0xbe99fc15	-0.30075136
174	0x3f48f207	0.78494304
175	0xbe3896b0	-0.18026233
176	0x3f0e9141	0.5569039
177	0xbeac876b	-0.33697066
178	0x3f56518a	0.8371817
179	0x3dbde7ca	0.09272726
180	0xbeda0860	-0.42584515
181	0x3eae94d8	0.34097934
182	0x3f70e48c	0.94098735
183	0xbe26ed6b	-0.16301505
184	0xbe4ef299	-0.20209731
185	0x3d7b1a94	0.061304644
186	0x3f0b8fad	0.54516107
187	0xbe582246	-0.21106824
188	0xbe9b1030	-0.30285788
189	0xbdfd443f	-0.123665325
190	0x3f613c30	0.87982464
191	0xbec9db17	-0.39424965
192	0xbc021c5c	-0.007941332
193	0xbe84f621	-0.2596903
194	0xbed8a0a8	-0.4231007
195	0x3e91bc59	0.2846401
196	0xbe86dc7b	-0.26340088
197	0x3e5cb301	0.2155266
198	0xbf07babb	-0.53019303
199	0xbdf54f42	-0.11978008

linear1.bias f4 [100]
0	0xbf1c2bc0	-0.6100426
1	0xbf2dab18	-0.67839193
2	0x3f36f117	0.71461624
3	0xbf21c57c	-0.6319196
4	0x3f49c2ad	0.78812677
5	0x3f860a27	1.0471848
6	0xbed1d44c	-0.40982282
7	0xbe93c35d	-0.28859988
8	0xbf04cb46	-0.5187267
9	0x3f4ec376	0.80767
10	0x3e5c50fa	0.21515265
11	0x3e03d7a0	0.12875223
12	0x3e49545c	0.19661087
13	0x3f56ab95	0.83855563
14	0x3f0b9305	0.5452121
15	0xbe7f94d6	-0.2495912
16	0xbed8692b	-0.42267737
17	0x3ee97c40	0.45602608
18	0x3f260718	0.64854574
19	0x3ef5f531	0.4803863
20	0x3f38ae99	0.72141415
21	0xbe85c10a	-0.2612384
22	0xbec6787b	-0.38763794
23	0xbe35e279	-0.17762174
24	0xbed520ab	-0.41626486
25	0x3eaee885	0.34161773
26	0xbddf73ef	-0.109107845
27	0x3f3d5303	0.7395479
28	0xbea87a9d	-0.32906047
29	0xbed293d6	-0.41128415
30	0xbd80e007	-0.0629273
31	0x3f166e21	0.58761793
32	0xbe7d38b4	-0.24728662
33	0x3e10050f	0.1406443
34	0x3f21df74	0.6323159
35	0x3f25f28f	0.6482324
36	0xbecff502	-0.40616614
37	0x3f65c56d	0.8975437
38	0x3e579d5c	0.21056122
39	0x3f45c9e4	0.77261186
40	0x3ecce0de	0.4001531
41	0xbf3256fe	-0.6966399
42	0x3f4c3015	0.7976087
43	0xbe9ee954	-0.3103739
44	0xbe514797	-0.20437466
45	0x3f5140de	0.81739604
46	0xbe633157	-0.2218679
47	0x3ed29a42	0.41133314
48	0x3f1f8699	0.62314755
49	0x3e38a416	0.18031344
50	0x3deda0a1	0.11602903
51	0xbe70131d	-0.23444791
52	0x3e25eb5b	0.16203062
53	0x3e936d5d	0.28794375
54	0xbe403818	-0.18771398
55	0x3f11e44a	0.56988966
56	0xbe9a5148	-0.30140138
57	0xbe157443	-0.14595132
58	0xbeae6438	-0.34060836
59	0xbf26198f	-0.6488275
60	0x3f2f2977	0.68422645
61	0x3f405dbf	0.75143045
62	0x3f065a76	0.5248178
63	0xbf1975f6	-0.5994562
64	0xbd93e73a	-0.07221837
65	0xbe731a95	-0.23740609
66	0x3ed7b6da	0.42131692
67	0xbe8a7f92	-0.27050453
68	0x3f571b31	0.84025866
69	0x3f876a3d	1.0579296
70	0xbf39a8e7	-0.7252335
71	0x3ebf3414	0.3734442
72	0xbd04005d	-0.03222691
73	0x3f503f2b	0.81346387
74	0xbeaf73c7	-0.3426802
75	0x3f343e49	0.7040754
76	0x3e55ef35	0.20892031
77	0xbf09612f	-0.53663915
78	0x3eb5e801	0.35528567
79	0xbdf1ffdc	-0.118163794
80	0x3f508658	0.8145499
81	0x3dbff896	0.09373586
82	0x3ec8b09e	0.39197248
83	0xbf284a27	-0.6573815
84	0x3eeb21f0	0.4592433
85	0x3e82c1b2	0.25538403
86	0x3d72672c	0.059180424
87	0xbe3a7d32	-0.1821182
88	0x3adcfa74	0.0016859309
89	0xbeff8818	-0.4990852
90	0xbf14c83e	-0.58118045
91	0x3f2bffb4	0.67187047
92	0xbe956a82	-0.29182822
93	0xbd9d5274	-0.07681742
94	0x3f63eff2	0.89038
95	0x3e9e5ff4	0.3093258
96	0x3f6fda08	0.93692064
97	0x3f078484	0.5293658
98	0x3e8f90dc	0.28040206
99	0xbf2888f7	-0.6583399

linear2.weight f4 [100, 100]
0	0xbecd5e3d	-0.4011096
1	0xbedf2f1f	-0.43590638
2	0xbdae868e	-0.08521758
3	0xbf2d7438	-0.6775546
4	0xbe3bd284	-0.18342024
5	0xbd319659	-0.043356273
6	0x3d97a890	0.074051976
7	0x3cf1adc3	0.029501801
8	0xbf14562b	-0.5794398
9	0x3c98f5e6	0.018671941
10	0xbe7c33f2	-0.2462919
11	0xbe0d7afd	-0.13816448
12	0x3db1837a	0.08667655
13	0xbd0233ed	-0.0317878
14	0xbe92af49	-0.28649357
15	0x3ceb1f13	0.02870134
16	0xbd162566	-0.03665676
17	0x3d8b32d1	0.06796802
18	0x3d41710e	0.047226958
19	0x3daccb6d	0.08437238
20	0x3df616d2	0.120160714
21	0xbd7f5d3d	-0.06234478
22	0xbd712fe8	-0.058883578
23	0x3d423459	0.047413204
24	0xb93cceb6	-0.00018006083
25	0xbe0bd7f6	-0.13656601
26	0xbdd0053e	-0.1015725
27	0xbe585700	-0.21126938
28	0xbdb36d1c	-0.08761045
29	0xbd37955e	-0.044820182
30	0x3dbe9e41	0.09307528
31	0x3ddd1b80	0.10796261
32	0xbdad98cd	-0.0847641
33	0x3dd4354b	0.10361727
34	0x3e018c13	0.1265109
35	0x3e0d44ce	0.13795778
36	0xbf0c8e7c	-0.54904914
37	0x3e39e129	0.18152298
38	0x3d043d74	0.03228517
39	0xbdf8ed3a	-0.121546224
40	0x3dc36b1f	0.09541916
41	0xbee13a14	-0.43989623
42	0x3e7294a6	0.23689517
43	0xbe823c0a	-0.2543643
44	0xbd47c780	-0.048774242
45	0x3dd6d12b	0.104891144
46	0xbe9c7ebd	-0.30565444
47	0x3db40e56	0.08791797
48	0xbd72bcea	-0.059262194
49	0xbd4b6531	-0.04965705
50	0xbbe081a0	-0.00685139
51	0x3d9a2f81	0.07528592
52	0xbd7bf080	-0.061508656
53	0x3d0bb0fb	0.03410433
54	0x3c9a1528	0.018808916
55	0x3ea7dfff	0.32788083
56	0xbe56bf6a	-0.20971456
57	0x3eb687b9	0.35650423
58	0x3cf9ba90	0.030484468
59	0x3d993bb0	0.074820876
60	0x3d958fd0	0.07302821
61	0x3cb93d05	0.022612104
62	0xbce800c1	-0.028320672
63	0x3d4c2393	0.049838614
64	0xbc96cec5	-0.018409142
65	0xbd1c2f25	-0.038130898
66	0x3cd2a91c	0.025715403
67	0xbd7dce32	-0.06196422
68	0x3ded4f5f	0.115874045
69	0x3dab3b88	0.08360964
70	0xbec5741f	-0.38565156
71	0xbdc3aec9	-0.09554822
72	0x3d8c0664	0.068371564
73	0x3de23722	0.11045672
74	0xbdc01f32	-0.0938095
75	0x3df789e8	0.120868504
76	0xbe31de4a	-0.17369953
77	0xbe682fab	-0.22674434
78	0xbd4085fb	-0.047002774
79	0xbd891cde	-0.06694959
80	0x3e96001c	0.29296958
81	0xbc3dcd2c	-0.011584561
82	0x3dd52d8b	0.10409077
83	0xbed48780	-0.41509628
84	0xbd209788	-0.03920701
85	0x3e97cde1	0.2964926
86	0x3d81cf85	0.06338409
87	0x3dede5ec	0.1161612
88	0xbd270772	-0.040778585
89	0x3e9c6edf	0.30553338
90	0xbd173fa0	-0.036925912
91	0xbc3f7717	-0.011686108
92	0x3d8b0d42	0.06789638
93	0x3dd8fd57	0.10595196
94	0xbd55dcfe	-0.052212708
95	0x3d435d50	0.04769641
96	0x3e079b59	0.13242854
97	0xbe6bccd8	-0.2302736
98	0x3d5eaf9d	0.054366697
99	0xbd92ee2b	-0.07174333
100	0x3dbe0d78	0.09279913
101	0xbd0e320d	-0.0347157
102	0x3d94e79b	0.07270738
103	0xbbf6ba67	-0.007529545
104	0x3d655a80	0.05599451
105	0xbd9c3851	-0.07627929
106	0x3ce48d73	0.02789948
107	0xbdc5637e	-0.09638117
108	0x3db67628	0.08909255
109	0xbcb4016b	-0.021973332
110	0xbd696873	-0.056984376
111	0x3d3880ed	0.04504483
112	0x3d84232a	0.064520195
113	0x3b852f80	0.0040645003
114	0xbdac51d8	-0.08414048
115	0xbda81782	-0.08207609
116	0x3db15d7f	0.08660411
117	0x3d79cfa0	0.060989022
118	0xbd32e693	-0.043676924
119	0x3d083d20	0.03326142
120	0xbdbb48b0	-0.091447234
121	0x3d22eb3a	0.03977511
122	0x3d1458e7	0.036217596
123	0xbd8efaf5	-0.0698146
124	0xbd663c9a	-0.056210138
125	0x3c20569a	0.009786272
126	0xbd76e772	-0.060279317
127	0xbb8c979a	-0.0042905333
128	0x3d6d2fdd	0.057906974
129	0xbd167d05	-0.03674032
130	0x3dca86cd	0.098889925
131	0xbd872198	-0.065982044
132	0x3cbbff92	0.022949014
133	0x3d8d1ec5	0.068906344
134	0x3c352b2c	0.011057656
135	0xbcef55f2	-0.029215787
136	0x3ca7b9cd	0.020474339
137	0xbd571d40	-0.05251813
138	0xbdd77089	-0.10519511
139	0xbd2f4cb7	-0.04279777
140	0xbd082661	-0.033239726
141	0x3d7e28f0	0.06205076
142	0x3d8683f3	0.06568136
143	0xbb90ba80	-0.004416764
144	0x3db1aa9f	0.086751215
145	0x3d826665	0.063671865
146	0x3da66345	0.08124403
147	0xbd3584a2	-0.04431594
148	0xbc314d33	-0.010821628
149	0x3d86eb5a	0.065878585
150	0x3cc9e890	0.024647027
151	0xbd68ead3	-0.05686457
152	0x3b4a44d4	0.0030863779
153	0x3cdc4f67	0.02689333
154	0xbd022935	-0.03177758
155	0xbdc00d13	-0.09377494
156	0xbb8ae3e7	-0.004238594
157	0x3dcaff37	0.099119596
158	0xbbcd5a96	-0.006266902
159	0xbcec13d3	-0.028818047
160	0xbc417341	-0.011807264
161	0x3c60ff84	0.013732795
162	0x3cc9e8d4	0.024647154
163	0x3d97d167	0.07412987
164	0xbcd373ca	-0.025812048
165	0x3cf041f7	0.02932833
166	0xbcfe9540	-0.031077027
167	0x3d0ccc44	0.03437449
168	0xbd756090	-0.059906542
169	0xbdb1c1f6	-0.08679573
170	0xbd87a0e5	-0.06622485
171	0x3d3e38f7	0.046441045
172	0x3cba41af	0.022736399
173	0x3d17a1fa	0.037019707
174	0xbc9b2b4d	-0.018941546
175	0x3db1fb47	0.086905055
176	0xbd6b61c7	-0.057466295
177	0x3c9ec6ad	0.019381845
178	0x3d8e9b2d	0.06963191
179	0xbcc8dfd3	-0.02452079
180	0xbdb1818d	-0.08667288
181	0x3d82aa68	0.06380159
182	0xbdb5d692	-0.08878817
183	0x3c26b927	0.01017598
184	0x3da0a209	0.07843406
185	0xbc170363	-0.009217116
186	0xbdb1d27a	-0.08682723
187	0x3ce9fa0e	0.028561618
188	0x3d90a72f	0.07063138
189	0xbd8dbe3d	-0.06921051
190	0xbd2e245d	-0.042515147
191	0x3d85797f	0.06517314
192	0x3d29fca7	0.041500714
193	0x3d7cadcd	0.061689187
194	0xbdbef953	-0.093248986
195	0xbc707f99	-0.014678859
196	0x3b98a324	0.0046581198
197	0x3da274d5	0.0793244
198	0xbd9d4548	-0.0767923
199	0xbd745393	-0.059650015
200	0xbddb08e6	-0.106950566
201	0xbdd92af6	-0.10603897
202	0x3e6703b0	0.2256
203	0x3d58afbb	0.052901965
204	0x3e0adad2	0.13560036
205	0x3d93a488	0.07209116
206	0x3c00348c	0.007825028
207	0xbcd37580	-0.025812864
208	0xbe18b8d6	-0.1491426
209	0x3c8e1e42	0.017348412
210	0x3d231b28	0.03982082
211	0x3abeefe9	0.0014567348
212	0x3dac00ee	0.08398615
213	0x3dc9dc1e	0.09856437
214	0x3c44c9eb	0.012011032
215	0x3d1ee79e	0.038795106
216	0x3c182e7b	0.009288426
217	0x3df1b9e5	0.11803035
218	0x3de8bcd0	0.11364138
219	0x3de4d8aa	0.11174138
220	0x3e0eb23f	0.13935183
221	0xbd2f62b8	-0.042818755
222	0x3d6fbdbc	0.058530554
223	0xbd0aee94	-0.033918932
224	0xbd028e60	-0.03187406
225	0xbb3a8c75	-0.0028465067
226	0xbcacbdf9	-0.02108668
227	0x3e28f2ed	0.16498919
228	0x3da025ab	0.078196846
229	0xbdf92436	-0.1216511
230	0xbd31778a	-0.043326892
231	0xbce74dbc	-0.028235309
232	0x3dc4499a	0.09584351
233	0x3dd56827	0.10420256
234	0x3cb10a71	0.021611424
235	0x3cafe2e4	0.021470495
236	0xbda8d72e	-0.08244167
237	0x3d594bdc	0.05305086
238	0x3d9cf8b6	0.07664625
239	0x3db55172	0.08853425
240	0x3d6b2fd8	0.057418674
241	0x3daa61a3	0.08319404
242	0x3e478e17	0.19487797
243	0x3d91ae65	0.07113341
244	0xbe05cc94	-0.13066322
245	0x3dfc5b20	0.12322068
246	0xbd7a066b	-0.061041277
247	0x3d94137e	0.0723028
248	0x3e0d44ef	0.13795827
249	0xbdaaab63	-0.08333471
250	0x3c7d778d	0.015470398
251	0xbb877106	-0.0041333465
252	0x3dac3ce2	0.0841005
253	0x3e0babf7	0.13639818
254	0xbd649f67	-0.05581608
255	0x3db641c4	0.088992625

linear2.bias f4 [100]
0	0x3dbe93ee	0.09305559
1	0x3d6554b8	0.055988997
2	0x3e68ef2e	0.2274749
3	0x3d8ea40a	0.06964882
4	0xbe231197	-0.15924679
5	0x3e10c69a	0.1413826
6	0x3e2d29d1	0.16910483
7	0x3ddd8aa2	0.10817458
8	0x3dc412f4	0.095739275
9	0xbd6235bd	-0.05522703
10	0xbd4e8717	-0.0504218
11	0xbd30bd60	-0.043149352
12	0x3dc50e57	0.09621876
13	0x3e4f7f09	0.20263304
14	0x3dda28b6	0.10652296
15	0x3d7e5e16	0.062101446
16	0x3e057e1f	0.13036393
17	0x3e229c02	0.15879825
18	0x3dd362be	0.10321568
19	0xbacec800	-0.0015776157
20	0x3d460ee1	0.048354033
21	0x3e685984	0.22690398
22	0x3e030705	0.12795646
23	0x3e1218a5	0.14267214
24	0x3e305c6d	0.17222758
25	0xbe338dca	-0.17534557
26	0x3e1ffc69	0.1562363
27	0x3e18c7e6	0.14920005
28	0x3e802738	0.25029922
29	0x3e7950df	0.24347256
30	0xbd503247	-0.0508292
31	0x3dfedd86	0.12444596
32	0x3d4fd78b	0.050742667
33	0x3e1d106b	0.15338294
34	0x3e2d8384	0.169447
35	0x3e39d515	0.1814769
36	0x3e2ddebd	0.16979499
37	0xbe4a6a4a	-0.19767109
38	0x3e1f2788	0.15542424
39	0x3e8296e8	0.25505757
40	0x3d91f80e	0.07127391
41	0x3e606e26	0.21917018
42	0xbd823650	-0.063580155
43	0x3dffeafe	0.12495993
44	0x3e6f9f3d	0.23400588
45	0xbca2e056	-0.019882362
46	0x3e55599a	0.20834962
47	0x3c998e6d	0.018744672
48	0x3e392897	0.1808189
49	0xbdbf89d3	-0.0935246
50	0x3db96c5b	0.0905387
51	0x3e2fb843	0.17160134
52	0xbc8f8ae0	-0.017522275
53	0x3e42d4c7	0.1902648
54	0xbdbdd378	-0.0926885
55	0x3e2f8dd7	0.17143951
56	0x3e5f7d9a	0.21825257
57	0xbdb158f2	-0.08659543
58	0xbdba0e18	-0.090847194
59	0x3de35790	0.111006856
60	0x3b9aae1a	0.0047204616
61	0x3d97540a	0.07389076
62	0xbe131305	-0.14362724
63	0xbdfd4cd6	-0.12368171
64	0x3e016454	0.12635928
65	0xbd57757d	-0.05260228
66	0xbd718743	-0.058966886
67	0x3d2e3583	0.0425315
68	0x3e399a1a	0.18125191
69	0x3e00b50f	0.12569068
70	0x3e5407fc	0.20706171
71	0xbab31733	-0.001366353
72	0x3e89213a	0.26783162
73	0x3e1d9547	0.15388976
74	0x3dfcfa2f	0.12352406
75	0xbddef5b8	-0.10886711
76	0x3dbc738f	0.092017286
77	0x3e86d0e8	0.26331258
78	0xbe0dfb8b	-0.13865487
79	0xbd1e73a7	-0.038684513
80	0x3e664829	0.22488464
81	0x3e57ca95	0.21073373
82	0xbe124fa5	-0.14288194
83	0x3dfe9e7c	0.12432572
84	0x3dd06d31	0.101770766
85	0x3ca30f3f	0.01990473
86	0x3d9a1328	0.07523185
87	0x3e67d9a4	0.22641617
88	0x3e89aeb3	0.26891097
89	0x3e01617b	0.12634842
90	0x3e4d97f0	0.20077491
91	0x3d218168	0.039430052
92	0x3da3ace2	0.07991959
93	0x3db0f558	0.086405456
94	0x3e1c0f29	0.15240158
95	0x3e1ca369	0.15296711
96	0x3ccb066d	0.024783337
97	0x3e0a7db7	0.13524519
98	0x3e6c0ebb	0.23052494
99	0x3c9b9b0d	0.018994832

linear3.weight f4 [1, 100]
0	0x3d1842d0	0.037173092
1	0x3bf26b89	0.007398073
2	0x3d9f5164	0.07779196
3	0x3d79de2d	0.0610029
4	0xbfa89e87	-1.3173379
5	0x3dc1b9c1	0.09459258
6	0x3d7c1fe1	0.06155384
7	0x3d505b91	0.050868575
8	0x3d8f60e1	0.070009
9	0x3a9de288	0.0012045661
10	0xbb24cacc	-0.002514529
11	0xbfa5e0e7	-1.295926
12	0x3dd49d11	0.103815205
13	0x3db349bd	0.08754299
14	0x3d107e40	0.03527665
15	0x3d9f0048	0.077637255
16	0x3d86d471	0.06583489
17	0x3dfd237e	0.12360285
18	0x3d48c0a0	0.049011827
19	0x3b12e2dd	0.0022413053
20	0x3d636186	0.055512927
21	0x3dfce42b	0.12348207
22	0x3e008d7b	0.1255397
23	0x3dce568c	0.10075101
24	0x3dac2fb0	0.08407533
25	0xbf132008	-0.5747075
26	0x3e2aa924	0.16666085
27	0x3d691d12	0.05691249
28	0x3e0aebc2	0.13566497
29	0x3dd97788	0.10618502
30	0xbb07e106	-0.002073349
31	0x3e00fcfd	0.12596507
32	0x3d7db21c	0.061937436
33	0x3db4b782	0.08824064
34	0x3df82c92	0.12117876
35	0x3dc11430	0.094276786
36	0x3de35a50	0.1110121
37	0xbf5f9248	-0.8733258
38	0x3d884220	0.06653237
39	0x3e18255d	0.14858003
40	0x3dae5deb	0.08514007
41	0x3d823092	0.0635692
42	0xbaeae7da	-0.001792188
43	0x3dec5462	0.11539532
44	0x3da713d7	0.08158081
45	0xbf624522	-0.8838674
46	0x3d9c4532	0.076303855
47	0xb909b6a8	-0.00013133383
48	0x3da23bff	0.079215996
49	0x3b0238c0	0.0019870251
50	0xbafaef7b	-0.0019144857
51	0x3dd072d9	0.101781555
52	0x3a5ead9e	0.0008494499
53	0x3decbbcc	0.11559257
54	0x3b226865	0.0024781462
55	0x3db6d45b	0.08927222
56	0x3e005273	0.12531452
57	0x3a3efb06	0.000728533
58	0xbb398aff	-0.0028311608
59	0x3d7b880b	0.061409038
60	0x397d7d1f	0.00024174571
61	0x3dc59519	0.09647579
62	0xbf3d28e5	-0.73890525
63	0xbf97ffc7	-1.1874932
64	0x3e008539	0.1255082
65	0xbfa5f62d	-1.2965752
66	0xbfaaff6b	-1.3359197
67	0x3b3d3ab3	0.0028874099
68	0x3dc04833	0.09388771
69	0x3dbb21fb	0.09137341
70	0x3dbde796	0.09272687
71	0xbb11f581	-0.0022271576
72	0x3e0b3dad	0.13597746
73	0x3da8581a	0.08219929
74	0x3dd08b5c	0.10182831
75	0xbeed3b97	-0.46334526
76	0x3dbcc12f	0.09216534
77	0x3e00889c	0.12552112
78	0xbf468413	-0.7754528
79	0x3b07ceec	0.00207227
80	0x3d931ef9	0.07183642
81	0x3d8b0874	0.06788722
82	0xbfaff282	-1.3745883
83	0x3cfc8ccd	0.030828858
84	0x3e033f0c	0.12817019
85	0x3d1aad17	0.037762728
86	0x3dcdb0a5	0.10043458
87	0x3dd2ada9	0.10287029
88	0x3df1494a	0.11781557
89	0x3e05b296	0.13056406
90	0x3d67edba	0.056623198
91	0x3d99e8f6	0.07515137
92	0xbb31c1dc	-0.0027123606
93	0x3d9f01a7	0.07763987
94	0x3e2e7289	0.17035879
95	0x3df405ed	0.11915193
96	0xba3c0caa	-0.0007173518
97	0x3dcf9dcb	0.101375185
98	0x3dd26fc0	0.10275221
99	0x3adb8d47	0.0016750478
