checkpoints/single-phase/123bus/safe-ddpg/safe-flow_policy_net_checkpoint_a9.pth (torch, 3103 bytes, 4 tensors)

b f4 [100]
00000000: 2d05 31b9 15cc 30b9 0e00 31b9 2fa9 30b9
00000010: 3d03 31b9 e2cf 30b9 0f8d 31b9 4e41 31b9
00000020: 62f1 30b9 89ee 30b9 5dd5 31b9 5779 31b9
00000030: 99b7 30b9 53b5 30b9 70e8 30b9 fcef 30b9
00000040: dfc0 b33d 0700 0080 0600 0080 0600 0080
00000050: 0700 0080 0600 0080 0800 0080 2900 0080
00000060: 0600 0080 0d00 0080 0600 0080 0700 0080
00000070: 0800 0080 0700 0080 0e00 0080 0a00 0080
00000080: d208 ae3c 76f4 f03b 9301 0080 7602 0080
00000090: 3505 0080 e5b9 923b bd16 e13a 0afc c138
000000a0: c8ae a03a 1dd5 0a39 8402 4e3a f0ba a33a
000000b0: a5b5 063b 9aae cf3a 6405 173b 10ef ed3a
000000c0: 4a23 d83a fc8d cf3a 8dfd 0d3b 285e ad3a
000000d0: 4ee9 ec39 d307 ea3a 83a8 033b 8e4c 2e3b
000000e0: d308 683a 6fb6 1339 0276 9a39 ac91 8a3a
000000f0: 0688 223a 6c64 2139 2200 6e3a c6fc dc39
00000100: d04e 1e3b d83e 2e3b 8d6b 893a 6980 213b
00000110: bbdc 603a 0b4e 253b bbd6 ec39 1333 0c3a
00000120: c84f a53a 1f0d 2d3a d5d9 023b 9ce7 c139
00000130: c24d ff3a 2731 c53a 85b4 d43a 8e79 f83a
00000140: c10a de3a fc5f 793a 56ff e53a e6ec 233b
00000150: 425b 943a 65f2 043a f5ef 4438 de58 483a
00000160: 697f 0a3a 1b0d 243a 364b 2a39 2e07 f53a
00000170: 2e93 5e3a 3620 e13a 4f62 143b da7d 093b
00000180: b496 293b b4c4 1e39 7239 c73a 87c6 1739
-0.00016881964 -0.00016860694 -0.00016880056 -0.00016847694 -0.00016881242 -0.0001686211 -0.00016932584 -0.00016904363
-0.0001687459 -0.00016873529 -0.0001695952 -0.00016925238 -0.00016853063 -0.00016852217 -0.00016871258 -0.00016874069
0.087770216 -1e-44 -8e-45 -8e-45 -1e-44 -8e-45 -1.1e-44 -5.7e-44
-8e-45 -1.8e-44 -8e-45 -1e-44 -1.1e-44 -1e-44 -2e-44 -1.4e-44
0.02124444 0.0073533608 -5.65e-43 -8.83e-43 -1.868e-42 0.0044777268 0.0017172914 9.249903e-05
0.001225912 0.00013240096 0.0007858651 0.0012491625 0.0020555046 0.0015844882 0.0023043985 0.0018152911
0.0016490009 0.0015835161 0.002166602 0.0013226913 0.00045187253 0.0017855115 0.0020089454 0.0026595923
0.00088514126 0.00014086974 0.00029461092 0.0010571978 0.00062000786 0.00015391567 0.0009078999 0.0004215
0.0024155863 0.002658775 0.0010484323 0.0024643189 0.0008577813 0.002522352 0.00045173414 0.0005348187
0.0012612278 0.00066013815 0.0019966264 0.0003698439 0.001947813 0.0015044556 0.0016228115 0.0018957125
0.0016940461 0.0009512899 0.001754741 0.0025013029 0.0011318701 0.000507152 4.695352e-05 0.0007642637
0.0005283268 0.00062580564 0.00016240482 0.0018694156 0.00084905594 0.0017175737 0.0022641604 0.0020979554
0.002587718 0.00015141332 0.0015199615 0.0001447444

c f4 [100]
00000000: 7f01 173b df15 8c3b de69 163b e8ee 3d3b
00000010: 57a7 853b 1773 183b db42 a93a 382c f939
00000020: 3936 b33a 2f3f 423a 32af a03a 80a5 363b
00000030: 4355 6338 2037 0a3b 0615 6d3b 837e 9d3a
00000040: 04cf 203b 28e2 7b3b 5ad2 573b 07b3 143a
00000050: 05fb 113b 5b49 663a 7cda 823b 2f74 493b
00000060: fda4 513b 6919 513b 7742 893b 8fc4 1f3a
00000070: 9dd1 2a3a a656 3c3b dbd9 4d3b 7d8d f03a
00000080: 0753 7e3b 5c81 a839 2f8e 113b 2bbd a73a
00000090: b775 1e3b 646c ab3a 03f7 b33a aecd e63a
000000a0: 585b 0b3a c9ed c93a 55cc 5e3a 8cee fb3a
000000b0: b3b5 863b 9c7f 033a ade4 513b 6760 1e3b
000000c0: d237 303b 299e 6138 a545 093b 1719 ce3a
000000d0: 4b5a 0b3b c3f6 fa39 5787 653b 9a68 ec39
000000e0: 03e7 803b 97ae 703b fddc 7d3b 2a14 273b
000000f0: 27c4 a738 b4b2 a13a b4e0 a13a 5c83 043a
00000100: 5b7c 4c3b 936b 593b e554 b03a 5def e439
00000110: 943d d73a cad8 df36 97af 443b 980f 523a
00000120: 67b2 323b 75fa 123b 8ec3 833b 45ff 443a
00000130: 9411 e03a 30fb 6b3b 4be6 843b 0e5e 1e3b
00000140: c37c 8b3a 53b8 a739 c22f 6c39 4973 333b
00000150: b766 2b3b 2386 5c3b f2a3 d939 2f9b 003b
00000160: 6358 1b3a e772 773a bfed 883b 3824 1d3a
00000170: 1b8b 3937 fb3a cd39 c86c ef3a 1b1b 103b
00000180: c02f 833b 24ff 2a3a 7d2d 923a d644 393b
0.0023041663 0.004275068 0.0022951285 0.002898151 0.0040787864 0.0023261958 0.0012913601 0.00047525926
0.0013672776 0.0007409928 0.0012259244 0.0027869642 5.4200424e-05 0.0021089986 0.003617586 0.0012015853
0.0024537453 0.003843436 0.0032931776 0.0005672429 0.0022274863 0.00087847345 0.0039933305 0.0030739417
0.003198921 0.0031906015 0.0041888314 0.0006094658 0.000651622 0.002873817 0.003141037 0.0018352714
0.0038806812 0.00032139837 0.0022209992 0.0012797465 0.002417905 0.0013078568 0.0013730231 0.0017608905
0.00053160405 0.0015405949 0.0008499076 0.0019220873 0.0041110157 0.00050162687 0.003202717 0.0024166347
0.002688874 5.379148e-05 0.0020946052 0.001572403 0.0021263536 0.00047867568 0.0035023296 0.00045091362
0.0039337887 0.0036725157 0.0038736456 0.0025494196 7.999717e-05 0.0012336583 0.0012350292 0.00050549745
0.0031202051 0.0033175691 0.0013453035 0.00043665888 0.001642155 6.6711555e-06 0.0030011886 0.0008013188
0.002726698 0.0022427116 0.0040211147 0.0007514845 0.0017095082 0.0036007874 0.0040557734 0.0024164948
0.001064204 0.00031990054 0.00022524505 0.0027381948 0.0026153752 0.0033649288 0.00041511614 0.0019623747
0.00059259514 0.0009439424 0.004178732 0.0005994472 1.1059247e-05 0.0003914459 0.0018266672 0.0021988812
0.004003495 0.0006523004 0.0011152473 0.002826979

q f4 [1, 100]
00000000: a894 133f 4ecd e43e 0af3 103f 660b af3e
00000010: 4c98 123f 63ea e93e 9cc2 4b3f 8020 2f3f
00000020: 7418 093f 1682 073f 56fe 623f 71d0 443f
00000030: fe1e c73e d496 c33e cf09 043f 3151 083f
00000040: b72a 4b40 494a d23e ef4f b03d f98d 893e
00000050: 0718 c73e 9905 3a3e 42c4 043f 2e4b 693f
00000060: b61e 043e 80d3 343f 7e2a 503e e271 bb3e
00000070: 20ad db3e 7206 c23e 835f 3f3f 404b 193f
00000080: 878b 813f d1c1 6d3f 120f 7d3e 7e52 113f
00000090: 9c08 413f 0c70 643f 1104 4d3d 1739 583f
000000a0: 6c6e 663e 2e8d 943e 1ead 933e 1e59 153f
000000b0: bef6 d03e b8f1 ac3d b89b 8e3e f445 793f
000000c0: 50c9 b53d a71b 383f 7e5a 9d3e 5af8 563f
000000d0: a230 8c3e 5476 eb3e 91b2 5f3f ac2e 703f
000000e0: f78a 273f 64ef 7b3e f8fb bf3e ea8d 9c3e
000000f0: 40d4 4b3c a6dc 603f c26f 973e 6c32 6c3e
00000100: d009 5f3e bbae 713f b58e 303f 11bb 613f
00000110: 5049 6d3e fe99 ea3e 6063 e63c 4c68 4b3f
00000120: 6cdc 463e 483c 1b3f cc49 eb3e 4036 bd3c
00000130: bc68 893e 1c28 ea3e e448 e03e 7167 253f
00000140: 0fb7 563f 1488 823e 4400 493f 203f 483d
00000150: 0e6b cb3e db35 733f be1b 443f a96c 713f
00000160: 5976 433f 46ec 323f 5cfd 4c3f 6860 4f3e
00000170: 9186 2f3f 381f 3b3f 6875 603f 207b 6a3f
00000180: 816d 363f 1413 443e dcdb 2d3f 6aa5 693f
0.57648706 0.44687885 0.5662085 0.34188384 0.57263637 0.45686635 0.79593825 0.68408966
0.5355294 0.5293287 0.88669336 0.76880556 0.38890833 0.3820101 0.51577467 0.5324889
3.174482 0.410723 0.08608996 0.2686613 0.3888552 0.18166198 0.51861966 0.9113034
0.1290234 0.70635223 0.2032871 0.36610323 0.4290552 0.37895542 0.74755114 0.5988045
1.0120705 0.92873865 0.2471278 0.567665 0.7540376 0.8923347 0.050052706 0.8446211
0.2250306 0.29013962 0.28843015 0.5833911 0.4081325 0.08444542 0.2785318 0.97372365
0.08876288 0.71917194 0.30733103 0.83972704 0.27380854 0.45988715 0.87381846 0.93821216
0.6544642 0.24603039 0.37496924 0.30577022 0.012440741 0.8783668 0.29577452 0.2306611
0.21781087 0.9440724 0.68967754 0.88176066 0.23172498 0.45820612 0.028123558 0.7945602
0.19420022 0.60638857 0.4595474 0.023097157 0.26837718 0.45733726 0.4380561 0.64610964
0.83873075 0.25494444 0.7851603 0.048888326 0.39730114 0.9500405 0.7660483 0.9430643
0.7635246 0.69891775 0.80074096 0.2025162 0.6856471 0.7309451 0.8767915 0.91594124
0.7126084 0.19147903 0.67913604 0.91268027

z f4 [1, 100]
00000000: ad48 5a3f 8c5d 683e 701d 663d 5103 753f
00000010: 958a 7f3f 450e 4b3f 8836 b43e ac21 cd3e
00000020: 9c07 183f c0f6 f33e a96e 573f 10d5 a13d
00000030: c172 5b3f 4c4f 403f df38 243f ccfe 113f
00000040: 64e4 7a3e 3485 553f 31ce 7f3f f259 ac3e
00000050: 30fa 173f d02a d53d 50c1 243f 2e37 b23e
00000060: f89e e23e efa6 253f b42d 073e 5c8f 6d3e
00000070: 9c9c ae3e 0021 5b3f ff08 3a3f 0048 f839
00000080: 5630 9c3e d4e6 aa3e 8e2b 8a3e 6c2e 603e
00000090: 3ea3 9f3e 3a12 8b3e 9288 3d3f 28f9 ce3e
000000a0: 1893 d83d ecef 413f 6c6c 153f 6682 2d3f
000000b0: 4976 353f aaac 093f 8700 583f e3fe 233f
000000c0: 1c13 4d3f 3c92 203f b00e a23d 8cdb 423e
000000d0: 48c5 273f 32f2 933e 2698 353f e31f 513f
000000e0: e0fc 423d a239 943e 48d2 8b3e 20fc 673d
000000f0: 88c9 4a3f 8027 883b f603 073f 2c50 1f3e
00000100: dd55 3a3f cc16 453e 7431 213f 65d3 483f
00000110: d89e 273e 9c4f de3e d3f9 673f 0424 793f
00000120: 003c b53c 2383 7b3f 99ab 203f af5f 723f
00000130: 8070 7f3f 98a7 403f 7023 803e 4beb 3b3f
00000140: 1442 113f 3884 853d f96d 213f ca10 fc3e
00000150: 7f06 453f 2ecc 603f c878 753e 3082 3a3e
00000160: 2e7d eb3e 6cbf 363f 4fa7 193f 6f20 743f
00000170: afc4 3b3f c02f 4f3c f035 a13e 1a4c c13e
00000180: ad80 713f 79e4 263f bd9c 203f 24f8 3b3f
0.85267144 0.22691935 0.056180418 0.95708185 0.99820834 0.7931865 0.35197854 0.40064752
0.5938661 0.47649193 0.8415323 0.079019666 0.85721976 0.75121 0.6414928 0.57029414
0.24501187 0.83406377 0.99924 0.33662373 0.5936613 0.104085565 0.6435747 0.34807724
0.4426191 0.64707845 0.13201028 0.23199219 0.34103858 0.8559723 0.72669977 0.0004735589
0.30505627 0.33379233 0.26986355 0.21892709 0.3117923 0.27162343 0.74036515 0.40424466
0.10574931 0.75756717 0.58368564 0.677771 0.70883614 0.5377909 0.84375805 0.640608
0.80107284 0.62723136 0.07912958 0.19029063 0.655354 0.28895718 0.70935285 0.8168928
0.04760444 0.2895022 0.2730887 0.05663693 0.7921376 0.0041550994 0.5274042 0.15557927
0.72787267 0.19246978 0.62966084 0.7844756 0.16369188 0.43420112 0.90615577 0.9732058
0.022123337 0.98246974 0.6276184 0.9467725 0.99781036 0.7525573 0.25027037 0.73405904
0.5674145 0.06519359 0.6305843 0.4923156 0.7696304 0.87811553 0.23971856 0.18213725
0.45993942 0.71385837 0.6002092 0.9536199 0.7334699 0.012645662 0.31486464 0.37753373
0.9433697 0.6519237 0.62739164 0.7342551
