checkpoints/single-phase/123bus/safe-ddpg/safe-flow_policy_net_checkpoint_a2.pth (torch, 3103 bytes, 4 tensors)

b f4 [100]
0	0xb92307e3	-0.0001554783
1	0xb923060c	-0.00015547144
2	0xb9247bdd	-0.00015686401
3	0xb92303ac	-0.00015546259
4	0xb9235a90	-0.00015578629
5	0xb9242b34	-0.00015656353
6	0xb9246b97	-0.00015680339
7	0xb923353f	-0.00015564727
8	0xb9230345	-0.0001554611
9	0xb9232ff0	-0.0001556275
10	0xb92383cf	-0.00015593994
11	0xb92306e2	-0.00015547455
12	0xb923f63f	-0.00015636625
13	0xb9237f54	-0.00015592325
14	0xb923c075	-0.00015616587
15	0xb9233d36	-0.00015567694
16	0xb9236e40	-0.00015585963
17	0xb923c06b	-0.00015616573
18	0xb92386f9	-0.00015595173
19	0xb9233c20	-0.0001556729
20	0xb923ca40	-0.00015620235
21	0xb923390f	-0.00015566147
22	0xb9245725	-0.00015672723
23	0xb923e65e	-0.0001563071
24	0xb9235842	-0.0001557777
25	0xb92307ff	-0.0001554787
26	0x3d8fb764	0.07017401
27	0x3c5876e9	0.013211944
28	0x3ad1f302	0.0016017857
29	0x3b2193fb	0.0024654854
30	0x3b0986da	0.0020984919
31	0x3b166e65	0.0022953984
32	0x3b4d2647	0.0031303333
33	0x39c79c54	0.0003807271
34	0x3b082cd1	0.0020778666
35	0x3b21fa49	0.0024715832
36	0x3a905ab9	0.0011013366
37	0x3b26abac	0.0025431914
38	0x39784b7b	0.00023679242
39	0x3ac03982	0.0014665576
40	0x3b51a33e	0.003198817
41	0x3a5bd626	0.00083860976
42	0x3ac4ce07	0.0015015014
43	0x39ab960d	0.00032727458
44	0x39c9c96b	0.00038487776
45	0x3b357b69	0.0027691966
46	0x3b2500ef	0.0025177558
47	0x3b29170c	0.002580109
48	0x3af762ec	0.0018874086
49	0x3b0e496d	0.0021711246
50	0x3af0e55c	0.0018378901
51	0x3b0d585a	0.0021567554
52	0x3b57669b	0.0032867554
53	0x387d970f	6.0460585e-05
54	0x3864c205	5.454013e-05
55	0x39b80b13	0.00035103466
56	0x3a91776e	0.0011098215
57	0x3ada66d8	0.001666273
58	0x3a6a4a70	0.00089374837
59	0x3aac370c	0.0013138964
60	0x3a44abf2	0.00075024285
61	0x3b309d24	0.0026949132
62	0x3b0fd8a5	0.0021949199
63	0x3af66a40	0.0018799976
64	0x3b0c07b6	0.00213669
65	0x3a74dade	0.0009340475
66	0x39eb85a7	0.00044922272
67	0x3a112f8e	0.0005538397
68	0x3a0cbc1f	0.00053686084
69	0x3a57fe3f	0.0008239485
70	0x3b546fab	0.0032415192
71	0x39157e9f	0.00014256917
72	0x3b0b366a	0.002124215
73	0x3a7ddcc7	0.00096840825
74	0x3a807446	0.0009800277
75	0x3b15f4a6	0.0022881418
76	0x3b46e908	0.00303513
77	0x3a4e5cba	0.00078720937
78	0x3b4391f4	0.0029841634
79	0x3ac5e15c	0.001509707
80	0x3a0b1824	0.00053060264
81	0x39fa23d4	0.0004771041
82	0x3b24cdc3	0.0025147058
83	0x39da2056	0.00041604292
84	0x3b1d53d4	0.0024006264
85	0x3b26acf6	0.0025432683
86	0x3b3b8248	0.002861159
87	0x3b22df45	0.0024852317
88	0x39643178	0.00021762203
89	0x3a3d4fec	0.0007221687
90	0x3b24a019	0.002511984
91	0x3b56fd5a	0.0032804818
92	0x3811e767	3.4786204e-05
93	0x3b514d44	0.0031936923
94	0x3b0b0145	0.0021210473
95	0x3936594e	0.00017390141
96	0x3ad0452f	0.0015889759
97	0x3a140a60	0.0005647298
98	0x3aab2b1e	0.0013059115
99	0x3b3c8940	0.002876833

c f4 [100]
0	0x3a304064	0.0006723462
1	0x3b739f0f	0.0037173664
2	0x36aa5d93	5.0772883e-06
3	0x3afc90c8	0.0019269222
4	0x3b32690b	0.0027223255
5	0x3b00e9db	0.0019670639
6	0x3aaf525c	0.0013375985
7	0x3b2e4b74	0.0026595267
8	0x3b412f5b	0.002947769
9	0x3b3d9381	0.002892703
10	0x3b131b2d	0.0022446618
11	0x3aac04c2	0.0013123977
12	0x3b2449e1	0.002506845
13	0x3b3aa699	0.0028480648
14	0x3ac41580	0.0014960021
15	0x3a5f9863	0.00085294823
16	0x3a42708c	0.00074172835
17	0x37b273b6	2.1273136e-05
18	0x3a090f3f	0.0005228407
19	0x3abddd7c	0.0014485563
20	0x3a263af0	0.000634118
21	0x3b780db2	0.003784996
22	0x3af99303	0.0019041005
23	0x3af3f9d4	0.0018613883
24	0x3aac173e	0.0013129485
25	0x3a32de34	0.0006823272
26	0x3b84d994	0.0040542576
27	0x3ae05938	0.0017116433
28	0x3adf54ed	0.001703886
29	0x3b11c61f	0.0022243334
30	0x3b03a7e3	0.0020089082
31	0x3b749928	0.0037322734
32	0x3b302d01	0.0026882293
33	0x3b44f073	0.0030050545
34	0x3b06939f	0.0020534766
35	0x398f1ce9	0.00027296625
36	0x3b0d7957	0.0021587217
37	0x3b40dc77	0.0029428282
38	0x3a52fb1f	0.0008048284
39	0x3b6634b2	0.0035126624
40	0x3a8942ec	0.0010472215
41	0x3a393f51	0.0007066625
42	0x3b1fe2f7	0.0024396756
43	0x3b415ca4	0.002950468
44	0x394d3450	0.00019569811
45	0x3b0ebaa9	0.0021778739
46	0x3b52f22a	0.0032187798
47	0x3a79d185	0.0009529817
48	0x39912f91	0.00027691995
49	0x3b436c75	0.0029819284
50	0x3b3b64f7	0.0028594115
51	0x3b850eb6	0.0040605916
52	0x3b843cf4	0.0040355865
53	0x3a156703	0.0005699249
54	0x3aa47733	0.0012547731
55	0x3b1c501d	0.0023851462
56	0x3b1b6437	0.0023710856
57	0x3af6680b	0.0018799318
58	0x3aa3e9cb	0.0012505589
59	0x3b4c1257	0.003113886
60	0x3b6f03f2	0.0036470857
61	0x3ae7ac6a	0.0017675285
62	0x37851a3b	1.586705e-05
63	0x3ab17e9d	0.0013541762
64	0x3b2f0d6f	0.0026710888
65	0x3b29b8a1	0.00258974
66	0x3acf7890	0.0015828777
67	0x3a083494	0.0005195823
68	0x3a9c725a	0.0011935935
69	0x3ac18991	0.001476573
70	0x37e864ea	2.7703547e-05
71	0x3b84f9d1	0.0040581007
72	0x3b2d2e73	0.002642539
73	0x3ad9dc16	0.0016621377
74	0x3a63eab0	0.0008694334
75	0x3b5a2c84	0.0033290694
76	0x3b5b8932	0.0033498523
77	0x3a5f3312	0.0008514385
78	0x3b772d77	0.0037716308
79	0x3b0bf4d7	0.0021355653
80	0x3a9a3f98	0.001176822
81	0x3b30874a	0.0026936107
82	0x3b22edac	0.0024860902
83	0x39a30904	0.000310965
84	0x3b2ef7fd	0.0026698106
85	0x3b42beaa	0.0029715695
86	0x3a9669ec	0.0011475659
87	0x3b2ba382	0.0026189988
88	0x3b447eaf	0.0029982736
89	0x3b844a9c	0.0040372144
90	0x3b09d759	0.0021032898
91	0x3b01c8f4	0.0019803615
92	0x3822f7d3	3.8854614e-05
93	0x39a0bedb	0.00030659777
94	0x3b6d04cd	0.0036166192
95	0x3b1b8ef0	0.002373632
96	0x3b00cdb0	0.001965385
97	0x3b3795b7	0.002801282
98	0x3a949e9e	0.0011338776
99	0x3b1f0667	0.002426529

q f4 [1, 100]
0	0x3dec4f25	0.11538533
1	0x3dbf4d26	0.09340887
2	0x3f6cfd53	0.9257404
3	0x3d5b30bd	0.053513277
4	0x3eed10d0	0.4630189
5	0x3f542787	0.82872814
6	0x3f6845ae	0.9073132
7	0x3eb4ca12	0.35310417
8	0x3d2f92fe	0.042864792
9	0x3eab2791	0.33428624
10	0x3f0ee996	0.55825174
11	0x3dd4e310	0.10394871
12	0x3f41818d	0.75588304
13	0x3f0c83b0	0.5488844
14	0x3f2bf0a2	0.6716405
15	0x3ec24b46	0.37948054
16	0x3f02d2ef	0.5110311
17	0x3f2beee1	0.67161375
18	0x3f109ae3	0.5648634
19	0x3ec07d61	0.37595657
20	0x3f301ce3	0.6879408
21	0x3ebb6109	0.3659747
22	0x3f6224b9	0.88337284
23	0x3f3b741a	0.7322403
24	0x3eea0a74	0.457111
25	0x3def086c	0.11671528
26	0x404a9267	3.1651857
27	0x3f7d29a4	0.98891664
28	0x3ef57a34	0.47944796
29	0x3e678c73	0.22612171
30	0x3f30a481	0.69001013
31	0x3f31314d	0.6921585
32	0x3f1f94d3	0.6233646
33	0x3f35ca2f	0.7101163
34	0x3f2a2423	0.6646139
35	0x3f1c23cd	0.6099213
36	0x3f75a1b3	0.9594986
37	0x3e80e6ce	0.2517609
38	0x3e640b80	0.22270012
39	0x3b8e2100	0.00433743
40	0x3f0739c2	0.52822506
41	0x3eac8ed6	0.33702725
42	0x3e3483e0	0.17628431
43	0x3eeee322	0.46657664
44	0x3f41bccf	0.75678724
45	0x3f498816	0.78723276
46	0x3f267124	0.6501639
47	0x3b987300	0.004652381
48	0x3f7264c8	0.9468503
49	0x3ea8c710	0.32964373
50	0x3ed605a8	0.4180119
51	0x3f31ffcc	0.6953094
52	0x3f75c90b	0.9600989
53	0x3d90c3e0	0.0706861
54	0x3f42aefd	0.7604826
55	0x3f62d4dc	0.8860605
56	0x3d93be20	0.07213998
57	0x3e805e7a	0.2507208
58	0x3e95e41c	0.29275596
59	0x3f30e41c	0.6909807
60	0x3ec88514	0.3916403
61	0x3ed5c4a6	0.41751593
62	0x3f56c576	0.8389505
63	0x3e7ba418	0.24574316
64	0x3f4d94fb	0.8030545
65	0x3e108740	0.14114094
66	0x3e48d000	0.19610596
67	0x3f40c2c0	0.75297165
68	0x3ecd50ba	0.40100652
69	0x3f080c2a	0.5314356
70	0x3ee266b4	0.4421898
71	0x3f65a397	0.89702743
72	0x3f5e57fa	0.8685299
73	0x3f34d489	0.706368
74	0x3e19ced0	0.15020299
75	0x3ea932a6	0.33046454
76	0x3bd58280	0.006515801
77	0x3e0e6854	0.13906986
78	0x3de1b888	0.11021525
79	0x3f733de0	0.9501629
80	0x3e0f3298	0.13984144
81	0x3f15a118	0.58448935
82	0x3ef2e77c	0.47442234
83	0x3f2fe817	0.68713516
84	0x3f797386	0.974419
85	0x3e20c4f8	0.15700138
86	0x3c7dca00	0.015490055
87	0x3f5f5d33	0.87251586
88	0x3f3408f2	0.7032615
89	0x3ee82554	0.4534098
90	0x3ec608f4	0.38678706
91	0x3b3a1d00	0.0028398633
92	0x3ee37a0a	0.44429046
93	0x3f36eaeb	0.71452206
94	0x3e8e3992	0.27778298
95	0x3ede4654	0.4341303
96	0x3e3e5820	0.18588305
97	0x3d1ec250	0.03875953
98	0x3e786cdc	0.24260277
99	0x3f59cd50	0.85078907

z f4 [1, 100]
0	0x3eebbc94	0.4604231
1	0x3ec3b2e0	0.38222408
2	0x3de8b050	0.11361754
3	0x3f184123	0.5947439
4	0x3edd2dce	0.4319901
5	0x3e541d0c	0.20714206
6	0x3e99b32c	0.3001951
7	0x3e830ae4	0.25594246
8	0x3f5579f1	0.8338919
9	0x3f65a23c	0.89700675
10	0x3d5f8710	0.054572165
11	0x3f680668	0.90634775
12	0x3f51ffb8	0.8203082
13	0x3e363210	0.17792535
14	0x3ed168bc	0.40900218
15	0x3f6847e1	0.9073468
16	0x3f0b2608	0.54354906
17	0x3f531d87	0.8246693
18	0x3f4a3bc1	0.7899743
19	0x3ee71a2c	0.45137155
20	0x3cd8c0e0	0.026459157
21	0x3eea4d62	0.45762163
22	0x3edb3b26	0.42818564
23	0x3eaee980	0.3416252
24	0x3ee7b45c	0.4525479
25	0x3f36c16b	0.7138888
26	0x3eefe570	0.46854734
27	0x3df41a18	0.119190395
28	0x3ebeb476	0.37247056
29	0x3e2b2c78	0.16716182
30	0x3ea22fca	0.31677085
31	0x3f7fcf95	0.9992612
32	0x3ea836e2	0.32854372
33	0x3f7d5809	0.98962456
34	0x3e8602fc	0.26174152
35	0x3f23cef7	0.6398768
36	0x3e77df50	0.2420628
37	0x3f407ed5	0.7519353
38	0x3f55e21b	0.83548135
39	0x3f4a62ad	0.7905682
40	0x3f580ca9	0.8439432
41	0x3f0f18da	0.55897295
42	0x3f27dc06	0.65570104
43	0x3da81b20	0.08208299
44	0x3f758537	0.95906395
45	0x3e52a600	0.20571136
46	0x3e90fa62	0.28316027
47	0x3f2919d7	0.66055053
48	0x3edc16ea	0.42986232
49	0x3f44fe4b	0.7695052
50	0x3f29b706	0.66294897
51	0x3f12cc1b	0.5734269
52	0x3da1d3e8	0.07901746
53	0x3e19a9f4	0.15006238
54	0x3f3f914f	0.748311
55	0x3e87ddc2	0.26536375
56	0x3e5fc2c8	0.21851647
57	0x3d643d10	0.055722296
58	0x3ec259d6	0.37959164
59	0x3f4f607d	0.81006604
60	0x3f43a642	0.76425564
61	0x3f3f1254	0.7463734
62	0x3eca72ca	0.39540702
63	0x3e5e202c	0.2169196
64	0x3ed7c6d6	0.42143887
65	0x3f6f2e86	0.93430364
66	0x3f181dee	0.5942067
67	0x3f7d1fba	0.98876536
68	0x3f3cccc7	0.73749965
69	0x3e89dec4	0.2692777
70	0x3f34b70d	0.70591813
71	0x3eeee39c	0.46658027
72	0x3f76264f	0.96152204
73	0x3f447253	0.76736945
74	0x3f50c0e2	0.81544316
75	0x3f41166a	0.75424826
76	0x3ea852ce	0.32875675
77	0x3ef13826	0.4711315
78	0x3f3a26e9	0.7271562
79	0x3f2bb3a2	0.6707097
80	0x3e8dd9c6	0.2770521
81	0x3f21fd20	0.63276863
82	0x3ecdfaac	0.4023031
83	0x3f6a6da0	0.91573524
84	0x3f0c9df0	0.54928493
85	0x3eb15990	0.34638643
86	0x3e72042c	0.23634404
87	0x3f2ba645	0.6705058
88	0x3ce64a60	0.028111637
89	0x3ee93e14	0.45555174
90	0x3eb9f8ce	0.36322635
91	0x3f252ed2	0.6452457
92	0x3f1226f0	0.57090664
93	0x3f1aec67	0.6051697
94	0x3f175368	0.5911164
95	0x3f2fcf3d	0.68675596
96	0x3f4be334	0.7964356
97	0x3db5c088	0.08874613
98	0x3f221080	0.63306427
99	0x3f144542	0.5791818
