checkpoints/single-phase/123bus/safe-ddpg/safe-flow_value_net_checkpoint_a9.pth (torch, 44119 bytes, 5 tensors)

linear1.weight f4 [100, 2]
0	0x3eafc60b	0.34330782
1	0x3ef7ee19	0.48423842
2	0x3db164b3	0.08661785
3	0xbdab0fb3	-0.08352604
4	0xbe96fb7d	-0.29488745
5	0xbe48f9c3	-0.19626527
6	0x3e379ab0	0.17930102
7	0x3df76e28	0.120815575
8	0xbe00dfe8	-0.12585413
9	0xbedf7c68	-0.43649602
10	0xbe93a700	-0.28838348
11	0x3d83537b	0.06412407
12	0xbea4a2a4	-0.32155335
13	0xbde81cb0	-0.11333597
14	0xbef40af5	-0.4766461
15	0xbe98b2fc	-0.29824054
16	0xbf0239e6	-0.50869596
17	0xbc0d89f6	-0.0086388495
18	0x3e84cd82	0.2593804
19	0xbf0db5ce	-0.55355537
20	0x3ecf5441	0.40493968
21	0xbdeaa5cb	-0.11457404
22	0x3ebc2781	0.3674889
23	0x3dc5e654	0.09663072
24	0xbe86bbdb	-0.26315197
25	0x3ec58fcb	0.38586268
26	0xbe86f0ae	-0.263555
27	0xbe1d7deb	-0.15380065
28	0xbf07cb07	-0.5304417
29	0x3f2469fc	0.6422422
30	0x3f4eb18c	0.80739665
31	0xbef8a9b0	-0.4856696
32	0xbd670a76	-0.05640646
33	0x3d499bd1	0.049220864
34	0xbf0734c4	-0.5281489
35	0x3f309949	0.68983895
36	0xbd7472d7	-0.059679832
37	0x3e6fc440	0.23414707
38	0xbf0f2919	-0.55922085
39	0x3f2188f3	0.6309959
40	0xbebf060e	-0.37309307
41	0x3f09fea1	0.5390416
42	0xbd768cd7	-0.06019291
43	0x3f15165b	0.58237237
44	0xbed15a51	-0.40889218
45	0x3e37d7e4	0.1795345
46	0x3dac5c62	0.08416058
47	0xbecf449a	-0.40482026
48	0xbf06f73b	-0.52720994
49	0x3e999add	0.30000964
50	0xbe938375	-0.2881123
51	0x3dd6fcae	0.104974136
52	0x3f10eca1	0.5661107
53	0x3ea23c87	0.31686804
54	0xbed71f0f	-0.42015883
55	0xbeb2f204	-0.34950268
56	0xbec67f4d	-0.38768998
57	0x3ec3952a	0.3819974
58	0x3f206767	0.6265778
59	0x3e9e00d8	0.3086002
60	0xbf3695b6	-0.7132219
61	0x3eab4b8c	0.33456075
62	0xbf0bdd3c	-0.5463445
63	0x3eadab57	0.33919784
64	0x3f2fc361	0.686575
65	0x3e2ee109	0.17078032
66	0x3e8fa815	0.28057924
67	0x3e916e30	0.2840438
68	0xbe387614	-0.18013793
69	0x3e00dd5d	0.12584443
70	0xbefab115	-0.48963228
71	0x3f3065da	0.68905413
72	0x3f253db2	0.64547265
73	0x3e86eba6	0.2635166
74	0xbeb6dfc4	-0.35717595
75	0xbf301861	-0.687872
76	0xbd7e6858	-0.06211123
77	0xbee8e7ba	-0.45489293
78	0xbf325628	-0.69662714
79	0x3dbbea27	0.091755204
80	0xbeb194b1	-0.34683755
81	0xbe171e8a	-0.14757743
82	0x3ee3ea6f	0.44514796
83	0xbbc008ff	-0.0058604474
84	0xbdb6c6de	-0.0892465
85	0xbdda0c24	-0.10646847
86	0xbc1fe70a	-0.009759674
87	0x3d5dddc1	0.05416656
88	0xbe487688	-0.19576466
89	0x3e584a19	0.21122016
90	0xbd674092	-0.056458063
91	0x3cff102f	0.031135647
92	0xbe851c05	-0.2599794
93	0x3e4ae9e4	0.19815785
94	0xbea917e1	-0.3302603
95	0x3f244e0b	0.64181584
96	0x3ec667ae	0.38750976
97	0xbdba4f22	-0.09097125
98	0x3ef28522	0.47367197
99	0xbe0894e8	-0.13338053
100	0x3e788cf0	0.24272513
101	0xbe0adec5	-0.13561542
102	0x3eb3340a	0.3500064
103	0x3ec829b6	0.39094323
104	0xbeaa8c11	-0.33309987
105	0xbf02b47f	-0.51056665
106	0xbea37cc3	-0.31931123
107	0x3e83adb9	0.25718477
108	0x3dc90878	0.098160684
109	0xbe5a1c2d	-0.2129981
110	0xbeb51932	-0.35370785
111	0xbf2f734c	-0.68535304
112	0x3f4b3787	0.79381603
113	0x3ca818de	0.02051967
114	0x3d8943e5	0.06702403
115	0x3e8623b5	0.26199117
116	0xbf21a0f4	-0.6313622
117	0x3db4dd65	0.0883129
118	0xbe416384	-0.18885618
119	0xbeb11947	-0.34589598
120	0x3f3fbc22	0.7489644
121	0xbe169e29	-0.14708771
122	0x3eea8e15	0.45811525
123	0x3ebbe78a	0.36700088
124	0xbf1ef72c	-0.62095904
125	0xbf21a7f6	-0.63146913
126	0xbe7554d3	-0.23958139
127	0x3e6a5dde	0.2288737
128	0x3f34b41b	0.7058732
129	0x3e6beda8	0.23039877
130	0x3efb2a40	0.49055672
131	0xbd948ec1	-0.07253791
132	0xbe3b58ec	-0.1829564
133	0xbe859e38	-0.26097274
134	0x3f0a56b1	0.5403853
135	0x3deb4fdc	0.11489841
136	0xbecbae78	-0.39781547
137	0x3f12785b	0.572149
138	0xbe97b657	-0.29631302
139	0xbeb1de44	-0.34739888
140	0xbe104db1	-0.14092137
141	0x3ecce998	0.40021968
142	0x3ef9d451	0.48794797
143	0x3ea93a2f	0.33052203
144	0x3f009723	0.50230616
145	0xbed9a4de	-0.42508596
146	0x3e5d19aa	0.21591821
147	0xbe2000e3	-0.15625338
148	0xbd734715	-0.05939396
149	0xbf31a5bc	-0.69393516
150	0x3f46c34d	0.77641755
151	0x3f12d0a7	0.5734963
152	0x3e7eaa81	0.2486973
153	0xbe36e623	-0.17861228
154	0xbe3dfd0f	-0.18553565
155	0xbd715c65	-0.058926005
156	0x3ee16767	0.44024202
157	0x3e7a9689	0.24471487
158	0x3e7e20c1	0.24817182
159	0xbee040a5	-0.4379932
160	0x3ea903ee	0.3301081
161	0xbcdc9ec6	-0.026931178
162	0xbf1df551	-0.6170245
163	0x3f286b32	0.6578857
164	0x3e8609fd	0.26179495
165	0x3e5884ae	0.21144363
166	0x3f020a37	0.50796837
167	0xbc29a132	-0.010353373
168	0xbf244c53	-0.6417896
169	0xbe8ab56d	-0.27091542
170	0xbe2d997a	-0.16953078
171	0xbe916cc4	-0.28403294
172	0xbd8cb6b3	-0.068707846
173	0xbec9515e	-0.3931989
174	0xbec5658a	-0.3855403
175	0xbefc16b9	-0.49236086
176	0x3d9c450b	0.076303564
177	0x3f2db502	0.6785432
178	0x3ed9e420	0.42556858
179	0x3ee89198	0.4542358
180	0x3ec2b04d	0.38025132
181	0xbf2227ee	-0.6334218
182	0xbf28e279	-0.6597057
183	0xbe0bad5a	-0.13640347
184	0xbdec4d54	-0.11538187
185	0x3eeb633a	0.4597414
186	0x3ec69d0c	0.38791692
187	0xbe87c1ab	-0.26514944
188	0xbdcf55a5	-0.10123757
189	0xbebd5cd9	-0.369849
190	0xbec25abf	-0.3795986
191	0x3e68d2a4	0.22736603
192	0xbe8c4991	-0.27399877
193	0xbd145f20	-0.03622353
194	0xbf0b29f9	-0.5436092
195	0xbeee5e2a	-0.46556216
196	0xbf2f1ecc	-0.6840637
197	0xbe3785a6	-0.17922077
198	0xbde4d55d	-0.11173508
199	0x3ea6c677	0.32573292

linear1.bias f4 [100]
0	0xbf0b2c4b	-0.5436446
1	0xbf0c9910	-0.54921055
2	0x3f137cdd	0.576124
3	0x3f2d768d	0.6775902
4	0x3cf88212	0.03033546
5	0xbd5c3e4a	-0.05377034
6	0xbe18b1ea	-0.14911619
7	0x3f07741d	0.5291155
8	0x3f0d784e	0.55261695
9	0x3ef7f500	0.48429108
10	0x3e7657b4	0.24056894
11	0xbe2aad47	-0.16667663
12	0xbf1ec249	-0.62015206
13	0xbf06583b	-0.5247838
14	0xbf0140df	-0.5048961
15	0xbc629b98	-0.013831042
16	0x3f20074e	0.62511146
17	0xbe940b2c	-0.28914773
18	0xbe048ea6	-0.12945041
19	0x3d3f7678	0.04674384
20	0x3eeda9a4	0.46418488
21	0x3e88def8	0.26732612
22	0xbea4bdf9	-0.32176188
23	0x3f1e13ec	0.6174915
24	0x3ec65664	0.38737786
25	0xbe18b2f0	-0.14912009
26	0xbe88245f	-0.2659025
27	0x3ebacb7c	0.3648337
28	0x3ee1d1ad	0.44105282
29	0xbee8fcaa	-0.45505267
30	0x3f3538d7	0.70789856
31	0xbf212fe5	-0.62963706
32	0x3de933ca	0.11386831
33	0xbe586f89	-0.21136297
34	0x3e1d7506	0.15376672
35	0x3e17b8d3	0.14816599
36	0xbe0377df	-0.12838696
37	0xbebf528a	-0.3736766
38	0x3f38652a	0.72029364
39	0xbf152943	-0.58266085
40	0xbf332193	-0.69973105
41	0xbf038f18	-0.5139022
42	0xbeb4f1ba	-0.35340673
43	0x3f2aeb6a	0.66765463
44	0x3e1a0a6c	0.15043038
45	0xbf2d9465	-0.6780456
46	0xbe9e1975	-0.30878797
47	0xbedc998a	-0.4308589
48	0x3f27c1e8	0.6553025
49	0x3e4c31a5	0.19940813
50	0x3dfb55a5	0.12272195
51	0xbdf6bb81	-0.12047482
52	0xbf16cf68	-0.58910227
53	0x3f4ac7c2	0.79211056
54	0x3ea5b6b9	0.3236597
55	0x3dcfe202	0.101505294
56	0xbf236d41	-0.63838583
57	0xbef17018	-0.47155833
58	0xbee96e17	-0.45591804
59	0xbec44618	-0.38334727
60	0xbdbb0b2a	-0.09132989
61	0xbe1660a9	-0.1468531
62	0xbeaf8233	-0.34279022
63	0x3f3ea2d4	0.74467206
64	0x3ec1ec3d	0.37875548
65	0x3eb430cf	0.35193488
66	0xbeeb5ca8	-0.4596913
67	0xbeab220c	-0.33424413
68	0xbea17352	-0.31533295
69	0x3e8971ae	0.26844543
70	0xbe246a9b	-0.16056292
71	0xbdf80702	-0.12110712
72	0x3f217c8b	0.6308066
73	0xbefd7c8b	-0.4950908
74	0xbf0bdb2e	-0.54631317
75	0xbf150230	-0.5820646
76	0x3c7c2409	0.015389451
77	0x3f142e57	0.5788321
78	0x3e517d8a	0.20458046
79	0xbea9d3fb	-0.3316954
80	0xbf02a8b8	-0.51038694
81	0x3ed0ae7d	0.40758124
82	0xbe9f470d	-0.31108895
83	0xbf213afe	-0.6298064
84	0x3f429089	0.76001793
85	0x3e151659	0.14559306
86	0xbdc8f690	-0.09812653
87	0xbedb50c5	-0.4283506
88	0xbee4f17e	-0.44715494
89	0xbeb04b20	-0.34432316
90	0x3e60505a	0.21905652
91	0xbeb33919	-0.350045
92	0x3f1df3f1	0.6170035
93	0xbec92f4d	-0.392939
94	0x3d005890	0.03133446
95	0xbf08433d	-0.532276
96	0xbe555ed9	-0.20836963
97	0xbe122b84	-0.14274412
98	0x3e40ebbb	0.18839924
99	0x3f42bca1	0.76069075

linear2.weight f4 [100, 100]
0	0x3d132826	0.03592696
1	0x3dbe07bd	0.0927882
2	0xbf003c7d	-0.500923
3	0xbd7862a6	-0.060640953
4	0xbe83b5c7	-0.25724623
5	0xbdc65e50	-0.096859574
6	0x3dc36257	0.09540241
7	0xbdd25b68	-0.102713406
8	0xbf3b24a4	-0.73102784
9	0x3c8dbc5f	0.017301736
10	0x3dcfc88c	0.10145673
11	0xbc94fc48	-0.018186703
12	0xbd75067b	-0.059820633
13	0xbc9cc973	-0.019139027
14	0xbdb7cc36	-0.08974497
15	0x3c4e6ad9	0.012598717
16	0x3db48f69	0.08816416
17	0xbde8c4ef	-0.11365687
18	0x3db69de4	0.08916834
19	0xbd95f360	-0.07321811
20	0xbd944271	-0.07239235
21	0x3d920307	0.07129484
22	0xbdbad9bf	-0.09123563
23	0x3c1d20e4	0.009590361
24	0xbcc9da94	-0.024640359
25	0xbdfa2bc9	-0.122153826
26	0x3dc3ac0c	0.095543
27	0xbd7f6c04	-0.06235887
28	0xbdf9f3ec	-0.122047275
29	0x3e24fa6b	0.16111152
30	0xbe04273e	-0.12905595
31	0x3c8fc9b6	0.017552238
32	0x3e0ff793	0.14059286
33	0xbd1b81ac	-0.03796546
34	0xbd27b0f6	-0.040940247
35	0x3d2e82a9	0.042605076
36	0x3d5e878f	0.054328497
37	0x3d1327a3	0.035926472
38	0xbe1f344f	-0.15547298
39	0xbcbfa5a0	-0.023394406
40	0x3ce61c7a	0.02808975
41	0xbc487640	-0.012235224
42	0x3da26c08	0.079307616
43	0x3dab5766	0.08366279
44	0x3d3e5f24	0.046477452
45	0x3cb3f693	0.021968162
46	0xbbdc661a	-0.0067260386
47	0xbc66900a	-0.0140724275
48	0xbd3051b3	-0.043046664
49	0x3e153edc	0.1457476
50	0x3c701e77	0.014655701
51	0x3d0088b8	0.031380385
52	0xbd81cea7	-0.06338244
53	0xbda505f7	-0.08057778
54	0x3d8fd861	0.07023693
55	0xbec68f65	-0.38781276
56	0x3ea5f3cc	0.32412565
57	0x3c2f37eb	0.010694484
58	0x3da0b3a2	0.07846762
59	0xbd39a27a	-0.045320965
60	0x3e166301	0.14686204
61	0x3d688444	0.056766763
62	0xbdb36e70	-0.08761299
63	0xbcf9dc35	-0.03050051
64	0x3e0f690d	0.14004917
65	0x3bf56abf	0.0074895318
66	0x3c896287	0.016770614
67	0x3e286949	0.16446413
68	0x3d1fa9b8	0.038980216
69	0xbe44f0a9	-0.1923243
70	0xbd33cb18	-0.043894857
71	0x3dcdc754	0.100477844
72	0xbc6a5885	-0.014303331
73	0x3bff6267	0.007793713
74	0xbce33f1a	-0.02774005
75	0x3d8852d3	0.066564225
76	0x3e7cd9a7	0.24692403
77	0xbde15fcf	-0.11004602
78	0x3e05cb71	0.13065888
79	0xbecf330c	-0.40468633
80	0x3d23a1f0	0.039949358
81	0x3d16eb65	0.036845583
82	0x3cc1b859	0.023647474
83	0xbd97e91f	-0.07417511
84	0xbe0d3ed5	-0.137935
85	0xbcb47897	-0.022030158
86	0xbed3cdc4	-0.41367924
87	0xbd8a4c28	-0.06752807
88	0x3da1c6d5	0.07899252
89	0x3daa5825	0.083175935
90	0x3c4262ed	0.011864406
91	0x3d22fcea	0.03979198
92	0xbdb542ef	-0.08850657
93	0xbea842ae	-0.32863373
94	0xbeb5b775	-0.3549153
95	0xbd71f863	-0.05907477
96	0x3b8e15cd	0.004336095
97	0xbbd212b3	-0.0064109205
98	0xbdb445d2	-0.0880238
99	0xbc56b38c	-0.013104331
100	0x3c1d45b4	0.009599138
101	0x3d0846e4	0.03327073
102	0xbce23dc3	-0.02761734
103	0x3dcb4b71	0.09926499
104	0x3d8bb3ca	0.068214014
105	0x3e28a5d8	0.16469514
106	0x3d7900db	0.06079183
107	0xbd8f4bf8	-0.06996912
108	0x3e4ce091	0.2000754
109	0x3c23066f	0.009950264
110	0x3d8d8717	0.06910532
111	0xbd290d48	-0.04127243
112	0x3d8cb019	0.068695255
113	0x3dc77d14	0.09740654
114	0x3a88b767	0.0010430635
115	0x3d9d7eca	0.07690199
116	0xbce7ddb8	-0.028303966
117	0x3aee1f90	0.0018167365
118	0xbdb8a90c	-0.09016618
119	0x3d93d59e	0.072184786
120	0xbbd5972d	-0.0065182657
121	0xbd7e1eb9	-0.06204102
122	0xbabe4f4e	-0.0014519484
123	0xbda4896a	-0.08034022
124	0xbb4b43ba	-0.003101571
125	0x3dbfbbe5	0.0936201
126	0xbbfbea11	-0.007687815
127	0xbdd9d438	-0.10636181
128	0xbc4aeaf3	-0.012385118
129	0x3b937f0f	0.0045012305
130	0x3e1b20ef	0.15149282
131	0xbd5fd56f	-0.054646906
132	0xbb0915ba	-0.002091749
133	0xbcf8e624	-0.030383177
134	0x3ce951bc	0.028481357
135	0x3d6e7a64	0.05822219
136	0xbddd4789	-0.1080466
137	0xbd39a8b9	-0.045326922
138	0x3c8f3606	0.017481815
139	0xbd222eed	-0.039595533
140	0x3d445863	0.047935855
141	0x3d0d4550	0.03448993
142	0xbbda3d75	-0.0066601583
143	0x3d96d363	0.073645376
144	0x3c932fb8	0.01796709
145	0xbd909aea	-0.070607975
146	0xbdbf774b	-0.09348925
147	0xbd92398c	-0.071398824
148	0xbd10d8d5	-0.035363037
149	0x3d8de505	0.06928448
150	0xbd7de56b	-0.06198637
151	0x3c59f4c3	0.013302985
152	0x3dd27c73	0.10277643
153	0x3d4ce733	0.050025176
154	0x3dc4cde1	0.09609581
155	0x3c1e9838	0.009679846
156	0xbd81d418	-0.06339282
157	0x3d83fd89	0.06444842
158	0x3b35e800	0.002775669
159	0x3dce6f4b	0.10079821
160	0xbd97e31c	-0.074163646
161	0xbceef4cf	-0.029169468
162	0xbd8b607d	-0.06805513
163	0x3dd87d5e	0.10570787
164	0xbc31a378	-0.010842197
165	0xbda1b000	-0.078948975
166	0xbd62948b	-0.055317443
167	0xbdeabb8f	-0.11461555
168	0x3ddd137b	0.10794731
169	0xbd271c83	-0.040798675
170	0x3cb25c07	0.021772398
171	0xbdf43bf8	-0.11925501
172	0xbd512e38	-0.05106947
173	0x3d96c532	0.07361831
174	0x3c20cd70	0.009814605
175	0xbdf614c1	-0.12015677
176	0x3da1be0c	0.07897577
177	0xbd4308c7	-0.047615793
178	0x3db490e8	0.08816701
179	0xbcffc148	-0.031220093
180	0x3dafbb64	0.08580664
181	0x3dd52eaa	0.10409291
182	0xbd38dbf2	-0.04513163
183	0xbd2eae40	-0.042646646
184	0x3d015f55	0.031585056
185	0xbdc77f04	-0.09741023
186	0xbc4ff50d	-0.012692702
187	0x3d3de864	0.046364203
188	0xbb39f7d5	-0.002837648
189	0xbb88efc1	-0.0041789715
190	0x3db5c4ef	0.08875453
191	0xbd33dd1a	-0.04391203
192	0x3a6130df	0.0008590351
193	0x3bcc6d0c	0.0062385853
194	0x3a925448	0.0011164034
195	0xbd3fd01e	-0.046829335
196	0x3d0c056d	0.034184862
197	0xbd9ae0c6	-0.075624034
198	0x3d53a72f	0.05167311
199	0x3d825275	0.06363384
200	0xbd6dbbb7	-0.058040347
201	0x3e3b2c32	0.18278578
202	0xbd950cca	-0.0727783
203	0x3d383d57	0.044980373
204	0xbd482e7f	-0.048872467
205	0x3de7e203	0.11322405
206	0x3dcb67c3	0.099319
207	0xbd780e8a	-0.06056074
208	0x3e209c20	0.15684557
209	0x3d7c7afa	0.061640717
210	0xbc41af07	-0.011821515
211	0xbdf38121	-0.11889864
212	0xbcea352f	-0.028589813
213	0xbd333e71	-0.04376072
214	0x3d29bd21	0.041440133
215	0xbdb48405	-0.08814243
216	0xbda1d270	-0.07901466
217	0x3c41176a	0.0117853675
218	0xbd865e9d	-0.06561015
219	0x3d9a9dbc	0.07549617
220	0x3df97c43	0.12181904
221	0x3d048227	0.032350685
222	0x3caec628	0.021334723
223	0x3d1a47bf	0.03766608
224	0x3d6b7045	0.057480115
225	0xbceba557	-0.028765364
226	0xbdc59f0e	-0.09649478
227	0xbda6d601	-0.08146287
228	0xbd51b050	-0.051193535
229	0xbe1891b7	-0.14899336
230	0x3dd68594	0.10474697
231	0xbd086152	-0.033295937
232	0xbde09eaa	-0.10967763
233	0x3ca0074e	0.019534733
234	0xbc9c0fc4	-0.019050486
235	0x3d9168d6	0.07100074
236	0xbd7ccf1c	-0.061720952
237	0x3d973fa2	0.07385184
238	0x3d154fe2	0.036453135
239	0xbd918cd8	-0.07106942
240	0x3d1b10d7	0.037857857
241	0x3bc30a9d	0.005952193
242	0xbd9eb8b3	-0.07750072
243	0x3d2eb540	0.042653322
244	0x3dcdd434	0.1005024
245	0xbd8f09f0	-0.06984317
246	0x3d98004f	0.07421934
247	0xbd89346c	-0.06699452
248	0xbd9b7e8f	-0.075924985
249	0x3d74fa91	0.05980927
250	0x3cf4173f	0.02979624
251	0x3c80c9b0	0.015721172
252	0x3da9c86c	0.082901806
253	0x3cee2a41	0.029072883
254	0x3dad37c6	0.084579036
255	0x3c44f4ef	0.012021287

linear2.bias f4 [100]
0	0xbd7fac7c	-0.062420353
1	0x3ddcb46f	0.107766025
2	0x3c34448e	0.011002673
3	0x3d69eaf0	0.05710882
4	0x3e0964f7	0.13417421
5	0xbdbce503	-0.09223368
6	0xbd5a035d	-0.053225864
7	0x3d949c4f	0.07256376
8	0xbd846efd	-0.06466482
9	0xbd0d2bb3	-0.034465503
10	0xbdefbded	-0.11706147
11	0xbc78edc0	-0.015193403
12	0xbd8a3aa4	-0.06749466
13	0xbd017d77	-0.031613793
14	0x3c69d60d	0.014272225
15	0x3d9d4103	0.076784156
16	0x3d1bd6f1	0.03804678
17	0xbcdbf27e	-0.026849028
18	0x3d9f9669	0.0779236
19	0x3c3af42b	0.011410753
20	0x3c9196e8	0.017772153
21	0x3d8e5497	0.06949728
22	0x3b92e558	0.0044829063
23	0xbd84404a	-0.06457575
24	0x3c1b3219	0.009472393
25	0x3dba5501	0.090982445
26	0x3d0658bf	0.03279948
27	0x3df0507d	0.11734102
28	0x3d9106c3	0.07081368
29	0xbbac6816	-0.0052614314
30	0xbd2253c0	-0.03963065
31	0xbd458ba2	-0.048228867
32	0xbd485a73	-0.048914384
33	0x3d1ac446	0.037784837
34	0x3d194e55	0.03742822
35	0x3d17cfe8	0.03706351
36	0x3d8d3974	0.06895724
37	0x3d11f07a	0.035629727
38	0x3cafb5f1	0.021449061
39	0x3d4880b9	0.048950884
40	0xbd7e0252	-0.06201393
41	0x3d6b3f25	0.057433266
42	0xbce604c4	-0.028078444
43	0xbcdfc72d	-0.027316654
44	0x3d2fba34	0.042902187
45	0x3dbc5dd5	0.091975845
46	0xbded5926	-0.11589269
47	0xbd4e419d	-0.050355542
48	0xbd984d20	-0.074365854
49	0x3da8e7ae	0.082473144
50	0xbd5ba12e	-0.05362051
51	0x3b3b8567	0.002861345
52	0x3da6aa89	0.08137996
53	0x3dc1b46a	0.094582394
54	0xbd6b0990	-0.057382166
55	0x3d9be15f	0.076113455
56	0x3d91d8eb	0.07121452
57	0xbd0db423	-0.03459562
58	0xbc9f44b5	-0.019441942
59	0xbc92fbb3	-0.017942285
60	0x3deefea2	0.11669661
61	0x3e0f9aef	0.14023946
62	0xbd3a2ab0	-0.045450866
63	0xbc925a30	-0.01786527
64	0xbd996045	-0.07489065
65	0xbd505570	-0.05086273
66	0x3d9a5ca5	0.07537202
67	0x3cece9fa	0.028920162
68	0xbcfea4ef	-0.031084506
69	0x3c82fec3	0.01599062
70	0x3c90a533	0.017656898
71	0x3ccb733b	0.02483522
72	0xbdc3e0e3	-0.09564378
73	0x3c8e7ca1	0.017393412
74	0xbbf1fa0a	-0.0073845433
75	0x3d943ee1	0.07238556
76	0x3d353b4e	0.04424601
77	0xbdb49a22	-0.08818461
78	0x3d132a20	0.035928845
79	0x3dc741ea	0.09729369
80	0x3ddf2a65	0.10896758
81	0xbddffc73	-0.10936823
82	0xbcf5fbba	-0.03002726
83	0xbd418933	-0.047249984
84	0x3da7cdab	0.08193525
85	0xbdd63436	-0.10459177
86	0x3db7d6e7	0.08976536
87	0x3dd9c5f6	0.10633461
88	0x3dbe9493	0.09305682
89	0xbc6c4f26	-0.014423167
90	0x3d2c4c24	0.0420648
91	0xbaa28e82	-0.001240209
92	0xbca530de	-0.020164903
93	0xbcfa7275	-0.030572155
94	0xbd923e6d	-0.07140813
95	0xbc522ed9	-0.012828552
96	0xbd90380f	-0.07041942
97	0xbcd38391	-0.025819572
98	0x3ddc8efe	0.10769461
99	0x3dd6ec88	0.104943335

linear3.weight f4 [1, 100]
0	0x3ddf5a7a	0.10905929
1	0xbd44e26c	-0.048067495
2	0xbdfbef6f	-0.12301528
3	0xbd87ef46	-0.06637435
4	0xbf17d364	-0.5930693
5	0xba5695a6	-0.00081857515
6	0xb8fce011	-0.00012058032
7	0xbdc42989	-0.09578235
8	0xbcb9c4fd	-0.02267694
9	0xbdc1c4fc	-0.094614
10	0x3db080e4	0.08618334
11	0x3a9dd731	0.0012042281
12	0xb896d7ee	-7.1927774e-05
13	0x3afbf26e	0.001922203
14	0x39c256e5	0.00037067305
15	0x3d6b108a	0.05738882
16	0x3d8230e7	0.06356984
17	0x3cc92328	0.024552897
18	0xb9c97d3f	-0.00038431023
19	0x3cf5bdd9	0.029997753
20	0xbe775ca8	-0.2415644
21	0x3da1a26a	0.07892306
22	0xbcbf10a5	-0.023323366
23	0x3d406325	0.04696955
24	0x3d873fd7	0.06603973
25	0xbde4e85b	-0.11177131
26	0xbdbf1e48	-0.093319476
27	0xbdf7fc96	-0.12108724
28	0xb6c5947b	-5.888343e-06
29	0xbd3ea5a9	-0.046544705
30	0x3e48b795	0.19601281
31	0x3d2ca99f	0.04215395
32	0xb9a1f6fa	-0.00030892325
33	0xbf4aa6b4	-0.7916062
34	0xbdaca11d	-0.084291674
35	0x3ac3e239	0.0014944739
36	0x3d57a4e8	0.0526475
37	0xbbfeb577	-0.007773097
38	0x3d5eb5ad	0.05437248
39	0xbd9abeb5	-0.07555906
40	0x3d6ecd94	0.058301523
41	0xbcf7f509	-0.030268209
42	0xbdc3c7e7	-0.09559613
43	0x3b3947a0	0.0028271452
44	0xbf1671b5	-0.58767253
45	0xbcd50b61	-0.026006402
46	0x3e1b8da2	0.15190747
47	0x3c8a9f71	0.01692173
48	0xbd66d1f8	-0.056352586
49	0xbca7372a	-0.020412046
50	0x3db30ce1	0.08742691
51	0xb9a4ad96	-0.0003140985
52	0xbd215c59	-0.03939471
53	0x3db5670b	0.088575445
54	0xbdd5787f	-0.104233734
55	0xbd25d8f4	-0.040490106
56	0xbd8b6b31	-0.068075545
57	0xbd925f24	-0.07147053
58	0x3d9b7167	0.07589989
59	0x3d738f12	0.059462614
60	0xbdc752f3	-0.09732618
61	0xbe239da1	-0.159781
62	0x3b1e2fb3	0.0024137318
63	0xbd6ceeeb	-0.057845037
64	0x3c8d2a77	0.017232163
65	0xbda7aede	-0.0818765
66	0xbd9b5059	-0.075836845
67	0xba22cc8d	-0.000621029
68	0xbde61698	-0.11234778
69	0x3e18ffb9	0.149413
70	0x3931ead1	0.00016967511
71	0xbc9ef828	-0.01940544
72	0x3b0ee796	0.0021805516
73	0xbfa53f56	-1.2909954
74	0xbc2d098f	-0.010561361
75	0xbda5cb41	-0.08095408
76	0x3dacbcb0	0.08434427
77	0xbe44f404	-0.1923371
78	0xbd90eccf	-0.07076418
79	0x3db00964	0.08595541
80	0xbe3c33b9	-0.18379106
81	0x3e38cf1e	0.18047759
82	0xbfa6dea4	-1.3036695
83	0x3d56ae54	0.052412346
84	0xb7458f48	-1.1775475e-05
85	0x3e17215c	0.1475882
86	0xbc785a78	-0.015158288
87	0xbcb9fbc9	-0.022703068
88	0xbd1dff3d	-0.038573492
89	0x3d2eec76	0.042705975
90	0xbcab5c7c	-0.020918123
91	0x3d0603fa	0.032718636
92	0xbd59df65	-0.05319156
93	0xbd859051	-0.06521667
94	0x392c4c5a	0.00016431641
95	0xbed66b17	-0.41878578
96	0x3d9ecc5a	0.07753821
97	0xbe022db4	-0.12712747
98	0x3db2204b	0.08697566
99	0xbc98a6df	-0.018634258
