checkpoints/single-phase/123bus/safe-ddpg/safe-flow_value_net_checkpoint_a4.pth (torch, 44119 bytes, 5 tensors)

linear1.weight f4 [100, 2]
00000000: 37a3 c33e 6c34 79be dca3 193d 5cad 01be
00000010: 027d b4be 7e7d 11be 8f5d ac3d d3b3 6d3e
00000020: a11d a2be f18e 15bf 44eb 68bc 1630 2fbf
00000030: 6489 acbe 1f04 4dbe db7d 413f 0d55 23bf
00000040: 0415 f53d 9638 99be 9499 f9be 8138 2d3f
00000050: 966b febe 47f3 c93e a756 61be 779d 133d
00000060: c1eb 7a3e 843b ac3e ffc6 fe3e b774 f23d
00000070: 9937 a1be 0bc5 70be d2f6 b3be fde8 083f
00000080: d83a 1a3f 8d9f e3bd 48b5 e8be c4c0 b53e
00000090: 7058 87be 91fe 883e e868 0dbe 36e4 ae3d
000000a0: 029a 153f 710a ccbe 2aa0 993e f211 c1be
000000b0: f951 68be 5962 743e 1ed5 9abe 13a8 f53e
000000c0: 9bab ae3e 1b9a a8be a31e 313f 75d9 2dbe
000000d0: 45ce 543c 873e 1e3e 4c3f 27be 6a26 053e
000000e0: 2540 1c3e 31b9 1e3f 0722 b1be eb9f b1bd
000000f0: 770f 7b3e d32d 233f 06fc 233e 8cf2 4d3e
00000100: dff0 b9be 1ed6 febe 8ee7 493f d0d0 0bbf
00000110: 5074 1fbf aa0e 15be 2d78 9dbe aed9 2f3e
00000120: 3176 313f 4f4f f1bd 317b 113f 5868 073f
00000130: 9cc3 27be 589e 4fbe e6d3 24bf 3230 17bd
00000140: 3796 2abf 2fb5 ab3d 1faa 873e 24b8 9c3e
00000150: de28 5d3f b31a 313f dc9f c0be 6c3f d23e
00000160: bf61 6f3f fa9d e4be 5050 bdbe 1ec6 813e
00000170: d0ec 533e baca 08bf f3fe 8fbe 065e 243f
00000180: 9a7a 30bf c128 32bf c2d8 17bf f07e 7b3e
00000190: 0c88 d9be 68ca b33e 1d7b 1bbf 0f31 bebe
000001a0: 3871 213f 48e7 633e 3a59 94be 15bb b9be
000001b0: 89c4 e7bd 6242 6f3d 6e79 9bbe ca20 c33e
000001c0: f7d5 f2be 4ac1 8a3d 2c79 353e 8f55 96bd
000001d0: 1d81 fcbe 7afc f73e 0163 9d3b d58d f9be
000001e0: f1c4 513e d6f5 1bbf 8b39 ca3e 835c 0cbf
000001f0: 2a88 4d3f c523 f63e f35b 573f 588b 013f
00000200: b59f c63d 22a8 c13d e561 a93e 8c6a 543e
00000210: 51b3 52be fcb0 37bf 480c f13e 6b89 3ebf
00000220: 0cae 243e 3db7 b5be 3317 693f 52fa 1cbe
00000230: 7673 0bbf 7148 2ebf 5a00 003f 51c6 52be
00000240: 0819 70be 4810 033f a61d f53d 7751 16bf
00000250: afc2 a2be 188f 48be 106a c6be a55b febe
00000260: dd51 20be 62c1 59be 9762 693e 6523 16bf
00000270: 4f5b 003f 22e6 4ebe fb75 56bd 00e9 24bf
00000280: 05a4 94be d7e0 2fbe 0208 6ebe 5120 d23e
00000290: 0c41 e7bb eb97 bbbe 2fef 463f 74cf 00bd
000002a0: 498c 103e 0a6e c53e fdfa 2b3c d4df 15bf
000002b0: 4946 983e 1433 e7bc 1bd4 26ba 0a22 ab3e
000002c0: fbc8 2e3f f335 0f3f efb7 2d3f 29c4 2d3f
000002d0: 1150 bc3c 90df f2be 77a3 2d3f 4f20 a2be
000002e0: e055 5e3d f80e c03d dcd4 16bf fcca 0bbe
000002f0: be23 bb3e a247 e03e b147 9fbd 1fa3 ed3e
00000300: 3f1f 71bd 0a1f 24bf d520 3e3e 49a2 983e
00000310: 4eaa 2b3e 391d 8a3c fb18 113d 1ccc 333f
0.3821046 -0.24336404 0.037509784 -0.12663788 -0.35251623 -0.14208028 0.084162824 0.23213129
-0.3166323 -0.58421236 -0.014216248 -0.6843275 -0.3369857 -0.20021103 0.75582665 -0.6380165
0.11966899 -0.29925984 -0.48749983 0.67664343 -0.49691457 0.39443418 -0.22005711 0.036038842
0.24503995 0.33639157 0.49761197 0.11838668 -0.3148773 -0.23512666 -0.35149246 0.5348051
0.6024604 -0.11114416 -0.45450807 0.3549863 -0.2643466 0.2675672 -0.1380955 0.085396215
0.5843812 -0.39851716 0.30005008 -0.37709004 -0.2268752 0.23865642 -0.3024072 0.47979793
0.341153 -0.32930073 0.6918737 -0.16977485 0.012988632 0.1545354 -0.1633274 0.13002935
0.15258844 0.6200133 -0.34596273 -0.0867308 0.24517618 0.637418 0.16014108 0.20112056
-0.36316583 -0.49772733 0.7886895 -0.546155 -0.62286854 -0.14556375 -0.3075575 0.17172882
0.6932097 -0.11782705 0.568286 0.5289359 -0.16383213 -0.20275247 -0.6438583 -0.036911197
-0.6663546 0.083841674 0.2649698 0.30609238 0.86390483 0.69181365 -0.37621963 0.41064012
0.93508524 -0.44651777 -0.36975336 0.25346464 0.20695806 -0.53434336 -0.28124198 0.6420597
-0.68937075 -0.69593436 -0.5931512 0.24560142 -0.42486608 0.3511536 -0.6073473 -0.37146804
0.63063383 0.22256196 -0.28974324 -0.36275545 -0.11316783 0.058412917 -0.3036608 0.38110954
-0.47428867 0.06775148 0.17722005 -0.07340538 -0.49317256 0.48434812 0.004803062 -0.48741022
0.20485283 -0.6092199 0.39497027 -0.5482866 0.80285895 0.48074165 0.8412468 0.50603247
0.096984304 0.09455897 0.330825 0.2074377 -0.20576216 -0.7175443 0.47079682 -0.74428433
0.16082019 -0.35491362 0.91051024 -0.15329865 -0.54473054 -0.68079287 0.50000536 -0.20583464
-0.23447049 0.5119672 0.119685456 -0.58718055 -0.31789157 -0.19585836 -0.38752794 -0.49679294
-0.15656228 -0.21265176 0.22791515 -0.5864776 0.50139326 -0.20204976 -0.05235861 -0.6441803
-0.29031387 -0.17175613 -0.23245242 0.4104028 -0.0070573147 -0.36639342 0.77708715 -0.031447843
0.14116015 0.38560516 0.010496852 -0.5854466 0.29741123 -0.028222598 -0.00063640036 0.33424407
0.6827542 0.55941695 0.67858785 0.6787744 0.022987397 -0.4743619 0.6782755 -0.31665275
0.054281116 0.09377855 -0.5891855 -0.13651651 0.36550707 0.43804651 -0.07777346 0.46413514
-0.05886769 -0.6410986 0.18567212 0.29811314 0.16764185 0.016859638 0.035424214 0.7023332

linear1.bias f4 [100]
00000000: c69f 8fbe b965 f1be 4659 f7bd bf80 3f3f
00000010: ec4b 4b3d a823 e5bd 4a8d 883f 17a6 02bf
00000020: e036 233f 2448 393f 0b9d 303f 0dd7 41be
00000030: 191a 663e db39 433f 8000 f23e d0c3 b83e
00000040: d9d3 58be a54b a23e 5cac 913e 84bc 013f
00000050: a67f 7bbe 2f32 42be 7154 4d3f c0af da3d
00000060: 9389 f33e b38d dcbd f6a9 bc3e 9c0e 253f
00000070: 53c6 363e d118 723d d92a 3b3d 041d 433f
00000080: 03c3 24bf c70a f6bd 931c 27bf e64a 5dbe
00000090: b196 d53e 912f 8abd 0f3c 3e3f fbf6 823d
000000a0: fe1a 5a3f cd9a e8be 04c2 9ebe 12b0 71be
000000b0: dc3e 27bd f8ad cbbe 045c 84bd 6cc6 973c
000000c0: a3a4 f6be 2b35 453f 8191 dc3e 9fcf 16bf
000000d0: 1a15 ec3d 258a 903e d240 20bf 7834 a83e
000000e0: aaa0 cbbd 2201 dabe 1550 573f c519 753f
000000f0: fd54 623f 9da8 71be 38f4 cf3e a99c fa3e
00000100: c30a 533e 6cc0 1cbf 1949 a3bd 8712 12bf
00000110: a8ec 3c3f d891 ecbe f868 babe a41e 76be
00000120: 8d6c 423f ca70 73be bc73 aebe 1931 c93e
00000130: 800a 6bbd 47a8 75be 95d8 033e 7f6b 683e
00000140: 7689 6a3f 151a 2f3f cbef c03e a9f3 0cbf
00000150: e156 1b3f f0f6 80be c06b eabd e88d aa3e
00000160: d6b1 4b3f 0f64 763e 06e0 eb3e e856 a7be
00000170: b7b7 0b3f 50a7 f1be 49dc 40be cce5 0d3f
00000180: e6ee 353f 2828 2dbf 10b4 90be 0f6a aa3e
-0.28051585 -0.4714792 -0.120775744 0.74805826 0.04963295 -0.111884415 1.0668118 -0.51034683
0.6375561 0.723757 0.6898963 -0.18929692 0.22470893 0.76260155 0.47266006 0.36086893
-0.21174563 0.31698337 0.28451812 0.50678277 -0.24560413 -0.18964456 0.8020697 0.10678053
0.47565898 -0.107692145 0.3684842 0.6447542 0.17849092 0.059105698 0.04569516 0.7621615
-0.64360064 -0.12013774 -0.65277976 -0.21610603 0.4171653 -0.06747354 0.7431039 0.06394764
0.85197437 -0.45430604 -0.31007397 -0.23602322 -0.04083143 -0.39781165 -0.06462863 0.018527232
-0.48172483 0.7703425 0.4307976 -0.58910555 0.11527462 0.28230396 -0.6259891 0.3285253
-0.099427536 -0.4257899 0.8410657 0.95742446 0.8841093 -0.23599477 0.40616012 0.48947647
0.20609574 -0.6123111 -0.07972927 -0.5705952 0.7379861 -0.4620502 -0.3640821 -0.24035126
0.75946885 -0.23773494 -0.34072673 0.3929527 -0.05738306 -0.23989974 0.12875588 0.22697257
0.91616 0.68399173 0.37682948 -0.55059296 0.6067944 -0.25188398 -0.11446333 0.3331139
0.7956823 0.24061607 0.46069354 -0.32683492 0.545772 -0.47197962 -0.18834032 0.5542877
0.71067655 -0.676394 -0.28262377 0.3328404

linear2.weight f4 [100, 100]
00000000: 7457 71bd 8d75 9b3d 3e91 fabc cac7 d83c
00000010: e6c5 acbd aa03 143d 1a5c 88bd df8d 443d
00000020: 4d5e 433d 00b0 973b 2514 4b3d 0006 af3b
00000030: 4ae8 9a3d 8f08 5fbc 7de6 edbd e545 023e
00000040: 0d20 1ebd 23c2 cc3d 3da9 7b3e 4283 28bd
00000050: 79f7 c93d f648 c8bc e023 443e 18ad bcbe
00000060: da7e df3b eab0 58bd 170e d83d 546d d43d
00000070: 85d7 3cbe 4063 c53d ea82 81be d6b5 d83d
00000080: 512b e9bd 441b d43c fbfe 9abd d849 b53d
00000090: 95c2 523b d55c d1bc 5116 9b3d 70f3 763d
000000a0: 0661 4ebc 5033 40be 7870 72bd 419d 113d
000000b0: 8b4a 853d fdaf 06bd 8609 0fbd 2079 bdbe
000000c0: 14e3 c13c da03 87bd 2ed2 b03e 4e64 e6bc
000000d0: f3c2 533e 6a2b f0bd ed26 443d b5aa fc3d
000000e0: 380b 8fbd de02 bf3d fef7 c4bd 6e0e e43c
000000f0: 6d86 c73d 5570 af3d f674 e53d d932 903e
00000100: 381c 2e3e 909a dbbd 3d07 993d 393b bb3d
00000110: e475 763d 5b93 65bd 6585 4eba 018d 113d
00000120: 80e1 bdbd f07a 4c3d bd1d 3c3d 18c5 873d
00000130: f42a 67bd 63e4 80bd d82a 8f3d eb39 b73d
00000140: 0ba6 913d ad52 e23c 0585 be3d e440 ba3d
00000150: dfe6 263b e14a 1cbc 2067 f6bb cc99 63be
00000160: 2ae4 273e ee6f f13c 3fa2 97bd ad1a 8c3d
00000170: 3a81 ad3d 672a f6ba 3159 65be 415d adbd
00000180: 379c 68bc 87ee 083b 73ed 58bd e019 6bbe
00000190: 9b50 ed3d 4925 853d 189a 0a3e 4e19 263e
000001a0: faf7 363d 3947 903d b1cc 013d 9081 aa3a
000001b0: 3d8c e23d 926f e63d 9c1e 8f3d 906a 4a3d
000001c0: f784 84bc 190d f53d 81fc a03c 2497 013e
000001d0: b023 d5bc 0b2a 303a 0161 d23d 7b0b 3d3d
000001e0: cbff 423d cdc1 bd3d 69f8 823d 2b27 273b
000001f0: 4e7e 7abc 25ef ffbd 9f04 163e f8b8 303e
00000200: 1c74 813c 3c23 733d 4e04 543d b147 273c
00000210: 1426 913d 7730 183d 9582 c0bd c654 16be
00000220: 09c3 903d 6f98 d6bc dd0f b93d 0a60 4fbd
00000230: ab58 833e 9bcd 1bbd 0e9c b83d c82d bdba
00000240: b910 143d f751 cabd bd9b 96bd be54 993d
00000250: b603 69bc f983 fc3d 5ea3 f0bc 2042 51bc
00000260: 91be dc3c 50b3 b6bc 880d c6bd 6301 bb3c
00000270: ffb6 ab3d 8e2f f73d f801 c23d 3b03 45ba
00000280: fbee a3bc 1384 843d e2b5 08bd fa3f b13d
00000290: afe7 713d 8248 63bc 9caa 103d bce3 b23d
000002a0: feee 073e b1d0 a2bd c0ad a13c 5761 be3d
000002b0: 8586 893c 9ba3 843d c801 1ebc aba2 b83d
000002c0: fc5c ebbd 06bd 303d 1450 bd3d c578 e83c
000002d0: ac9d cb3d e2c0 e23d a37a a73d e509 5ebe
000002e0: b567 2bbd 9664 8fbd f2fd 1abe 7942 e23c
000002f0: 1049 d73d 2c11 22bd 415f 2e3b d7a2 36bd
00000300: 4297 223e 9d82 20bd c0c1 cbbc 40b2 93bc
00000310: 216c 10bd d91c ea3c 9f1b d43c 279e 7abd
00000320: bdca 4abf 4815 8cbd d0b7 37bd bba8 1b3e
00000330: 585d 8abe 9e11 85be 3cb3 7f3f f16a 2fbf
00000340: bb3b cf3e 1d14 403d b05d 073e 2ad3 0dbd
00000350: ae3d bd3d 8402 d53b 0d82 2cbd 447a c43a
00000360: 6443 c7be cc4f 963c 0cb9 583d bb6f a03d
00000370: daa9 19bf fe77 f9be bf51 2e3e 34ba a63c
00000380: 9029 7d3e 1011 64be cf5b ed3c 8409 9b3d
00000390: 4cdc 7d3d 2768 2dbd db7e 463d 42e0 dc3d
000003a0: 486d 8bbd 0dd9 5cbe a368 2ebd 661a 16be
000003b0: c87e e83d 248d a3bb a0f2 2b3f a220 88bd
000003c0: 74f5 773e caa8 d2bd 1c4d a93d c33a b43d
000003d0: 31c3 ae3c 102e 8abd 5cc0 c4be 8a74 9a3d
000003e0: 0dcc 183c f19b f63c e15b 8d3d 12b7 823d
000003f0: dc30 cb3d df44 fdbd 0001 f43c 9aff b93d
-0.058921292 0.075907804 -0.030586835 0.026462454 -0.08436184 0.036136307 -0.06658192 0.04798686
0.047697354 0.004629135 0.04957976 0.0053412914 0.07563837 -0.01361288 -0.11616228 0.12721975
-0.038604785 0.09997966 0.24576278 -0.041140802 0.09861655 -0.024448853 0.1915431 -0.3685081
0.006820542 -0.052903093 0.105495624 0.10372415 -0.18441589 0.09638071 -0.25295192 0.105815575
-0.11385215 0.025891908 -0.07568165 0.08851975 0.0032159437 -0.025556961 0.07572616 0.060290754
-0.012596374 -0.18769574 -0.05918929 0.03555036 0.065083586 -0.03288268 -0.03492119 -0.37006474
0.02366785 -0.065925315 0.34535354 -0.028124 0.20679836 -0.117270306 0.047888685 0.12337247
-0.06984562 0.09326719 -0.09617613 0.027838912 0.097424366 0.085663475 0.11203949 0.28163794
0.17002952 -0.1072284 0.07472084 0.09142155 0.060171023 -0.056048732 -0.00078781537 0.035534862
-0.09271526 0.04992193 0.045926798 0.066293895 -0.056437448 -0.06293561 0.06990594 0.08946594
0.07111748 0.027627314 0.09302715 0.09094408 0.00254672 -0.009539337 -0.0075196177 -0.22226638
0.16395631 0.029472318 -0.07403993 0.068410255 0.08471914 -0.0018780947 -0.22397305 -0.084650524
-0.014197401 0.0020894127 -0.052960824 -0.2295909 0.1158764 0.06501252 0.13535345 0.1622059
0.044670083 0.07044835 0.03168935 0.0013008583 0.110619046 0.11251749 0.0698826 0.049418032
-0.016176684 0.11965389 0.019651653 0.12655312 -0.026017994 0.0006720132 0.10272408 0.046153527
0.047607224 0.0926548 0.06395037 0.0025505524 -0.015288902 -0.12496785 0.146502 0.1725806
0.015802436 0.059359774 0.051761918 0.010209964 0.07087341 0.037155595 -0.093999065 -0.14680776
0.0706845 -0.026195733 0.09036229 -0.0506287 0.25653586 -0.038037878 0.0901414 -0.00144332
0.03614876 -0.09878915 -0.073539235 0.074868664 -0.014222076 0.12329859 -0.029374775 -0.012772113
0.026946338 -0.0223023 -0.0967055 0.02282781 0.08384513 0.12069617 0.09473032 -0.0007515435
-0.020011416 0.06470504 -0.033376582 0.08654781 0.05905884 -0.013872268 0.035318956 0.08734843
0.13274762 -0.07949961 0.01973617 0.0929591 0.016787777 0.06476518 -0.009643979 0.090154015
-0.11492345 0.043149017 0.09243789 0.0283779 0.09942183 0.11071946 0.08177688 -0.21683462
-0.04184695 -0.07001607 -0.15135935 0.027619587 0.105119824 -0.039567158 0.0026607069 -0.04458889
0.15878013 -0.039187063 -0.02487266 -0.018029332 -0.03525937 0.028578209 0.025892077 -0.061185982
-0.79215604 -0.068399966 -0.04485303 0.15201084 -0.2702434 -0.25990003 0.99882865 -0.68522555
0.40475258 0.04689418 0.13219333 -0.03462521 0.0924028 0.006500544 -0.042116214 0.0014990051
-0.38918602 0.018348597 0.05291085 0.07833811 -0.600248 -0.4872436 0.17023371 0.02035246
0.24722886 -0.22272134 0.028974442 0.07570174 0.06197767 -0.042335656 0.048460823 0.10784961
-0.06807953 -0.21567173 -0.042580258 -0.14658508 0.113523066 -0.0049911905 0.6716709 -0.06646849
0.24214727 -0.102861 0.082666606 0.088002704 0.021333309 -0.06747067 -0.3842801 0.07541759
0.009325993 0.030103656 0.0690229 0.06382574 0.099214286 -0.12366652 0.029785633 0.09081955

linear2.bias f4 [100]
00000000: 1418 8abd 5951 673d f124 043e 0f01 8e3d
00000010: 99db cc3d 98bb 373e d7cc 463e 0875 1f3e
00000020: 9684 d43d 3b7b 0d3e 7924 473e 3936 553e
00000030: 6d60 5d3e ff8b adbb 5f41 013e 5066 503e
00000040: e10f 2e3e 370c 363e 1218 293d 89d4 043e
00000050: fce7 a23d b889 c13d 100d 443e 64e0 553e
00000060: 4e7b 093e 70b8 dcbc 7463 563d b511 373d
00000070: 57b2 c9bd 4076 303c da21 a0bc 979e 183d
00000080: c339 fd3c f982 243e ee79 803e 6b8b 2bbb
00000090: 3696 74bd 0530 713e 83aa 3a3e 8464 cfbd
000000a0: 3c71 273e 72bb c63d c084 af3d 6354 463e
000000b0: 272d c0bd bf06 603e 00f7 063b e519 9ebd
000000c0: 678c c0bd a93c 81bd b9de 40bc 24d8 2a3c
000000d0: 56f2 5e3e 9cc1 d8bc a338 7d3d 1826 9fbd
000000e0: 3b10 9f3d 1fb2 803d ff27 973d 1afa de3c
000000f0: 447c a83d f203 333e 7dcc 633e ed99 503e
00000100: c62a 503e 2916 493e 1a6b 8c3d a7bc 3bbd
00000110: 71f1 433e 43cd 5d3e 8b1f 5bbd 2b74 c0bd
00000120: c072 713d 4d40 94bc 399b f33d afee b13c
00000130: 7652 003e 2ce5 293e c7e8 3b3e a7b0 f0bc
00000140: 4048 b63d faeb afbd e41b 0f3e b1c4 ae3d
00000150: 6ff9 853d 8c1a 0a3e 1f58 233d 561e 763d
00000160: a445 bc3d 36aa 503e 32e6 b5bd ff01 db3d
00000170: 650b 023e 6075 9c3d f397 ec3d 1861 b53d
00000180: 47b5 fbbc 1a9b da3d 7bf5 9c3d 7e22 153e
-0.06742874 0.056474064 0.12904717 0.06933796 0.100028224 0.17942655 0.19414078 0.15571988
0.10376851 0.1381654 0.19447507 0.20821466 0.21618815 -0.00529623 0.12622593 0.20351529
0.16998245 0.17778097 0.04128272 0.129717 0.07954404 0.09450096 0.19145608 0.2088638
0.13425943 -0.026943415 0.05234094 0.04469462 -0.09848469 0.0107703805 -0.019547392 0.037260618
0.030911332 0.16065587 0.25093025 -0.002617563 -0.059713565 0.23553474 0.18229108 -0.10126594
0.16351789 0.09703721 0.08570242 0.19368128 -0.09383612 0.21877573 0.0020594 -0.07719783
-0.094017796 -0.06310398 -0.011771851 0.0104275085 0.21772131 -0.026459508 0.06182159 -0.07770938
0.077667676 0.06283974 0.073806755 0.027218867 0.08226827 0.17481974 0.22245975 0.20371218
0.20328817 0.1963736 0.068563655 -0.04583421 0.19135071 0.21660332 -0.05349688 -0.09397157
0.058947325 -0.018097067 0.11894841 0.021720259 0.12531456 0.16591328 0.18350516 -0.02938111
0.08900499 -0.08589931 0.13975483 0.0853361 0.06541716 0.1348669 0.03987896 0.060087524
0.091929704 0.2037743 -0.08881797 0.1069374 0.12699659 0.07639575 0.115524195 0.0885641
-0.030726088 0.106741145 0.07664009 0.14563939

linear3.weight f4 [1, 100]
00000000: 02ad 423c 30e2 8b3d 5d58 e73d 803c a63d
00000010: 9575 3e3d 5cd1 f33d 52ee 553d cf16 5d3d
00000020: 971c df3d 62f2 0f3e 7285 863d bdff 7f3d
00000030: 7c6e c93d 562f dcbe 636a 3d3d e475 7e3d
00000040: b19a 8f3d 7aab 403d afc1 433d 6d90 493d
00000050: 16a5 053e f2ed 573d 0b78 033e b3e7 c63d
00000060: df44 5a3d 6914 64bf 9248 7ebf 49f4 d6be
00000070: 6fb3 5c3a ff1a dcba 5f77 db3c 2130 fdb6
00000080: ea67 ed3c a9dc 9a3d 46f7 233e f491 033c
00000090: 0466 953a 7859 033e 17d7 133e 5b8e 173d
000000a0: feb2 9b3d 909b ac3d e11c 613d a44e 023e
000000b0: 79ff 893c 18f5 5c3d e357 16bb e6fd 6dba
000000c0: ffa4 ff3c e75d 483d c52b 1c3d 4f19 ef3c
000000d0: acfe 5a3d e976 a53a a6dd 74ba c7f7 6db9
000000e0: 3439 aa3d 56de d3be 4946 513d a59c 383b
000000f0: 49e6 653d d842 6a3d edf3 123e cddf 253e
00000100: 29f5 893d 1eee 733d b7b3 003b 117f 533a
00000110: ff72 333d 5dc5 0b3e 65e0 93bf cda5 44ba
00000120: 782f 9a3a e1b8 f4ba 449e 9c3d 6f3b f0be
00000130: 3dc8 3f3d 566c 683d 462e 693d 9e1f 23b9
00000140: 716e 193d eecb 56bb b541 193e 98d0 b73d
00000150: 1a1b 373d d040 193e ddcf 1e3d 90bd 703d
00000160: 7d56 5f3d 5f40 8d3d b254 40be 6b47 443d
00000170: 9892 053e f19e 553d 3d44 a93d ee35 f6ba
00000180: e2b6 ef3a 5a36 f93b 1722 8a3c 9ddb 3b3e
0.011882069 0.06830251 0.11296151 0.08117008 0.046498854 0.119051665 0.052229233 0.05397683
0.10894125 0.14057305 0.065684214 0.06249975 0.09835526 -0.43004864 0.046244036 0.062124148
0.07011927 0.047038533 0.047792133 0.04921 0.13051257 0.052717157 0.12838762 0.09712162
0.053288337 -0.89093643 -0.99329484 -0.4198325 0.00084190717 -0.0016792713 0.026790319 -7.5455905e-06
0.028980214 0.07561619 0.16012296 0.008030403 0.0011398201 0.12827098 0.14437519 0.037000995
0.076024994 0.08428109 0.05495918 0.12725312 0.016845452 0.053944677 -0.0022940568 -0.00090786663
0.031206606 0.048917677 0.03812768 0.029186873 0.05346553 0.0012623939 -0.00093408895 -0.00022694386
0.08311692 -0.41380566 0.05109242 0.002816954 0.05612782 0.057192653 0.14350863 0.16198654
0.06736214 0.059553258 0.0019638368 0.00080679456 0.04381084 0.13649507 -1.1552855 -0.0007501513
0.0011763414 -0.0018670821 0.07647374 -0.46920344 0.04682182 0.056743942 0.056928895 -0.0001555667
0.03745884 -0.003277536 0.14966471 0.08975333 0.04470358 0.1496613 0.038772453 0.05877453
0.05452584 0.068970434 -0.18782309 0.047919672 0.13044202 0.05215353 0.082649685 -0.0018784383
0.0018288756 0.007605356 0.016861958 0.18345495
