checkpoints/single-phase/123bus/safe-ddpg/safe-flow_policy_net_checkpoint_a3.pth (torch, 3103 bytes, 4 tensors)

b f4 [100]
0	0xb923a603	-0.00015606736
1	0xb9235392	-0.00015576024
2	0x3da1c3c9	0.07898671
3	0x800000c0	-2.69e-43
4	0x80000095	-2.09e-43
5	0x800000c1	-2.7e-43
6	0x80000061	-1.36e-43
7	0x80000088	-1.9e-43
8	0x3c884e50	0.016638905
9	0x800001c6	-6.36e-43
10	0x800000ee	-3.34e-43
11	0x80000236	-7.93e-43
12	0x8000010f	-3.8e-43
13	0x80000147	-4.58e-43
14	0x8000013b	-4.41e-43
15	0x8000075b	-2.639e-42
16	0x80000e21	-5.068e-42
17	0x80000814	-2.898e-42
18	0x80000127	-4.13e-43
19	0x8000013c	-4.43e-43
20	0x8000011b	-3.97e-43
21	0x80000111	-3.83e-43
22	0x80000115	-3.88e-43
23	0x80000124	-4.09e-43
24	0x800001ae	-6.03e-43
25	0x3c103845	0.008802478
26	0x80000249	-8.2e-43
27	0x80000192	-5.63e-43
28	0x80000530	-1.861e-42
29	0x80000316	-1.107e-42
30	0x80000195	-5.68e-43
31	0x3c05ad26	0.008158958
32	0x80003336	-1.8371e-41
33	0x8000209f	-1.1702e-41
34	0x80004b44	-2.7e-41
35	0x3b49db5e	0.003080092
36	0x39abf5df	0.0003279885
37	0x3a3003cd	0.00067144335
38	0x3a12fe3b	0.00056073413
39	0x38fed535	0.00012151377
40	0x399441c9	0.00028277774
41	0x3b06f50a	0.0020592832
42	0x3ae72a60	0.001763653
43	0x3b091961	0.0020919668
44	0x3a13b722	0.0005634894
45	0x3a4d336c	0.0007827792
46	0x3b01c0d0	0.0019798763
47	0x3b0301d9	0.0019990115
48	0x3b1ad45a	0.0023625107
49	0x39344f28	0.00017195626
50	0x3ad84dba	0.0016502657
51	0x3b0f404d	0.0021858395
52	0x3a2aa6d5	0.0006509845
53	0x3ab59270	0.0013852846
54	0x3ae07c2e	0.0017126852
55	0x3aeb82f1	0.0017968101
56	0x3ae3eca6	0.0017389252
57	0x3a043284	0.0005042928
58	0x391d92ee	0.00015027422
59	0x3b09d5d6	0.0021031997
60	0x3b0c6337	0.0021421441
61	0x3a1e1098	0.00060296943
62	0x3b15cd70	0.0022858046
63	0x3a8f6bb3	0.0010942131
64	0x3abdbb03	0.001447529
65	0x3b0117c0	0.0019697994
66	0x3a80c9be	0.0009825749
67	0x39048b53	0.00012640403
68	0x3a42ffe6	0.00074386445
69	0x3a98c3b3	0.0011655003
70	0x3adc4384	0.0016804789
71	0x3b2200f2	0.0024719802
72	0x3a51f67c	0.00080094463
73	0x3b03f701	0.002013624
74	0x3aafb19d	0.0013404373
75	0x3b1cdcbe	0.0023935284
76	0x3a6169d6	0.00085988396
77	0x3ac9c718	0.0015394418
78	0x3b122a51	0.0022303055
79	0x398cd673	0.00026862658
80	0x38edf27a	0.000113462054
81	0x3abb85e5	0.0014306871
82	0x38f9f187	0.00011918233
83	0x3b088122	0.0020828922
84	0x3a0a5fb5	0.00052785437
85	0x3a90c3aa	0.001104464
86	0x3a741605	0.00093111425
87	0x3a471fe0	0.00075959973
88	0x3ad5f3b7	0.0016323243
89	0x3af0cb8f	0.0018371212
90	0x3a93304a	0.0011229601
91	0x3b0072e3	0.0019599728
92	0x3b01b8f6	0.0019794083
93	0x3b2242c9	0.0024759045
94	0x391cd23c	0.00014955638
95	0x3b0d20a1	0.002153434
96	0x3ab92764	0.0014126119
97	0x3ae7a710	0.001767369
98	0x3ad9ab79	0.0016606889
99	0x3aaeefab	0.0013346573

c f4 [100]
0	0x3b84f306	0.004057291
1	0x38c42be1	9.3541814e-05
2	0x3b68a7e4	0.0035500461
3	0x3a486e2c	0.00076458114
4	0x3abb22ae	0.0014277303
5	0x3b2a1a57	0.0025955641
6	0x3913bb8c	0.00014088879
7	0x39df601e	0.00042605487
8	0x3acb62c6	0.0015517108
9	0x3b3ab210	0.0028487481
10	0x37ece509	2.8240045e-05
11	0x3b3e416a	0.002903069
12	0x3a9148d4	0.0011084327
13	0x3b07b00e	0.0020704302
14	0x3b770226	0.003769049
15	0x3b22fd6c	0.002487029
16	0x3a6bbda6	0.00089927984
17	0x3a9f5b32	0.0012157916
18	0x3aff23f4	0.0019465671
19	0x3ad21427	0.0016027734
20	0x3b69da76	0.0035683191
21	0x3b071c06	0.0020616069
22	0x3b83017f	0.003997981
23	0x3b3066eb	0.0026916813
24	0x389567ef	7.124233e-05
25	0x3b0877e5	0.0020823416
26	0x3a8e3db5	0.001085213
27	0x3a148acd	0.0005666435
28	0x39a936f5	0.00032275138
29	0x3992d132	0.00028003153
30	0x3b7e2f5b	0.003878555
31	0x3b0b703a	0.002127661
32	0x3b312cb1	0.0027034695
33	0x3b861312	0.004091629
34	0x3b6c350c	0.003604236
35	0x3b76c2ef	0.003765281
36	0x3ae20c86	0.0017246164
37	0x3a822a54	0.0009930828
38	0x39ecbf6e	0.00045156054
39	0x3aa6e8a2	0.0012734125
40	0x3b118d8b	0.002220961
41	0x3b1848a6	0.0023236661
42	0x3b304e5e	0.002690218
43	0x3b8016b8	0.0039089583
44	0x3ae472e6	0.0017429262
45	0x3abae61b	0.0014259251
46	0x3b676c76	0.003531245
47	0x3aff4a03	0.0019477013
48	0x3b6d831c	0.0036241477
49	0x3a98c520	0.0011655428
50	0x39bda642	0.0003617276
51	0x3b4e517a	0.003148167
52	0x3b721b85	0.0036942672
53	0x39cf0890	0.00039488496
54	0x3a153af7	0.00056926854
55	0x3b32cddc	0.0027283346
56	0x3a5b4874	0.00083649834
57	0x3a2c8f9c	0.0006582679
58	0x3aeebdd4	0.0018214532
59	0x3a380f7a	0.0007021349
60	0x3a8f24ff	0.001092106
61	0x3b813211	0.003942736
62	0x3b8797b9	0.00413796
63	0x39214b34	0.00015382172
64	0x3a60972c	0.0008567448
65	0x3b7b3d07	0.0038335936
66	0x3b12a1b2	0.002237421
67	0x3a47984e	0.0007613943
68	0x3a2bd18a	0.0006554356
69	0x3afd3bd2	0.0019320196
70	0x393f99ae	0.0001827243
71	0x3aed5979	0.001810833
72	0x3a47e11a	0.00076247903
73	0x3b845d0e	0.0040394133
74	0x3a5e0322	0.0008469095
75	0x3b681279	0.0035411401
76	0x3afb094d	0.0019152552
77	0x3ac95702	0.0015361013
78	0x3b78cc73	0.0037963658
79	0x3b800d91	0.0039078672
80	0x3aeb4262	0.0017948861
81	0x3b3faabe	0.0029246057
82	0x3b07b824	0.0020709122
83	0x3b44bfd1	0.0030021558
84	0x3b674d6d	0.0035293952
85	0x3b6fc604	0.0036586532
86	0x3ad2f2fc	0.0016094144
87	0x3b662481	0.0035116973
88	0x3a8515aa	0.0010153551
89	0x3b50a7fe	0.0031838412
90	0x3a283b10	0.00064174924
91	0x3acce754	0.0015632906
92	0x3a3bcdbf	0.00071641424
93	0x3b1372c8	0.0022498835
94	0x3a978feb	0.0011563277
95	0x3b104b34	0.002201748
96	0x3a734ed7	0.00092814624
97	0x3ab8bf3d	0.0014095079
98	0x3b645d5f	0.0034845693
99	0x3a8da591	0.0010806789

q f4 [1, 100]
0	0x3f52cdf6	0.8234552
1	0x3f194313	0.5986797
2	0x406f079e	3.73484
3	0x3f441755	0.765981
4	0x3f359251	0.70926386
5	0x3f446cb8	0.7672839
6	0x3f0c4e41	0.54806906
7	0x3f2ebb71	0.6825476
8	0x3f778c26	0.96698225
9	0x3f1a9f76	0.6039957
10	0x3d07eba0	0.033183694
11	0x3f2ab0b4	0.6667588
12	0x3e9c26e4	0.3049842
13	0x3ee9e95e	0.45685858
14	0x3edd1499	0.43179777
15	0x3f528048	0.8222699
16	0x3f5afe06	0.8554386
17	0x3f537660	0.826025
18	0x3e7aedfa	0.24504843
19	0x3ea74250	0.3266778
20	0x3e2efc5a	0.17088452
21	0x3d4535c5	0.04814698
22	0x3ddedd85	0.10882095
23	0x3e67080f	0.22561668
24	0x3f08dcdd	0.5346201
25	0x3f65d813	0.8978283
26	0x3efc205a	0.49243432
27	0x3da35dc7	0.07976871
28	0x3f3b1157	0.73073334
29	0x3f1d0325	0.61332923
30	0x3da7031f	0.08154892
31	0x3f61f942	0.8827096
32	0x3f0bdc9d	0.54633504
33	0x3e7e139b	0.24812166
34	0x3f28c18a	0.6592032
35	0x3f4d8d56	0.80293787
36	0x3e8d1540	0.27555275
37	0x3f6fabd4	0.93621564
38	0x3cf12540	0.029436707
39	0x3f2bf58e	0.6717156
40	0x3e94228a	0.289326
41	0x3e78873c	0.24270338
42	0x3f7d441d	0.9893206
43	0x3eed1740	0.463068
44	0x3e63fa6c	0.22263497
45	0x3f0514c8	0.51984835
46	0x3ee6eed4	0.45104086
47	0x3f320bf0	0.69549465
48	0x3f6381f3	0.8887016
49	0x3f5ea7ac	0.86974597
50	0x3f2cdf69	0.67528397
51	0x3f04fcef	0.51948446
52	0x3eb0c1de	0.3452291
53	0x3f4fb6d9	0.8113838
54	0x3d990078	0.074707925
55	0x3e2acbe0	0.16679335
56	0x3f735fc4	0.95068
57	0x3e9e03ca	0.30862266
58	0x3d378f60	0.044814467
59	0x3f39e67d	0.7261732
60	0x3f22ea4e	0.6363877
61	0x3effddde	0.4997396
62	0x3f316bad	0.69304925
63	0x3ee90186	0.45508975
64	0x3f6711ec	0.9026172
65	0x3d237710	0.03990847
66	0x3f520663	0.82040995
67	0x3ee92002	0.45532233
68	0x3f686b3b	0.9078862
69	0x3f39a2bd	0.72513944
70	0x3e0d698c	0.13809794
71	0x3ef18ce4	0.47177804
72	0x3f3f0202	0.7461244
73	0x3f604d5e	0.8761805
74	0x3ebabb40	0.36470985
75	0x3f1db02d	0.6159695
76	0x3f2c7d55	0.6737874
77	0x3ebe5bc6	0.37179393
78	0x3f3b8262	0.73245823
79	0x3f2ff5ef	0.6873464
80	0x3e142a5c	0.14469284
81	0x3ea977a4	0.3309909
82	0x3f5169a0	0.81801796
83	0x3c52dd40	0.012870133
84	0x3ea309dc	0.3184346
85	0x3ec78700	0.38970184
86	0x3f102d84	0.5631945
87	0x3f24aa25	0.6432212
88	0x3eb3a880	0.35089493
89	0x3ea2a8ce	0.31769413
90	0x3ea0e14e	0.31421894
91	0x3ee5465a	0.44780236
92	0x3dc9fa20	0.09862161
93	0x3f0a284e	0.5396775
94	0x3e101778	0.14071453
95	0x3f3cd689	0.73764855
96	0x3f11891b	0.5684983
97	0x3f5fc6e8	0.8741288
98	0x3ea2ab74	0.31771433
99	0x3f5721f6	0.84036195

z f4 [1, 100]
0	0x3e9838c4	0.2973081
1	0x3eba7002	0.3641358
2	0x3ecd94ee	0.40152687
3	0x3e983f98	0.29736018
4	0x3d3d9d80	0.04629278
5	0x3f3c7151	0.7361041
6	0x3efa569e	0.4889421
7	0x3eb61a1a	0.3556679
8	0x3f095fed	0.53661996
9	0x3e586f1c	0.21136135
10	0x3f29d3ef	0.6633901
11	0x3f3bb7d0	0.7332735
12	0x3e995b1a	0.29952317
13	0x3e6bfc0c	0.23045367
14	0x3d959020	0.0730288
15	0x3f2b164c	0.668309
16	0x3ebbffb6	0.3671853
17	0x3e375270	0.17902541
18	0x3f645758	0.89195776
19	0x3eb0773e	0.34465975
20	0x3ec52062	0.3850127
21	0x3f2d8d46	0.6779369
22	0x3e434138	0.19067848
23	0x3f67fb80	0.90618134
24	0x3f1ac1ef	0.6045217
25	0x3e91678e	0.28399318
26	0x3efac95a	0.48981744
27	0x3f678de1	0.90450865
28	0x3ea71dc2	0.3263989
29	0x3f1ef98a	0.62099516
30	0x3eeb3790	0.45940828
31	0x3d4d3da0	0.0501076
32	0x3ee3b25a	0.4447201
33	0x3f72c57d	0.94832593
34	0x3ed7dc16	0.421601
35	0x3ec14f3e	0.3775577
36	0x3f3d397e	0.7391585
37	0x3f7d24fe	0.9888457
38	0x3f4d5ece	0.80222785
39	0x3e90f1dc	0.28309524
40	0x3e632554	0.22182208
41	0x3d697b70	0.057002485
42	0x3f1e25b9	0.6177631
43	0x3f4dd9cf	0.80410475
44	0x3da3fab0	0.08006799
45	0x3ee0c81e	0.43902677
46	0x3f2d83e1	0.67779356
47	0x3e9fcdac	0.31211603
48	0x3f59a75f	0.85021013
49	0x3e923b08	0.28560662
50	0x3f77643d	0.96637326
51	0x3f0251af	0.5090589
52	0x3f0e7734	0.5565064
53	0x3f2c2b12	0.6725322
54	0x3e5cb760	0.21554327
55	0x3f235c02	0.6381227
56	0x3f7bf275	0.98416835
57	0x3f2fd96b	0.6869113
58	0x3e9e71d6	0.30946225
59	0x3ee6f408	0.45108056
60	0x3f099ff2	0.5375968
61	0x3e92e052	0.28686768
62	0x3edeed0a	0.4354022
63	0x3ee8b9a6	0.4545414
64	0x3e29eebc	0.16594976
65	0x3d9c4008	0.076294005
66	0x3f0175f8	0.5057063
67	0x3e7d5ec8	0.24743187
68	0x3f75c905	0.96009856
69	0x3f596c93	0.84931296
70	0x3e26f604	0.16304785
71	0x3de18bb0	0.110129714
72	0x3f010b2c	0.5040767
73	0x3d8630d0	0.06552279
74	0x3f5fafb2	0.87377465
75	0x3e4c284c	0.19937247
76	0x3f169e57	0.5883536
77	0x3e4fe2a4	0.203013
78	0x3ed04190	0.4067502
79	0x3f185724	0.59507966
80	0x3e120650	0.1426022
81	0x3e8d2fd2	0.27575547
82	0x3e3d89a0	0.18509531
83	0x3f635e16	0.8881544
84	0x3f70ca0e	0.9405831
85	0x3ee7a41a	0.45242387
86	0x3d540540	0.05176282
87	0x39c77800	0.00038045645
88	0x3f0ec34a	0.5576674
89	0x3f47fa25	0.78116065
90	0x3e2350c8	0.15948784
91	0x3f2a49c3	0.665188
92	0x3eda0d38	0.4258821
93	0x3e92b90e	0.2865681
94	0x3f6b020a	0.91799986
95	0x3f67a9a0	0.904932
96	0x3e440e84	0.19146162
97	0x3e4ed9f8	0.20200336
98	0x3ef215e0	0.47282314
99	0x3ddd2938	0.107988775
