checkpoints/single-phase/123bus/safe-ddpg copy/safe-flow_policy_net_checkpoint_a1.pth (torch, 3103 bytes, 4 tensors)

b f4 [100]
0	0xb90b3a44	-0.00013277779
1	0xb90b3de8	-0.00013279135
2	0xb90c0934	-0.00013354869
3	0xb90bc210	-0.00013328367
4	0xb90b699b	-0.00013295414
5	0xb90bd1b4	-0.00013334193
6	0xb90b6be7	-0.0001329627
7	0xb90ceb6d	-0.00013439143
8	0xb90c3252	-0.00013370186
9	0xb90c916d	-0.00013405616
10	0xb90b7163	-0.00013298313
11	0xb90bcd7c	-0.00013332622
12	0xb90d0b94	-0.00013451121
13	0xb90b6d8f	-0.00013296887
14	0xb90d3156	-0.00013465187
15	0xb90bc75b	-0.00013330339
16	0xb90be3b6	-0.00013340902
17	0xb90bfbec	-0.00013349921
18	0xb90c902a	-0.00013405146
19	0xb90b399f	-0.00013277539
20	0xb90b434b	-0.00013281142
21	0xb90b3c8a	-0.00013278626
22	0xb90b3d03	-0.00013278802
23	0xb90c6402	-0.00013388696
24	0xb90c67c4	-0.00013390096
25	0x3d87678a	0.066115454
26	0x8000000a	-1.4e-44
27	0x3c3933c0	0.011303842
28	0x3bd77509	0.006575231
29	0x3a899463	0.0010496493
30	0x3b374bff	0.0027968881
31	0x38555f2b	5.087179e-05
32	0x3afbc996	0.0019209858
33	0x3a539de7	0.00080725405
34	0x3b4806ee	0.0030521709
35	0x3aaf4bfd	0.0013374087
36	0x3afb347e	0.0019165424
37	0x3a66de73	0.0008806951
38	0x3b0ffe89	0.0021971783
39	0x3ace79a2	0.0015752802
40	0x3a3f4f8a	0.0007297924
41	0x3adac5e2	0.0016691054
42	0x3b53ce48	0.0032318998
43	0x3adc2df6	0.0016798365
44	0x39ab3df1	0.00032661812
45	0x3b45906c	0.0030145897
46	0x39ccad52	0.00039039046
47	0x3a2d64c8	0.0006614444
48	0x3a734ead	0.0009281438
49	0x3ab90cab	0.0014118155
50	0x3a1127fa	0.0005537268
51	0x3ad4e404	0.001624227
52	0x3b11c79b	0.0022244218
53	0x3a3ef530	0.00072844606
54	0x3b1ed621	0.0024236517
55	0x3b1176e7	0.0022196115
56	0x3b3d38fd	0.002887308
57	0x3b3e2740	0.0029015094
58	0x3afbf48e	0.0019222663
59	0x3b06941b	0.0020535055
60	0x3b2859f6	0.0025688387
61	0x3a826bc0	0.0009950325
62	0x3b3807a2	0.0028080721
63	0x3ae3558c	0.001734422
64	0x3acff093	0.0015864543
65	0x3b02473f	0.0019878892
66	0x3ade27f0	0.0016949158
67	0x3a5fee96	0.0008542327
68	0x3a1598fe	0.00057066965
69	0x3b4bc08b	0.0031090106
70	0x3ae042fc	0.0017109807
71	0x3ac865ad	0.0015289091
72	0x3b39e978	0.0028367918
73	0x3b4e7349	0.003150182
74	0x3b3123bf	0.0027029363
75	0x3b1b19ff	0.0023666618
76	0x3ada5747	0.0016658091
77	0x3a963dd1	0.0011462515
78	0x3b0cf36a	0.002150739
79	0x3accc4d6	0.0015622627
80	0x3a56f39f	0.00081997545
81	0x395c4273	0.00021005589
82	0x3a3573b1	0.00069218414
83	0x3a969b14	0.0011490309
84	0x3abf996d	0.0014617868
85	0x3aab68df	0.0013077519
86	0x3a46c347	0.0007582199
87	0x3a6d0c29	0.00090426445
88	0x394e8e01	0.00019698591
89	0x3b1568c8	0.002279805
90	0x39b04fd5	0.00033628815
91	0x3acae215	0.0015478755
92	0x3b505aa6	0.0031792312
93	0x3aa71631	0.0012747702
94	0x3a9b1e28	0.0011834549
95	0x3b291c65	0.0025804278
96	0x3a87771e	0.0010335182
97	0x3b2a6516	0.0026000193
98	0x3a50ff3d	0.0007972604
99	0x3aeb2d84	0.0017942642

c f4 [100]
0	0x37e9bb9e	2.786313e-05
1	0x3b51a6aa	0.0031990209
2	0x3ae2a93d	0.0017292869
3	0x3af7fd1f	0.001892004
4	0x3b0a3f81	0.002109498
5	0x3b5e026b	0.0033875953
6	0x3b4a0e50	0.0030831285
7	0x3ae5f14e	0.0017543228
8	0x3b4dcaa3	0.0031401298
9	0x3b5e09ca	0.0033880346
10	0x3b69a6b8	0.003565235
11	0x3b74dea2	0.0037364145
12	0x3b4a717d	0.0030890398
13	0x3a439c64	0.00074619637
14	0x39ba7585	0.00035564243
15	0x3a5b1841	0.0008357801
16	0x3b0c9305	0.0021449935
17	0x3b025fbb	0.0019893486
18	0x3a9f1d57	0.0012139481
19	0x3affb243	0.0019508082
20	0x3a9b2dc3	0.00118392
21	0x3b4c924b	0.0031215127
22	0x3b11c203	0.0022240884
23	0x3a9e0fd1	0.0012059157
24	0x3a2deade	0.0006634424
25	0x3b329575	0.0027249728
26	0x3b3d0037	0.002883924
27	0x3a7d8b01	0.0009671897
28	0x3a460b71	0.00075548055
29	0x3b7804af	0.0037844589
30	0x3a518459	0.00079924386
31	0x3b14de52	0.002271552
32	0x3b602a1a	0.0034204782
33	0x3b61e0c7	0.0034466253
34	0x3b71e375	0.0036909257
35	0x3aa1e87e	0.0012352613
36	0x39825681	0.00024859983
37	0x3a683930	0.0008858619
38	0x3ad53f7d	0.0016269531
39	0x385c1bc9	5.2477964e-05
40	0x3b6dbb8f	0.0036275124
41	0x3b5ef7f2	0.0034022299
42	0x3b788eb2	0.003792685
43	0x3b3340b5	0.00273518
44	0x3af7a577	0.0018893917
45	0x39974fc7	0.00028860403
46	0x3ab9bcba	0.0014170625
47	0x3b7a5233	0.0038195967
48	0x3a1b60b7	0.00059271924
49	0x3ac875c7	0.001529389
50	0x3aeba27e	0.0017977504
51	0x3acdd595	0.0015703911
52	0x3b2c527b	0.002629428
53	0x3b7b2527	0.0038321705
54	0x3aa65067	0.0012688757
55	0x3ad28815	0.0016062284
56	0x3b4fd163	0.0031710498
57	0x3b038bf0	0.0020072423
58	0x399436d6	0.00028269616
59	0x3b0c1ec3	0.002138064
60	0x3ac42c5a	0.0014966831
61	0x3a62f24b	0.000865732
62	0x3ae95320	0.0017801262
63	0x3aaafbc6	0.0013045005
64	0x3a40fcd8	0.00073618954
65	0x39c3728f	0.0003727865
66	0x3aa733f1	0.0012756569
67	0x3b07b8d3	0.002070953
68	0x3ae3b43d	0.0017372441
69	0x390efa4a	0.00013635415
70	0x3a924122	0.0011158327
71	0x3abf6fd7	0.0014605474
72	0x3ae2301b	0.0017256768
73	0x3a830ea0	0.0009998865
74	0x3ada8aeb	0.0016673481
75	0x3b46f0b6	0.0030355877
76	0x3b7a4892	0.0038190228
77	0x3b1f4ef3	0.0024308532
78	0x3b7422eb	0.0037252258
79	0x3b630563	0.0034640662
80	0x3b3449c1	0.002750978
81	0x3b0fe1bc	0.0021954617
82	0x3b7945b8	0.003803594
83	0x3ac3c0a8	0.0014934735
84	0x3b01b041	0.0019788893
85	0x3a40a973	0.00073494687
86	0x3b628dec	0.0034569455
87	0x39e6c97a	0.0004401913
88	0x3b0a7d6d	0.0021131888
89	0x3a9d8a54	0.0012019374
90	0x3ab281c0	0.0013618991
91	0x3b3c18cf	0.002870131
92	0x3a185daf	0.00058123
93	0x3b40e09a	0.0029430748
94	0x3b17bd6d	0.0023153678
95	0x3ad64f4d	0.0016350538
96	0x3b795a52	0.003804822
97	0x3a112587	0.0005536903
98	0x3afdc21a	0.0019360215
99	0x3b2f98c5	0.0026793939

q f4 [1, 100]
0	0x3d8030fc	0.06259343
1	0x3dde728d	0.108616926
2	0x3f278cbf	0.65449136
3	0x3f09367f	0.5359878
4	0x3ea5d885	0.32391754
5	0x3f10870b	0.5645606
6	0x3ea9a04c	0.3313011
7	0x3f6b9173	0.9201881
8	0x3f366b55	0.71257526
9	0x3f53f5a8	0.82796717
10	0x3eb24499	0.3481796
11	0x3f0e979d	0.55700094
12	0x3f733b76	0.95012605
13	0x3eac4c03	0.33651742
14	0x3f7bcb81	0.983574
15	0x3f0bbc8d	0.5458458
16	0x3f1870d1	0.59547144
17	0x3f2265cb	0.63436574
18	0x3f539c24	0.82660127
19	0x3d4e151c	0.0503131
20	0x3e1c9dee	0.1529462
21	0x3dc0a586	0.09406571
22	0x3dcb7736	0.09934847
23	0x3f4691ea	0.775664
24	0x3f47b801	0.7801514
25	0x403e47c4	2.9731302
26	0x3c898d61	0.016791048
27	0x3f6be049	0.92139107
28	0x3f61fa1a	0.8827225
29	0x3e385d02	0.1800423
30	0x3f0c9faa	0.5493113
31	0x3f672078	0.9028392
32	0x3e968ab6	0.29402703
33	0x3f390758	0.7227683
34	0x3ace5a00	0.0015743375
35	0x3eee1ae6	0.46504897
36	0x3f43efad	0.7653759
37	0x3e849ebe	0.2590236
38	0x3ed34484	0.4126321
39	0x3ce202c0	0.027589202
40	0x3f3ae797	0.7300963
41	0x3e87be5e	0.26512426
42	0x3f0a30da	0.5398079
43	0x3d561710	0.052268088
44	0x3efed5be	0.49772447
45	0x3e18a3e0	0.14906263
46	0x3c8ba100	0.017044544
47	0x3d6895e0	0.056783557
48	0x3f5d2822	0.8638936
49	0x3d50e8e0	0.051003337
50	0x3ef1d124	0.47229874
51	0x3f4b5e0a	0.7944037
52	0x3f16898f	0.5880365
53	0x3eb43b7a	0.35201627
54	0x3f1a4d43	0.6027414
55	0x3e01fac8	0.12693322
56	0x3f36616d	0.7124241
57	0x3c1d4140	0.009598076
58	0x3c64df40	0.013969243
59	0x3f38f13f	0.7224311
60	0x3f6f7feb	0.9355456
61	0x3f6a7302	0.9158174
62	0x3e64a0c8	0.22326958
63	0x3e4d6bb8	0.20060623
64	0x3dc8bb78	0.09801382
65	0x3f55d83a	0.8353306
66	0x3f3c4ecc	0.73557734
67	0x3ef8903e	0.48547548
68	0x3f5b536c	0.85674167
69	0x3e1a04b0	0.1504085
70	0x3f4ab741	0.79185873
71	0x3ef83412	0.48477226
72	0x3f724c8c	0.9464805
73	0x3ec91470	0.39273405
74	0x3f11817a	0.5683819
75	0x3f0cd39d	0.55010396
76	0x3e6bb744	0.23019129
77	0x3f62a2b4	0.88529515
78	0x3e3419d0	0.17587972
79	0x3d0a48e0	0.033760905
80	0x3f5ff8a2	0.8748876
81	0x3f3e24cd	0.74274904
82	0x3f670140	0.9023628
83	0x3e9df8b4	0.30853808
84	0x3e28abe4	0.16471821
85	0x3f1cfaed	0.6132038
86	0x3e872812	0.2639776
87	0x3f4cceb3	0.800029
88	0x3f0bfeec	0.54685855
89	0x3ef3b5ea	0.47599727
90	0x3f3ee80d	0.7457283
91	0x3f540cd1	0.82832056
92	0x3f56181e	0.8363055
93	0x3efc6cb8	0.49301696
94	0x3ebe918e	0.37220424
95	0x3e1e8a60	0.15482473
96	0x3f22a64f	0.63535017
97	0x3f1cf209	0.61306816
98	0x3f42981f	0.7601337
99	0x3f493e15	0.78610355

z f4 [1, 100]
0	0x3d2fee10	0.042951643
1	0x3f183ad4	0.59464765
2	0x3f7f78eb	0.9979388
3	0x3e8fc12e	0.28077072
4	0x3e833e9c	0.25633705
5	0x3d08e5b0	0.033422172
6	0x3f235a81	0.63809973
7	0x3f541565	0.82845145
8	0x3ec56f04	0.3856126
9	0x3f556032	0.8334991
10	0x3f713b2f	0.9423093
11	0x3ef03b26	0.46920127
12	0x3d711380	0.058856487
13	0x3e5a82f8	0.21339023
14	0x3e5e1350	0.21687055
15	0x3cf3b920	0.02975136
16	0x3eaddd64	0.3395797
17	0x3f2f9cbd	0.6859854
18	0x3e8a0d5e	0.26963323
19	0x3eb29d08	0.3488543
20	0x3e2535ac	0.16133755
21	0x3dada6a0	0.08479047
22	0x3f3395ad	0.7015026
23	0x3f3fa119	0.7485519
24	0x3f0c10b4	0.54712987
25	0x3f562ca7	0.83661884
26	0x3ed6dca6	0.41965216
27	0x3dc50888	0.09620768
28	0x3e8c0378	0.27346396
29	0x3f4b35be	0.7937888
30	0x3f555025	0.83325416
31	0x3ec292f6	0.38002747
32	0x3f4eff4c	0.808583
33	0x3f14f0c1	0.5817986
34	0x3e3fabb4	0.18717843
35	0x3f73eb84	0.95281243
36	0x3f1172f4	0.5681603
37	0x3f2901d1	0.66018397
38	0x3cc70220	0.024293005
39	0x3ebae56c	0.3650316
40	0x3e8a5512	0.27018028
41	0x3f758b8c	0.95916057
42	0x3f3452e9	0.7043901
43	0x3df35310	0.11881077
44	0x3f766e3a	0.9626194
45	0x3f55562a	0.833346
46	0x3f319691	0.6937037
47	0x3f6becd1	0.9215823
48	0x3e2fb2b8	0.1715802
49	0x3f2da215	0.6782544
50	0x3dbe2c60	0.092858076
51	0x3e9eba3e	0.31001467
52	0x3edd0408	0.43167138
53	0x3f35f1e8	0.71072245
54	0x3f3086c9	0.68955666
55	0x3d57bdc0	0.052671194
56	0x3e8394c2	0.2569943
57	0x3d4bdfd0	0.04977399
58	0x3e87de08	0.26536584
59	0x3f4e1be7	0.80511326
60	0x3f18c9d8	0.5968299
61	0x3f28690a	0.65785277
62	0x3ef0eb5a	0.4705456
63	0x3f449ded	0.76803476
64	0x3d9d33f8	0.07675928
65	0x3f2a7421	0.6658345
66	0x3f00ec9e	0.5036105
67	0x3e06b6a0	0.13155603
68	0x3f733586	0.95003545
69	0x3ec8bbf2	0.3920589
70	0x3f6c0320	0.9219227
71	0x3f42e098	0.7612395
72	0x3ed4af9a	0.41540223
73	0x3e7a40e8	0.24438822
74	0x3f4ea8bf	0.80726236
75	0x3f622e5f	0.88352007
76	0x3f576cd1	0.84150416
77	0x3f265d79	0.6498638
78	0x3f52e68c	0.82383037
79	0x3f617e42	0.8808328
80	0x3edec998	0.4351318
81	0x3ebcd2ac	0.3687948
82	0x3c521900	0.012823343
83	0x3f0ac77a	0.5421063
84	0x3e57f934	0.21091157
85	0x3f12f907	0.57411236
86	0x3e03f654	0.12886935
87	0x3f2ab367	0.66679996
88	0x3eaa37be	0.33245653
89	0x3f15106b	0.58228177
90	0x3f109931	0.5648375
91	0x3f6df0ca	0.9294554
92	0x3ef375fc	0.47550952
93	0x3e565874	0.2093218
94	0x3f45b937	0.7723574
95	0x3e90c5f2	0.2827602
96	0x3f09506e	0.5363835
97	0x3e43875c	0.19094604
98	0x3e47b634	0.19503099
99	0x3f39625c	0.7241571
