checkpoints/single-phase/123bus/safe-ddpg copy/safe-flow_policy_net_checkpoint_a3.pth (torch, 3103 bytes, 4 tensors)

b f4 [100]
00000000: b7f9 08b9 b534 08b9 201d 833d 1400 0080
00000010: 0f00 0080 1400 0080 0a00 0080 0e00 0080
00000020: be09 6d3c 6d00 0080 3000 0080 9500 0080
00000030: 3b00 0080 4a00 0080 4600 0080 f303 0080
00000040: 3b59 e43b f405 ce3b 2329 103b 1ebb 0f3b
00000050: c190 053b 2947 5a3b d7d5 5e3b 3420 173a
00000060: bed1 af3a d231 fa3a a121 683a 70ff 653a
00000070: 5e38 c839 f81b d23a 2d61 a73a f346 353a
00000080: 45cd 123a 0fa8 1339 948e bd39 392b b83a
00000090: d769 a939 0c68 2d3a add0 103a 300f fb38
000000a0: 810f 9239 62f5 043b 96bd e33a 9411 073b
000000b0: ce86 113a 4d29 4a3a aca9 ff3a 2c11 013b
000000c0: 3a89 183b 54a3 3139 c019 d53a 0621 0d3b
000000d0: e11f 283a f1e1 b23a 3a29 dd3a bd05 e83a
000000e0: 668c e03a 4a3d 023a bf3d 1b39 39cb 073b
000000f0: c24e 0a3b 7fb9 1b3a 7795 133b 904b 8d3a
00000100: 9eeb ba3a 775c fe3a b3c2 7d3a d994 0239
00000110: af1c 403a 8980 963a 4a00 d93a 909a 1f3b
00000120: 7eda 4e3a 9e02 023b 3a17 ad3a 238a 1a3b
00000130: f012 5e3a a6c9 c63a deff 0f3b 73c0 8a39
00000140: 186c ea38 d2be b83a d03d f638 c17b 063b
00000150: 4c53 083a 829e 8e3a c378 703a e62c 443a
00000160: b4c8 d23a b53a ed3a d601 913a d717 fd3a
00000170: c199 ff3a 72db 1f3b 9c7f 1a39 6609 0b3b
00000180: 6169 b63a 7038 e43a 3a72 d63a 3158 ac3a
-0.00013062997 -0.00012989606 0.064020395 -2.8e-44 -2.1e-44 -2.8e-44 -1.4e-44 -2e-44
0.014467655 -1.53e-43 -6.7e-44 -2.09e-43 -8.3e-44 -1.04e-43 -9.8e-44 -1.417e-42
0.006968645 0.0062873308 0.0021997176 0.00219316 0.002038047 0.0033306575 0.003400197 0.00057649915
0.0013413948 0.0019088334 0.0008855109 0.000877372 0.0003818897 0.0016030064 0.001277005 0.00069151743
0.00056000456 0.00014081619 0.00036155118 0.0014050967 0.0003231305 0.00066149305 0.0005524259 0.000119714416
0.0002785884 0.002028786 0.0017375227 0.0020609843 0.00055513985 0.0007711843 0.0019505522 0.0019694073
0.0023275153 0.0001694088 0.0016258284 0.0021534576 0.0006413442 0.0013647658 0.0016873248 0.0017701905
0.0017131686 0.0004968239 0.00014804954 0.0020720495 0.0021104072 0.0005940422 0.0022519508 0.0010779966
0.0014260893 0.0019406219 0.00096801965 0.00012453216 0.0007328493 0.0011482398 0.0016555872 0.00243536
0.0007890834 0.0019837986 0.0013205775 0.002358087 0.000847145 0.0015166297 0.0021972577 0.00026464797
0.000111781235 0.0014094955 0.000117417076 0.002052054 0.00052004005 0.0010880979 0.00091732683 0.0007483497
0.0016081543 0.0018099161 0.0011063169 0.0019309473 0.0019500778 0.0024392274 0.00014734123 0.0021215319
0.0013916903 0.0017411839 0.0016360946 0.0013148842

c f4 [100]
00000000: 06f3 843b e12b c438 e4a7 683b 2c6e 483a
00000010: ae22 bb3a 571a 2a3b 8cbb 1339 1e60 df39
00000020: c662 cb3a 10b2 3a3b 09e5 ec37 6a41 3e3b
00000030: d448 913a 0eb0 073b 2602 773b 6cfd 223b
00000040: a6bd 6b3a 325b 9f3a f423 ff3a 2714 d23a
00000050: 76da 693b 061c 073b 7f01 833b eb66 303b
00000060: ef67 9538 e577 083b b53d 8e3a cd8a 143a
00000070: f536 a939 32d1 9239 5b2f 7e3b 3a70 0b3b
00000080: b12c 313b 1213 863b 0c35 6c3b efc2 763b
00000090: 860c e23a 542a 823a 6ebf ec39 a2e8 a63a
000000a0: 8b8d 113b a648 183b 5e4e 303b b816 803b
000000b0: e672 e43a 1be6 ba3a 766c 673b 034a ff3a
000000c0: 1c83 6d3b 20c5 983a 42a6 bd39 7a51 4e3b
000000d0: 851b 723b 9008 cf39 f73a 153a dccd 323b
000000e0: 7448 5b3a 9c8f 2c3a d4bd ee3a 7a0f 383a
000000f0: ff24 8f3a 1132 813b b997 873b 344b 2139
00000100: 2c97 603a 073d 7b3b b2a1 123b 4e98 473a
00000110: 8ad1 2b3a d23b fd3a ae99 3f39 7959 ed3a
00000120: 1ae1 473a 0e5d 843b 2203 5e3a 7912 683b
00000130: 4d09 fb3a 0257 c93a 73cc 783b 910d 803b
00000140: 6242 eb3a beaa 3f3b 24b8 073b d1bf 443b
00000150: 6d4d 673b 04c6 6f3b fcf2 d23a 8124 663b
00000160: aa15 853a fea7 503b 103b 283a 54e7 cc3a
00000170: bfcd 3b3a c872 133b eb8f 973a 344b 103b
00000180: d74e 733a 3dbf b83a 5f5d 643b 91a5 8d3a
0.004057291 9.3541814e-05 0.0035500461 0.00076458114 0.0014277303 0.0025955641 0.00014088879 0.00042605487
0.0015517108 0.0028487481 2.8240045e-05 0.002903069 0.0011084327 0.0020704302 0.003769049 0.002487029
0.00089927984 0.0012157916 0.0019465671 0.0016027734 0.0035683191 0.0020616069 0.003997981 0.0026916813
7.124233e-05 0.0020823416 0.001085213 0.0005666435 0.00032275138 0.00028003153 0.003878555 0.002127661
0.0027034695 0.004091629 0.003604236 0.003765281 0.0017246164 0.0009930828 0.00045156054 0.0012734125
0.002220961 0.0023236661 0.002690218 0.0039089583 0.0017429262 0.0014259251 0.003531245 0.0019477013
0.0036241477 0.0011655428 0.0003617276 0.003148167 0.0036942672 0.00039488496 0.00056926854 0.0027283346
0.00083649834 0.0006582679 0.0018214532 0.0007021349 0.001092106 0.003942736 0.00413796 0.00015382172
0.0008567448 0.0038335936 0.002237421 0.0007613943 0.0006554356 0.0019320196 0.0001827243 0.001810833
0.00076247903 0.0040394133 0.0008469095 0.0035411401 0.0019152552 0.0015361013 0.0037963658 0.0039078672
0.0017948861 0.0029246057 0.0020709122 0.0030021558 0.0035293952 0.0036586532 0.0016094144 0.0035116973
0.0010153551 0.0031838412 0.00064174924 0.0015632906 0.00071641424 0.0022498835 0.0011563277 0.002201748
0.00092814624 0.0014095079 0.0034845693 0.0010806789

q f4 [1, 100]
00000000: fcf5 513f 24e3 183f d840 2340 a840 443f
00000010: 1445 353f 8863 443f 7a1e 0c3f e97e 2e3f
00000020: e207 773f 6cb1 1a3f 871e 073d 255e 2b3f
00000030: f0af 9b3e 587c e93e f3e6 dc3e 409c 543f
00000040: 4cef 5c3f b232 533f fc88 783e 20e7 a83e
00000050: 9af1 2a3e 1567 363d cd8a d13d 21b9 633e
00000060: ed95 073f 01c7 5e3f b6a5 f93e 30f7 9d3d
00000070: 2d3e 393f b073 1b3f f0de 9f3d 4703 5d3f
00000080: 188f 0b3f 4c05 7e3e f98c 283f 505c 4a3f
00000090: 9217 8c3e d4ab 6f3f 4025 f13c 8ef5 2b3f
000000a0: 8a22 943e 3c87 783e 1d44 7d3f 4017 ed3e
000000b0: 6cfa 633e c814 053f d4ee e63e f00b 323f
000000c0: f381 633f aca7 5e3f 69df 2c3f effc 043f
000000d0: dec1 b03e d9b6 4f3f 7800 993d e0cb 2a3e
000000e0: c45f 733f ca03 9e3e 608f 373d 7de6 393f
000000f0: 4eea 223f dedd ff3e ad6b 313f 8601 e93e
00000100: ec11 673f 1077 233d 6306 523f 0220 e93e
00000110: 3b6b 683f bda2 393f 8c69 0d3e e48c f13e
00000120: 0202 3f3f 5e4d 603f 40bb ba3e 2db0 1d3f
00000130: 557d 2c3f c65b be3e 6282 3b3f eff5 2f3f
00000140: 5c2a 143e a477 a93e a069 513f 40dd 523c
00000150: dc09 a33e 0087 c73e 842d 103f 25aa 243f
00000160: 80a8 b33e cea8 a23e 4ee1 a03e 5a46 e53e
00000170: 20fa c93d 4e28 0a3f 7817 103e 89d6 3c3f
00000180: 1b89 113f e8c6 5f3f 74ab a23e f621 573f
0.8201597 0.5972159 2.5508327 0.7666116 0.7080853 0.7671437 0.54734004 0.681624
0.96496403 0.60426974 0.032988098 0.6694053 0.30407667 0.4560268 0.4314495 0.8305092
0.8630264 0.8249923 0.24271005 0.32988834 0.16693726 0.0445319 0.10231552 0.2223859
0.52963144 0.87022406 0.4875924 0.07713163 0.723605 0.607234 0.07806194 0.86333126
0.5451522 0.24806708 0.6584011 0.7904711 0.27361733 0.93621564 0.029436707 0.6717156
0.289326 0.24270338 0.9893206 0.463068 0.22263497 0.51984835 0.45104086 0.69549465
0.8887016 0.86974597 0.67528397 0.51948446 0.3452291 0.8113838 0.074707925 0.16679335
0.95068 0.30862266 0.044814467 0.7261732 0.6363877 0.4997396 0.69304925 0.45508975
0.9026172 0.03990847 0.82040995 0.45532233 0.9078862 0.72513944 0.13809794 0.47177804
0.7461244 0.8761805 0.36470985 0.6159695 0.6737874 0.37179393 0.73245823 0.6873464
0.14469284 0.3309909 0.81801796 0.012870133 0.3184346 0.38970184 0.5631945 0.6432212
0.35089493 0.31769413 0.31421894 0.44780236 0.09862161 0.5396775 0.14071453 0.73764855
0.5684983 0.8741288 0.31771433 0.84036195

z f4 [1, 100]
00000000: c438 983e 0270 ba3e ee94 cd3e 983f 983e
00000010: 809d 3d3d 5171 3c3f 9e56 fa3e 1a1a b63e
00000020: ed5f 093f 1c6f 583e efd3 293f d0b7 3b3f
00000030: 1a5b 993e 0cfc 6b3e 2090 953d 4c16 2b3f
00000040: b6ff bb3e 7052 373e 5857 643f 3e77 b03e
00000050: 6220 c53e 468d 2d3f 3841 433e 80fb 673f
00000060: efc1 1a3f 8e67 913e 5ac9 fa3e e18d 673f
00000070: c21d a73e 8af9 1e3f 9037 eb3e a03d 4d3d
00000080: 5ab2 e33e 7dc5 723f 16dc d73e 3e4f c13e
00000090: 7e39 3d3f fe24 7d3f ce5e 4d3f dcf1 903e
000000a0: 5425 633e 707b 693d b925 1e3f cfd9 4d3f
000000b0: b0fa a33d 1ec8 e03e e183 2d3f accd 9f3e
000000c0: 5fa7 593f 083b 923e 3d64 773f af51 023f
000000d0: 3477 0e3f 122b 2c3f 60b7 5c3e 025c 233f
000000e0: 75f2 7b3f 6bd9 2f3f d671 9e3e 08f4 e63e
000000f0: f29f 093f 52e0 923e 0aed de3e a6b9 e83e
00000100: bcee 293e 0840 9c3d f875 013f c85e 7d3e
00000110: 05c9 753f 936c 593f 04f6 263e b08b e13d
00000120: 2c0b 013f d030 863d b2af 5f3f 4c28 4c3e
00000130: 579e 163f a4e2 4f3e 9041 d03e 2457 183f
00000140: 5006 123e d22f 8d3e a089 3d3e 165e 633f
00000150: 0eca 703f 1aa4 e73e 4005 543d 0078 c739
00000160: 4ac3 0e3f 25fa 473f c850 233e c349 2a3f
00000170: 380d da3e 0eb9 923e 0a02 6b3f a0a9 673f
00000180: 840e 443e f8d9 4e3e e015 f23e 3829 dd3d
0.2973081 0.3641358 0.40152687 0.29736018 0.04629278 0.7361041 0.4889421 0.3556679
0.53661996 0.21136135 0.6633901 0.7332735 0.29952317 0.23045367 0.0730288 0.668309
0.3671853 0.17902541 0.89195776 0.34465975 0.3850127 0.6779369 0.19067848 0.90618134
0.6045217 0.28399318 0.48981744 0.90450865 0.3263989 0.62099516 0.45940828 0.0501076
0.4447201 0.94832593 0.421601 0.3775577 0.7391585 0.9888457 0.80222785 0.28309524
0.22182208 0.057002485 0.6177631 0.80410475 0.08006799 0.43902677 0.67779356 0.31211603
0.85021013 0.28560662 0.96637326 0.5090589 0.5565064 0.6725322 0.21554327 0.6381227
0.98416835 0.6869113 0.30946225 0.45108056 0.5375968 0.28686768 0.4354022 0.4545414
0.16594976 0.076294005 0.5057063 0.24743187 0.96009856 0.84931296 0.16304785 0.110129714
0.5040767 0.06552279 0.87377465 0.19937247 0.5883536 0.203013 0.4067502 0.59507966
0.1426022 0.27575547 0.18509531 0.8881544 0.9405831 0.45242387 0.05176282 0.00038045645
0.5576674 0.78116065 0.15948784 0.665188 0.4258821 0.2865681 0.91799986 0.904932
0.19146162 0.20200336 0.47282314 0.107988775
