checkpoints/single-phase/123bus/safe-ddpg copy/value_net_checkpoint_a7.pth (torch, 44119 bytes, 5 tensors)

linear1.weight f4 [100, 2]
0.86764 -0.38462317 -0.25425574 -0.23918235 0.8557581 0.1059901 -0.47991696 0.04753119
-0.60356706 0.4691602 -0.5967868 -0.47383392 0.80652934 -0.532392 -0.075129315 0.6936368
-0.6175834 -0.30134085 -0.16540308 0.40430018 -0.61692387 -0.52350855 0.64874595 -0.17779593
-0.1901429 -0.5777147 -0.35396314 -0.5326085 0.29211846 -0.22109999 0.7951769 -0.30187374
-0.7418199 0.10168407 -0.28719494 -0.86754143 0.4102988 -0.995655 0.75424546 0.4475114
0.56330997 -0.50546175 0.9678882 0.1894037 -0.32781819 0.32239455 -0.31236276 -0.44713613
1.0477067 0.30412665 0.46570757 -0.7906685 0.3576934 0.23398176 1.0206139 0.58880085
-0.6710511 -0.23357202 0.18802805 -0.20947017 1.0833961 0.076297864 0.6346427 -0.944436
-0.2616803 0.80453783 1.1579269 0.2523184 -0.44880077 0.68445075 -0.7249646 -0.15129425
1.0456277 0.44731417 0.117083125 -1.2455606 -0.19006224 0.9552064 -0.36188883 0.8259347
0.75167316 0.30361435 -0.4901025 -0.019341778 -0.51468164 -0.6660455 0.32233936 0.06622895
0.8033214 0.20184234 -0.55070037 -1.1047404 0.7335863 0.5307174 1.079339 0.32304052
0.80889714 -0.76389736 0.49334082 -0.3478431 -0.18529683 0.74027985 0.3610561 -0.73714924
-0.4923954 1.0871723 -0.4704669 0.44745293 1.0944327 -0.71105903 -0.2527517 0.008984781
1.150181 -0.4785925 -0.0785712 -0.38784337 -0.33929172 -0.17766346 0.78633434 -0.6493795
-0.62562656 0.14701048 0.32772413 -0.2966561 -0.12064518 -0.44463214 -0.36903054 0.4879199
-0.55029476 0.47706485 0.30454206 0.094820485 -0.6032797 0.49066475 0.14388065 -0.01260646
1.0545202 0.11764087 0.5368043 0.41003594 0.7583902 -0.27647984 1.1897852 -0.3957519
-0.4467491 -0.23313756 -0.5846058 -0.061767083 0.3430271 0.35009325 -0.61055726 -0.21699464
0.11676642 -0.051647276 -0.32009533 0.48889688 0.54807097 -0.63122904 -0.4409491 -0.18711182
0.77606475 0.47237313 -0.18463303 -0.2691095 -0.29331604 -0.038345437 0.74328643 0.05654098
-0.5453768 0.1370876 -0.6426106 0.5105265 1.1994064 0.05102993 0.8865372 0.4125515
1.2319169 -0.10261577 -0.5031723 1.1240379 1.0849246 0.561227 0.22897191 -0.5044624
0.978931 0.25644556 0.47258347 0.3164213 -0.37664056 0.8405376 0.84445137 0.29903892
0.30696064 0.061068337 1.0667531 -0.047459017 -0.123304516 -0.9232785 -0.079028524 -1.09847
00000000: a81d 5e3f 54ed c4be cf2d 82be 38ec 74be
00000010: f612 5b3f 5611 d93d adb7 f5be 11b0 423d
00000020: 5f83 1abf c435 f03e 05c7 18bf 5c9a f2be
00000030: b578 4e3f d84a 08bf 66dd 99bd 2e92 313f
00000040: f219 1ebf 5949 9abe 6d5f 29be 6f00 cf3e
00000050: b9ee 1dbf a804 06bf 3714 263f 2310 36be
00000060: d2b4 42be 1ce5 13bf a83a b5be 0859 08bf
00000070: 8d90 953e 0968 62be b790 4b3f 328f 9abe
00000080: e9e7 3dbf bd3f d03d 370b 93be 3217 5ebf
00000090: af12 d23e 3fe3 7ebf 3b16 413f 3720 e53e
000000a0: 1535 103f f165 01bf 85c7 773f 0bf3 413e
000000b0: c9d7 a7be e610 a53e 03ee 9fbe 07ef e4be
000000c0: 411b 863f 7db6 9b3e 3971 ee3e 4069 4abf
000000d0: 9723 b73e ea98 6f3e 7aa3 823f a7bb 163f
000000e0: 01ca 2bbf 812d 6fbe 6d8a 403e 597f 56be
000000f0: b9ac 8a3f 0e42 9c3d f277 223f 8fc6 71bf
00000100: f6fa 85be 31f6 4d3f f336 943f e12f 813e
00000110: 37c9 e5be 2a38 2f3f 4897 39bf e1ec 1abe
00000120: 21d7 853f 5d06 e53e 47c9 ef3d 886e 9fbf
00000130: ad9f 42be 6888 743f 7e49 b9be 7570 533f
00000140: a76d 403f 5773 9b3e b7ee fabe a672 9ebc
00000150: 2dc2 03bf f581 2abf aa09 a53e 0ba3 873d
00000160: 79a6 4d3f c2af 4e3e b3fa 0cbf 2268 8dbf
00000170: 50cc 3b3f 18dd 073f c827 8a3f 9165 a53e
00000180: e213 4f3f c78e 43bf 2b97 fc3e 7e18 b2be
00000190: 74be 3dbe fb82 3d3f 58dc b83e d0b5 3cbf
000001a0: 401b fcbe 7628 8b3f 0ae1 f0be 8d18 e53e
000001b0: 5f16 8c3f f707 36bf ac68 81be e734 133c
000001c0: 2239 933f 130a f5be f0e9 a0bd 6893 c6be
000001d0: a5b7 adbe 69ed 35be 354d 493f bc3d 26bf
000001e0: 1029 20bf ea89 163e 75cb a73e 4fe3 97be
000001f0: d214 f7bd d3a6 e3be 92f1 bcbe a3d0 f93e
00000200: 1ee0 0cbf d841 f43e f0ec 9b3e 3e31 c23d
00000210: 8a70 1abf 6938 fb3e 7355 133e 538b 4ebc
00000220: 85fa 863f b2ed f03d 026c 093f 3bf0 d13e
00000230: dc25 423f c48e 8dbe e24a 983f fe9f cabe
00000240: 4cbc e4be 9dbb 6ebe baa8 15bf 7bff 7cbd
00000250: 40a1 af3e 6c3f b33e 7b4d 1cbf d833 5ebe
00000260: 3c23 ef3d 188c 53bd 89e3 a3be b150 fa3e
00000270: 614e 0c3f 3a98 21bf 15c4 e1be 3e9a 3fbe
00000280: 2eac 463f e4da f13e 7110 3dbe b8c8 89be
00000290: 852d 96be 1b10 1dbd 0548 3e3f 8497 673d
000002a0: d09d 0bbf b160 0c3e 2182 24bf ddb1 023f
000002b0: 2686 993f c304 513d 1af4 623f f339 d33e
000002c0: 74af 9d3f 3828 d2bd e6cf 00bf 79e0 8f3f
000002d0: cfde 8a3f 93ac 0f3f 9d77 6a3e 7324 01bf
000002e0: 399b 7a3f d54c 833e 76f6 f13e f901 a23e
000002f0: 08d7 c0be 792d 573f f72d 583f a11b 993e
00000300: f229 9d3e cb22 7a3d 5e8b 883f 6364 42bd
00000310: 1487 fcbd fb5b 6cbf b5d9 a1bd aa9a 8cbf

linear1.bias f4 [100]
-0.10913637 -0.23118407 -0.20952551 0.032407556 1.0507798 -0.14659989 -0.47860765 -0.6950085
0.14349155 0.8564988 -0.32017848 0.028685275 0.7343923 -0.48820278 0.06274491 0.16601536
1.0054327 1.0042123 -0.15687189 0.42529324 0.5574046 -0.4326422 -0.3762348 0.64884883
-0.059086367 0.29358813 0.5000109 -0.42573076 -0.62951064 -0.4717855 -0.6812862 -0.3639568
0.28932896 0.11168172 0.520419 0.9512984 0.029175667 -0.09645368 0.19241554 0.40580156
0.17590088 0.16951647 1.0356961 0.33900487 -0.27688855 0.70324236 -0.048330087 -0.35459033
-0.022972124 0.22303578 -0.6262459 0.4486082 0.5571598 0.88226956 -0.46096078 -0.06197947
-0.026655307 0.8253071 -0.3668541 0.5568285 -0.69397527 0.3509287 -0.55387324 -0.509101
0.986671 0.121809386 -0.5692319 -0.5536608 -0.0494032 0.38248518 0.12944087 -0.43243477
-0.662608 0.98669356 -0.7230712 -0.51221335 0.7665768 -0.23401897 0.18528324 1.0257349
0.35844126 -0.31308863 0.9513592 0.3900362 -0.6626147 -0.6047533 -0.22682008 -0.2777949
-0.7083319 0.5698566 -0.14394405 0.22038887 0.37803304 0.29057795 0.42203948 -0.15653025
-0.50288403 -0.5482919 0.84938407 0.13751979
00000000: e482 dfbd 84bb 6cbe db8d 56be c9bd 043d
00000010: f47f 863f 481e 16be 100c f5be 14ec 31bf
00000020: 73ef 123e 8143 5b3f 6fee a3be 62fd ea3c
00000030: 2201 3c3f b7f5 f9be 6780 803d eeff 293e
00000040: 05b2 803f 078a 803f 06a3 20be 09c0 d93e
00000050: 11b2 0e3f 4783 ddbe d9a1 c0be f51a 263f
00000060: 8c04 72bd 2f51 963e b700 003f 62f9 d9be
00000070: 9c27 21bf de8d f1be c668 2ebf 8c58 babe
00000080: ed22 943e 63b9 e43d 2e3a 053f 4b88 733f
00000090: cf01 ef3c 8289 c5bd 9408 453e 39c5 cf3e
000000a0: 5c1f 343e ba95 2d3e b191 843f 0c92 ad3e
000000b0: 56c4 8dbe b107 343f c5f5 45bd dd8c b5be
000000c0: 0930 bcbc 7e63 643e a751 20bf f9af e53e
000000d0: 06a2 0e3f 6bdc 613f 0d03 ecbe 2fde 7dbd
000000e0: 3b5c dabc 5347 533f 4dd4 bbbe 508c 0e3f
000000f0: 5da8 31bf edac b33e a3ca 0dbf 7154 02bf
00000100: 7896 7c3f 3377 f93d 2fb9 11bf b7bc 0dbf
00000110: 035b 4abd 19d5 c33e 268c 043e 1768 ddbe
00000120: aea0 29bf f397 7c3f 321b 39bf 6a20 03bf
00000130: 613e 443f aba2 6fbe e4ba 3d3e 484b 833f
00000140: 9d85 b73e 274d a0be 478c 733f d3b2 c73e
00000150: 1ea1 29bf 1dd1 1abf 8643 68be 223b 8ebe
00000160: 3d55 35bf 1fe2 113f 1266 13be 9fad 613e
00000170: 8c8d c13e a2c6 943e 8f15 d83e 7749 20be
00000180: 02bd 00bf dc5c 0cbf 3c71 593f fdd1 0c3e

linear2.weight f4 [100, 100]
0.06241436 -0.053461503 -0.03894217 0.071119644 0.0702809 -0.07842264 0.029653443 0.080669425
0.08242939 0.0035756112 -0.09312194 0.036745954 -0.048998427 -0.038004924 -0.06324571 -0.025800323
0.021272982 0.08472415 -0.0193573 0.08911512 -0.09104685 0.057498183 -0.04845977 -0.0054688216
0.07513068 -0.037994266 0.007143629 -0.073480904 -0.05485746 0.019196892 0.017727245 -0.099254504
-0.08483187 -0.08165425 -0.03924476 -0.011272371 0.019094814 -0.03383397 0.085462175 -0.00039479733
0.033375073 -0.09274601 0.099842094 -0.01445427 -0.05620364 -0.06805798 -0.021162748 0.03373865
-0.06678017 0.058408942 0.03275006 -0.08342643 -0.0737825 -0.02603711 -0.06492608 -0.003630066
-0.006627083 -0.02640735 -0.013028133 -0.07432049 -0.077755295 0.043675493 0.03285805 0.07681712
-0.071819365 0.028586352 0.08435754 0.05316181 -0.048675813 -0.047251116 0.031244874 -0.07199798
-0.027526153 -0.043477964 0.04883195 -0.032083906 0.017295076 -0.06320895 -0.084085025 -0.06720554
-0.047577526 0.023748029 -0.037867248 -0.00489012 -0.03245282 0.06294324 0.038342357 -0.037592042
0.017405642 -0.046690762 0.0008089781 -0.08468685 -0.030459141 -0.06242157 0.06728945 -0.09954339
-0.06236718 0.06719168 0.05169462 0.03984909 0.33169344 0.08784326 0.5924711 0.017013287
-1.0629485 -0.037780415 0.9361473 -0.27470466 -0.07654639 -0.31617194 -0.068884626 0.2983794
-0.32292867 0.09170914 0.17498578 0.2195926 -1.5609963 -0.28217787 0.49960598 0.18341282
-0.0020612907 0.76056933 -0.015593099 -1.2278912 0.47197646 0.023300925 -0.040244207 0.80364025
-0.0101632 0.06409991 1.0436414 0.5815989 -0.7983135 0.3179382 -0.99684983 -1.3723307
0.36871868 -0.57111496 -0.6720546 -0.940615 0.2704581 -0.058224298 -0.59797865 0.001384493
0.69239146 -1.1902363 0.34030235 0.67780185 0.29443684 0.17565219 -0.4444416 0.09517903
-0.93235 -1.091689 0.5813811 0.04349519 0.31182504 -0.066885136 -0.05237284 0.10373172
0.03747945 0.112739496 0.08252561 0.044580366 -1.0679364 0.09982497 0.09505802 0.08379825
0.3241469 0.20103975 0.2871725 0.6368464 0.026648557 -0.6898854 -0.3258844 0.038158
0.024209587 -0.02635877 0.15673076 -0.49608198 0.109052286 0.04880619 -0.22616753 0.08961299
-0.038362633 0.009764254 0.55271137 0.6082243 0.81944317 -0.83243 0.52632743 0.039025806
0.22017728 0.16972221 -0.8933931 0.44494498 0.024835467 0.703495 -0.12936155 -0.85990405
0.31853312 -0.044726253 0.53791076 0.040176343 -1.122175 -0.08525973 0.9085817 -0.34062758
0.025217438 -0.18609364 -0.019165492 0.29049575 -0.20238985 0.08372468 0.22035332 0.19757248
-1.5564036 -0.22474426 0.41896346 0.09796651 0.050539535 0.69626194 0.08380472 -1.1256537
0.33803564 0.19488099 0.11087263 0.6512621 0.010895634 -0.06150968 1.1235301 0.6103102
-0.83847356 0.36201432 -0.9605126 -1.281459 0.3061719 -0.49314344 -0.521497 -0.98001534
0.31003273 -0.06216215 -0.6172714 -0.016138665 0.5268965 -1.299603 0.41356784 0.6607809
0.30750728 0.24964395 -0.31981155 0.11254773 -0.8993019 -0.94924504 0.5202735 -0.037444618
00000000: 33a6 7f3d 73fa 5abd d381 1fbd 2da7 913d
00000010: 6fef 8f3d 0d9c a0bd c7eb f23c 0336 a53d
00000020: bdd0 a83d cd54 6a3b b7b6 bebd ed82 163d
00000030: 93b2 48bd 0dab 1bbd f886 81bd 335b d3bc
00000040: ad44 ae3c db83 ad3d 3393 9ebc fd81 b63d
00000050: c576 babd 3783 6b3d c07d 46bd cd33 b3bb
00000060: 1dde 993d e09f 1bbd 1a15 ea3b 287d 96bd
00000070: 37b2 60bd cd42 9d3c ba38 913c f245 cbbd
00000080: 55bc adbd 583a a7bd 1dbf 20bd c0af 38bc
00000090: ba6c 9c3c 7d95 0abd cb06 af3d cdfc ceb9
000000a0: 4db4 083d 9ff1 bdbd 037a cc3d 9ad1 6cbc
000000b0: ca35 66bd fb61 8bbd 805d adbc 8a31 0a3d
000000c0: 0bc4 88bd 373e 6f3d ed24 063d 7adb aabd
000000d0: 481b 97bd c74b d5bc f7f7 84bd 67e6 6dbb
000000e0: 0028 d9bb 3a54 d8bc f373 55bc 5735 98bd
000000f0: 2b3e 9fbd 13e5 323d 2a96 063d 4b52 9d3d
00000100: 0816 93bd ed2d ea3c a5c3 ac3d 33c0 593d
00000110: 4a60 47bd 638a 41bd 40f5 ff3c ad73 93bd
00000120: 877e e1bc f315 32bd 0304 483d 6a6a 03bd
00000130: 67ae 8d3c b273 81bd c534 acbd 0fa3 89bd
00000140: a7e0 42bd 3a8b c23c b01a 1bbd 4d3d a0bb
00000150: 40ed 04bd 63e8 803d e00c 1d3d 1dfa 19bd
00000160: 4796 8e3c d03e 3fbd 9a11 543a 4d70 adbd
00000170: 7385 f9bc c3ad 7fbd 0dcf 893d 68dd cbbd
00000180: ba74 7fbd cb9b 893d bdbd 533d cd38 233d
00000190: b9d3 a93e 2be7 b33d 30ac 173f 735f 8b3c
000001a0: b20e 88bf a3bf 1abd 59a7 6f3f 17a6 8cbe
000001b0: 5bc4 9cbd 4ae1 a1be 6213 8dbd 2fc5 983e
000001c0: e856 a5be 00d2 bb3d 792f 333e e2dc 603e
000001d0: bace c7bf 9e79 90be 5bcc ff3e 92d0 3b3e
000001e0: b816 07bb acb4 423f 337a 7fbc 8a2b 9dbf
000001f0: e6a6 f13e 95e1 be3c 1cd7 24bd 5ebb 4d3f
00000200: 8d83 26bc d046 833d 0b96 853f aae3 143f
00000210: 465e 4cbf ccc8 a23e 8d31 7fbf 88a8 afbf
00000220: b2c8 bc3e 9734 12bf c50b 2cbf 25cc 70bf
00000230: 7c79 8a3e 9a7c 6ebd 2115 19bf e077 b53a
00000240: 9140 313f aa59 98bf 1c3c ae3e 6c84 2d3f
00000250: 6dc0 963e 2bde 333e d98d e3be 39ed c23d
00000260: 7dae 6ebf 77bc 8bbf 64d5 143f 0328 323d
00000270: 88a7 9f3e 13fb 88bd e784 56bd 4c71 d43d
00000280: 0d84 193d f7e3 e63d 3003 a93d e799 363d
00000290: 24b2 88bf 0971 cc3d c7ad c23d 6b9e ab3d
000002a0: 95f6 a53e 5ddd 4d3e 4608 933e 5e08 233f
000002b0: 134e da3c 549c 30bf 52da a6be 904b 1c3d
000002c0: 2f53 c63c 59ee d7bc 077e 203e 75fe fdbe
000002d0: ce56 df3d 00e9 473d 7698 67be 0487 b73d
000002e0: 2322 1dbd 40fa 1f3c 7e7e 0d3f 96b4 1b3f
000002f0: 07c7 513f 221a 55bf 65bd 063f 86d9 1f3d
00000300: 2776 613e a9cb 2d3e 69b5 64bf d4cf e33e
00000310: c073 cb3c 4018 343f 5b77 04be ac22 5cbf
00000320: c616 a33e e032 37bd 85b4 093f f38f 243d
00000330: 6ea3 8fbf a79c aebd cf98 683f bd66 aebe
00000340: cd94 ce3c 558f 3ebe f300 9dbc dcbb 943e
00000350: 493f 4fbe d877 ab3d 4da4 613e 7150 4a3e
00000360: 3c38 c7bf 5c23 66be 6182 d63e aaa2 c83d
00000370: 8b02 4f3d 393e 323f cfa1 ab3d 6c15 90bf
00000380: 0213 ad3e e28e 473e 3011 e33d 1db9 263f
00000390: 9a83 323c 93f1 7bbd d6cf 8f3f 4a3d 1c3f
000003a0: 34a6 56bf f159 b93e 27e4 75bf d906 a4bf
000003b0: 90c2 9c3e 4c7d fcbe d480 05bf 49e2 7abf
000003c0: 9cbc 9e3e bd9d 7ebd 8005 1ebf 3c35 84bc
000003d0: b0e2 063f 6459 a6bf 2abf d33e f028 293f
000003e0: 9871 9d3e aaa2 7f3e 57be a3be 6d7f e63d
000003f0: a638 66bf b901 73bf a530 053f 875f 19bd

linear2.bias f4 [100]
0.060390115 -0.18462664 -0.22395386 -0.03109918 -0.03282879 0.06186197 -0.050944008 -0.067871936
-0.06366398 -0.10787844 -0.09461049 -0.05110514 -0.09676618 -0.03950685 -0.11228228 0.35037762
0.0693738 -0.085465066 -0.059126843 -0.09995536 -0.05383578 -0.18180166 -0.022852074 -0.09012147
0.077381514 -0.17910242 -0.07514875 0.48251516 0.0203066 -0.13473746 -0.1754746 -0.09509814
-0.08083656 -0.012662304 -0.089912474 -0.14979787 -0.21410456 -0.23209362 0.055969156 -0.026783634
-0.17564109 -0.19263308 -0.085483596 -0.05881528 -0.09362243 -0.0053372267 -0.11448032 -0.04829928
-0.20692185 0.0027961016 0.017579293 -0.039657664 -0.13400386 -0.062501 -0.06692396 -0.13389693
-0.07093766 -0.16945176 -0.19520046 -0.09164183 -0.08290221 -0.11681485 0.008001459 -0.18655206
-0.085419774 -0.14649758 -0.20627241 -0.17687623 0.0006790161 -0.21744485 0.035322238 -0.08889553
-0.072494745 -0.10610857 -0.12841362 -0.16410112 -0.18763664 -0.090131916 -0.090181135 -0.12082644
-0.03830169 0.028890384 -0.14434727 -0.06502565 -0.21518502 -0.014575148 -0.04645833 -0.15895902
-0.029790258 -0.1907786 -0.15988061 -0.0806128 0.0713691 -0.12268178 -0.15564613 -0.050253388
-0.061024964 -0.16852301 -0.09077053 -0.11991801
00000000: a05b 773d c40e 3dbe 2954 65be b5c3 febc
00000010: 7b77 06bd fa62 7d3d aaaa 50bd 7100 8bbd
00000020: 4362 82bd 5fef dcbd 25c3 c1bd a053 51bd
00000030: 592d c6bd efd1 21bd 41f4 e5bd b264 b33e
00000040: da13 8e3d 4f08 afbd fd2e 72bd 65b5 ccbd
00000050: e882 5cbd 372a 3abe 4634 bbbc 9b91 b8bd
00000060: 337a 9e3d a066 37be 96e7 99bd 3a0c f73e
00000070: 075a a63c 9ef8 09be 9daf 33be d0c2 c2bd
00000080: a38d a5bd 8d75 4fbc 0824 b8bd 9d64 19be
00000090: 3a3e 5bbe f3a9 6dbe ea3f 653d 5a69 dbbc
000000a0: 42db 33be 9b41 45be 0612 afbd 4be8 70bd
000000b0: 1ebd bfbd e7e3 aebb a874 eabd 77d5 45bd
000000c0: 52e3 53be cd3e 373b 7302 903c 1370 22bd
000000d0: 4f38 09be 8600 80bd 6e0f 89bd 471c 09be
000000e0: c447 91bd c384 2dbe a1e2 47be b6ae bbbd
000000f0: a2c8 a9bd a03c efbd 8d18 033c 8107 3fbe
00000100: 90f0 aebd 7603 16be 1339 53be 0b1f 35be
00000110: 0000 323a dda9 5ebe 0dae 103d dc0e b6bd
00000120: 2078 94bd 734f d9bd dc7e 03be 200a 28be
00000130: d223 40be 1597 b8bd e3b0 b8bd da73 f7bd
00000140: 3ce2 1cbd 87ab ec3c c5cf 13be 2b2c 85bd
00000150: 7659 5cbe 9acc 6ebc 174b 3ebd 27c6 22be
00000160: b30a f4bc 775b 43be beb7 23be 5318 a5bd
00000170: f629 923d 9640 fbbd b361 1fbe 7fd6 4dbd
00000180: 50f5 79bd 4c91 2cbe e6e5 b9bd 9397 f5bd

linear3.weight f4 [1, 100]
-0.0027636187 -0.73619914 -0.7225743 -0.6533286 -0.6955994 -0.0016585833 -0.7105068 -0.70508
-0.6539656 -0.73016757 -0.625115 0.002096721 -0.7235738 -0.7207882 -0.68743664 2.0022707
-0.0021821386 -0.7386541 -0.00020166958 -0.67965555 -0.6971788 -0.7261911 -0.00012171095 -0.6617358
0.0007916618 -0.6776646 -0.69554406 1.8662732 -0.0028143718 -0.7337525 -0.6854509 -0.67477953
-0.6909874 0.0018407583 6.565082e-05 -0.66639113 -0.76347405 -0.8151012 -0.00059348025 -0.67403746
-0.69535834 -0.7371812 -0.72219133 -0.23146223 -0.6609103 0.002148701 -0.7122683 -3.2882093e-05
-0.69955885 0.0008136903 -0.00020151187 -0.0019081836 -0.71428746 -0.70948756 -0.6311048 -0.6985455
-0.634093 -0.7227097 -0.730074 -0.7280379 -0.70375526 -0.7020152 0.0021562246 -0.6729918
0.0009287027 -0.69032484 -0.71637017 -0.6658417 0.002080596 -0.73698974 0.0007478027 -0.6446834
-0.7272166 -0.7628941 -0.74789476 -0.674219 -0.6950828 -0.72740716 -0.701636 -0.74298084
-0.6611807 -0.0010133886 -0.68563604 -0.70990855 -0.74763536 -0.0028541205 -0.00018900275 -0.7471413
-0.7241685 -0.6925051 -0.7350742 -0.0029234658 -0.010001945 -0.74648446 -0.7295451 0.0029320822
-0.70245737 -0.7288168 -0.69156766 -0.6897767
00000000: d41d 35bb 8c77 3cbf a1fa 38bf 8b40 27bf
00000010: cd12 32bf d264 d9ba c6e3 35bf 1f80 34bf
00000020: 4a6a 27bf 43ec 3abf 8907 20bf 2469 093b
00000030: 223c 39bf 9385 38bf d9fb 2fbf 3425 0040
00000040: 3602 0fbb 6f18 3dbf 4477 53b9 e8fd 2dbf
00000050: 4f7a 32bf a9e7 39bf 123f ffb8 8467 29bf
00000060: 8687 4f3a 6d7b 2dbf 2d0f 32bf 0ae2 ee3f
00000070: 5371 38bb 34d7 3bbf b679 2fbf 5abe 2cbf
00000080: 8de4 30bf 9945 f13a 04ae 8938 9c98 2abf
00000090: 0973 43bf 79aa 50bf c993 1bba b88d 2cbf
000000a0: 0103 32bf e8b7 3cbf 88e1 38bf 6f04 6dbe
000000b0: 6b31 29bf 39d1 0c3b 3757 36bf e1ea 09b8
000000c0: 4a16 33bf d54d 553a ee4c 53b9 041c faba
000000d0: 8bdb 36bf faa0 35bf 1690 21bf e1d3 32bf
000000e0: eb53 22bf 8103 39bf 21e6 3abf b160 3abf
000000f0: 4e29 34bf 45b7 33bf 724f 0d3b 3149 2cbf
00000100: 2f74 733a 21b9 30bf 0964 37bf 9a74 2abf
00000110: 9c5a 083b 5cab 3cbf 3108 443a f909 25bf
00000120: de2a 3abf 074d 43bf 0876 3fbf 9e99 2cbf
00000130: f2f0 31bf 5b37 3abf 6b9e 33bf fe33 3ebf
00000140: 2343 29bf aed3 84ba d885 2fbf 91bc 35bf
00000150: 0865 3fbf 320c 3bbb 0a2f 46b9 a744 3fbf
00000160: 1b63 39bf 0448 31bf d32d 3cbf 9e97 3fbb
00000170: 33df 23bc 9b19 3fbf 78c3 3abf 2d28 403b
00000180: 3fd4 33bf bd93 3abf 940a 31bf 3595 30bf
