checkpoints/single-phase/123bus/safe-ddpg copy/value_net_checkpoint_a5.pth (torch, 44119 bytes, 5 tensors)

linear1.weight f4 [100, 2]
-0.47438186 0.8398246 -0.14760572 0.27650666 -0.28562817 0.8972249 -0.79907805 0.5596408
-0.27468404 -0.83686846 0.9060413 0.08389328 -0.3137844 -0.0021009361 0.13269454 -0.72910184
-0.28039894 0.25422287 -0.7515959 0.50445515 0.6026786 -0.24229634 0.15410551 1.4246752
-0.4155938 1.0570345 -0.46038073 -0.54906243 0.1698121 0.22294974 -0.62846553 0.27776483
0.7507115 -0.31974065 0.42199782 -0.21167222 -0.0007368112 -0.19532333 0.0048209867 0.38359517
0.721674 0.22025135 -0.25810823 -0.6341889 0.26920608 -0.15652041 -0.50457096 -0.05923984
1.1641136 -0.56395537 -0.09000552 0.050389 0.72134733 0.3727478 -0.8724173 -0.0446164
-0.67448956 0.22490038 -0.3639211 1.3772432 -0.019005483 -0.99785477 0.91493917 -0.040199265
0.07352626 -0.5086895 0.76995444 0.0052979705 -0.27691895 -0.69284165 1.1073688 -0.5944978
-0.20047216 -0.93410707 1.0817931 0.44776988 0.6615563 0.537806 -0.529372 0.41387638
-0.613551 0.9614836 -0.5884532 0.5209297 1.0952626 0.021145778 -0.25990513 1.0821246
0.8168057 0.8166739 0.7439398 0.23445752 0.66618705 0.16100134 -0.013116099 0.15621367
0.8262253 0.21100843 1.245105 0.28284597 1.2275335 -0.5502345 -0.35433576 0.54085094
1.0439202 -0.34922266 -0.48763254 -0.63184845 0.20084457 0.049038194 0.51726115 -0.35560578
1.1359867 0.6180255 0.34382233 0.37117755 -0.47989506 0.044806484 -0.83273774 0.17947151
-0.3258958 -0.484935 0.9589059 -0.06411652 0.8435546 -0.19301037 -0.647494 -0.21142645
0.8275493 -0.07759224 -0.058969017 -0.7905739 1.1069739 0.11766124 -0.8504202 -0.33072522
0.9273068 -0.057677258 0.65088433 -0.31736803 0.86939406 0.57984644 -0.33174634 0.020056335
0.7426094 -0.10108131 0.7955104 -0.114578106 1.1550192 0.3864775 0.31990832 -0.132535
0.74638885 0.04217691 0.5863058 -0.47293955 -0.00091263576 -0.58242387 -0.6621035 -0.7802461
-0.25055474 0.16704735 -0.27409008 1.2053512 1.0104719 -0.3525653 -0.30537137 -0.26626045
0.8742527 0.37477922 -0.46076593 -0.8849137 -0.6052776 0.10191959 -0.10964446 1.3369738
-0.3994474 0.13236825 1.2002922 0.33909804 -0.6592272 -0.6371774 0.9126279 0.6479636
0.9117443 -0.26305526 1.1033812 -0.10523875 -0.57783407 0.07989584 0.68441707 -0.32403794
0.22542673 1.1633024 -0.33204865 1.4045293 1.1578933 -0.5761429 0.78443366 0.052986164
00000000: 2ee2 f2be bffe 563f f425 17be 4892 8d3e
00000010: db3d 92be 88b0 653f 6190 4cbf 9f44 0f3f
00000020: 63a3 8cbe 033d 56bf 53f2 673f 3dd0 ab3d
00000030: 59a8 a0be dcaf 09bb 14e1 073e 6ba6 3abf
00000040: 7390 8fbe 8029 823e 9768 40bf f923 013f
00000050: 2549 1a3f 881c 78be d6cd 1d3e c25b b63f
00000060: b6c8 d4be e84c 873f 06b7 ebbe 5b8f 0cbf
00000070: 39e3 2d3e f04c 643e 1ee3 20bf 3137 8e3e
00000080: a12e 403f 0cb5 a3be 1910 d83e 9ac0 58be
00000090: 9026 41ba d702 48be 5ef9 9d3b 9666 c43e
000000a0: a1bf 383f 9289 613e c326 84be 345a 22bf
000000b0: 61d5 893e e346 20be 902b 01bf 79a5 72bd
000000c0: ad01 953f 615f 10bf d054 b8bd b264 4e3d
000000d0: 38aa 383f cdd8 be3e bd56 5fbf b0bf 36bd
000000e0: 59ab 2cbf 494c 663e de53 babe 8149 b03f
000000f0: 63b1 9bbc 6973 7fbf 7439 6a3f fca7 24bd
00000100: f094 963d 7a39 02bf bc1b 453f 999a ad3b
00000110: 52c8 8dbe 125e 31bf 43be 8d3f 0231 18bf
00000120: 9348 4dbe a421 6fbf 3278 8a3f 1842 e53e
00000130: c15b 293f a7ad 093f ec84 07bf 9be7 d33e
00000140: ae11 1dbf ca23 763f dea4 16bf a65b 053f
00000150: 9131 8c3f e939 ad3c 4912 85be 0f83 8a3f
00000160: 2e1a 513f 8a11 513f d772 3e3f a215 703e
00000170: 3c8b 2a3f 89dd 243e e8e4 56bc 7af6 1f3e
00000180: 8083 533f 9812 583e 9a5f 9f3f 30d1 903e
00000190: d11f 9d3f 2bdc 0cbf 7f6b b5be 3575 0a3f
000001a0: 2d9f 853f 50cd b2be f9aa f9be d2c0 21bf
000001b0: 33aa 4d3e 46dc 483d 3a6b 043f f611 b6be
000001c0: 0368 913f eb36 1e3f 7b09 b03e fc0a be3e
000001d0: ceb4 f5be 0187 373d 4d2e 55bf 61c7 373e
000001e0: d0db a6be 6649 f8be db7a 753f 864f 83bd
000001f0: 32f3 573f 83a4 45be 2bc2 25bf 2d80 58be
00000200: 45da 533f aee8 9ebd 7f89 71bd 0d63 4abf
00000210: 52b1 8d3f 60f8 f03d 23b5 59bf d154 a9be
00000220: fa63 6d3f fd3e 6cbd 5ba0 263f 107e a2be
00000230: 9c90 5e3f d170 143f a8da a9be 2f4d a43c
00000240: a61b 3e3f b803 cfbd 92a6 4b3f eda7 eabd
00000250: abd7 933f 61e0 c53e 06cb a33e 41b7 07be
00000260: 5713 3f3f b2c1 2c3d 2318 163f 2225 f2be
00000270: f33d 6fba bb19 15bf 9d7f 29bf 35be 47bf
00000280: b648 80be 760e 2b3e 8955 8cbe f348 9a3f
00000290: 2557 813f 7083 b4be a359 9cbe 4a53 88be
000002a0: 06cf 5f3f 10e3 bf3e 83e9 ebbe b489 62bf
000002b0: 79f3 1abf 38bb d03d 468d e0bd f521 ab3f
000002c0: 5f84 ccbe 8b8b 073e 2da3 993f 429e ad3e
000002d0: 1dc3 28bf 0f1e 23bf fba1 693f f1e0 253f
000002e0: 1368 693f 2eaf 86be 983b 8d3f 6a87 d7bd
000002f0: efec 13bf 6ea0 a33d f535 2f3f 4de8 a5be
00000300: 44d6 663e 18e7 943f 4802 aabe 9ec7 b33f
00000310: d935 943f 1a7e 13bf a5d0 483f 0508 593d

linear1.bias f4 [100]
0.7757688 -0.17038518 0.31418157 1.0679144 0.80683583 0.3585055 -0.51760787 0.37600592
-0.09379764 0.9950996 0.47975984 -0.21162441 0.75015384 0.7671292 -0.49199945 0.04587246
0.21274601 -0.047068473 -0.33669338 -0.46248823 0.14006458 0.48401105 -0.53136706 0.33041155
0.07507026 -0.3336922 0.14312917 1.0418537 0.36199775 0.39484915 0.06280471 -0.074201785
-0.15253446 0.5006928 -0.60659605 0.5066568 0.9983277 -0.14887826 0.41762182 0.72506773
0.96601593 0.80154705 0.104758695 0.27433065 0.56173974 0.47350585 0.32271716 -0.45379695
-0.2804529 -0.61844414 -0.49741477 -0.017545309 0.14169718 -0.3381381 -0.6999321 -0.15473107
-0.32478666 0.6638661 0.19340312 1.1189554 -0.23728147 0.20670547 -0.28598753 -0.6186019
0.17099065 0.60707206 0.4029968 1.1165036 -0.074339606 0.26384148 -0.039511427 -0.021468677
-0.3667537 -0.39927933 -0.36551178 0.49678838 0.22075474 -0.086299196 0.45016718 1.1123399
-0.44189125 0.28969535 -0.50944936 -0.4823768 -0.18053104 0.8986221 -0.6782641 0.09837938
-0.34258333 -0.7281707 -0.45221975 -0.28905934 -0.00031871113 -0.35947642 0.35483566 -0.20163456
-0.42364427 0.35291472 0.3661592 0.543714
00000000: c998 463f 7479 2ebe 68dc a03e 6bb1 883f
00000010: cb8c 4e3f 088e b73e f381 04bf d983 c03e
00000020: fa18 c0bd d9be 7e3f 15a3 f53e 12b4 58be
00000030: 150a 403f 9462 443f 5ae7 fbbe c3e4 3b3d
00000040: 17da 593e dfca 40bd 1363 acbe 42cb ecbe
00000050: 176d 0f3e 4cd0 f73e ac07 08bf b42b a93e
00000060: 70be 993d b4d9 aabe 7490 123e 765b 853f
00000070: c557 b93e ab29 ca3e c19f 803d 1bf7 97bd
00000080: fe31 1cbe 672d 003f e149 1bbf 43b4 013f
00000090: 6792 7f3f 8b73 18be 87d2 d53e 0a9e 393f
000000a0: d24c 773f 3032 4d3f ba8b d63d 1175 8c3e
000000b0: 2dce 0f3f 5c6f f23e 2f3b a53e 1358 e8be
000000c0: 8697 8fbe 5b52 1ebf 26ad febe 2ebb 8fbc
000000d0: 1119 113e 7020 adbe c02e 33bf d271 1ebe
000000e0: 704a a6be 21f3 293f 780b 463e ee39 8f3f
000000f0: eaf9 72be 99aa 533e f56c 92be b25c 1ebf
00000100: 2c18 2f3e 1369 1b3f 9955 ce3e 97e9 8e3f
00000110: 5d3f 98bd 3b16 873e bcd6 21bd 14df afbc
00000120: 24c7 bbbe 576e ccbe 5c24 bbbe 0c5b fe3e
00000130: 880d 623e a2bd b0bd 507c e63e 2761 8e3f
00000140: 923f e2be f352 943e 466b 02bf 18fa f6be
00000150: 21dd 38be 190c 663f b7a2 2dbf 217b c93d
00000160: 1567 afbe 6569 3abf 5989 e7be 96ff 93be
00000170: af18 a7b9 4b0d b8be 05ad b53e 4a79 4ebe
00000180: e7e7 d8be 3db1 b43e 3879 bb3e d730 0b3f

linear2.weight f4 [100, 100]
0.007723482 -0.09099572 -0.080094434 -0.10079132 -0.057103656 -0.025228286 -0.033217203 0.032093164
-0.026314354 -0.09437048 -0.0075523695 0.015453591 0.06800996 0.03935763 -0.002324295 -0.0477875
0.054839533 -0.008333003 -0.035584714 -0.028272366 0.083787166 0.019005347 -0.058862653 -0.0013529182
-0.07820596 -0.05478183 -0.00904997 -0.10835389 -0.08677899 0.06590666 -0.036367774 0.058829743
-0.096723 0.012646105 0.053103603 -0.101309545 -0.015981898 -0.076883346 0.004286944 0.09082923
-0.05016535 -0.0815003 0.005998272 -0.023670245 0.06418396 0.0008143027 -0.08824006 0.03417194
0.07284487 -0.045190237 -0.01003131 0.019620968 0.043169547 0.046881355 -0.06765944 0.07262558
-0.025814347 -0.03260573 0.07370482 0.05297883 0.007938826 0.02361728 0.007398338 -0.038276087
-0.0298578 0.034721386 0.020621238 0.009158551 -0.03289508 -0.0010762915 -0.014865807 0.06765547
0.057902656 -0.092213824 0.017324397 0.09301762 0.029206049 0.01664217 -0.007386862 -0.098430246
-0.031219555 0.06551063 0.03252923 -0.03436872 -0.08407804 -0.026763204 -0.021950675 -0.044781223
-0.0762844 -0.049869087 -0.08205153 0.09586643 0.04573165 0.025432201 -0.07811973 -0.09701305
-0.09789073 -0.1037768 -0.09431911 -0.0013928928 0.052215315 0.04447335 0.05126928 0.023780657
0.033222426 -0.08598655 -0.013799262 0.0220873 0.024070418 -0.067228355 -0.04209887 0.045955956
-0.068874374 0.026364481 0.08616953 0.08698821 -0.0027147413 -0.006376779 0.016152143 -0.0992036
-0.08054489 0.081597365 0.09483721 0.034462143 -0.037205435 -0.031703006 -0.016948177 0.009263706
0.0632033 -0.023363246 0.07746507 0.067151986 -0.0009051323 -0.038108457 0.028235853 0.08255247
-0.07394034 -0.075114146 -0.09643852 -0.09374046 0.090426914 0.039854396 -0.015257609 0.05576216
0.018131196 -0.076503925 0.049675085 -0.08069122 0.07471063 0.09889803 -0.08087959 0.080754116
0.073552124 0.046388973 -0.072268955 -0.059123863 -0.012226057 -0.091752484 -0.025890863 -0.041354775
0.050043534 -0.023315681 -0.06831902 -0.09930737 -0.015699375 0.09461268 0.078316115 -0.08945999
-0.016642809 -0.07858755 -0.030430472 0.05757444 0.073749416 0.05067401 0.08669424 -0.018271698
0.08820782 0.057646085 -0.010321582 -0.07607919 -0.075263515 0.04147284 0.06508865 -0.09492519
-0.008665479 -0.06729621 -0.041977156 -0.02114582 0.08422009 -0.006529653 -0.07258959 -0.043773413
0.004825175 0.0876257 0.07588053 -0.081657134 -0.007468331 0.08624965 0.0052382587 -0.022961129
-0.8980231 0.019892503 -0.96788746 -1.1653271 -0.2718378 0.21961735 0.089239195 0.0674136
-0.004194641 -1.0280198 0.12758586 -0.62077475 -1.0429131 -0.93581605 0.06460103 -0.09195627
0.27608904 0.32275623 -0.05493735 0.09614471 0.25524196 -0.6719658 -0.08144609 0.054872382
0.32596585 0.043212343 0.2647981 -1.6386994 0.09626865 -0.9237599 -0.6890498 0.3702193
-0.47512475 0.26523146 0.016129244 0.21879424 -0.2853887 0.4290681 0.22779037 -1.2733098
-1.017007 -1.1771852 0.2849474 -1.0069022 0.25906584 0.29133803 0.22855794 -0.06548499
0.54139996 0.8822677 0.620629 -0.12626678 0.30600628 -0.052590024 -0.06469666 0.5321671
00000000: 4315 fd3b f75b babd 8d08 a4bd ae6b cebd
00000010: 86e5 69bd 8dab cebc c30e 08bd 1f74 033d
00000020: 3391 d7bc 4f45 c1bd de79 f7bb 0f31 7d3c
00000030: ce48 8b3d 7735 213d 3353 18bb d3bc 43bd
00000040: 6b9f 603d 2687 08bc 47c1 11bd 739b e7bc
00000050: 9b98 ab3d 1ab1 9b3c f719 71bd 6754 b1ba
00000060: 722a a0bd ea62 60bd 5346 14bc a5e8 ddbd
00000070: 2fb9 b1bd 12fa 863d 60f6 14bd 75f7 703d
00000080: b516 c6bd 9c31 4f3c 2a83 593d 617b cfbd
00000090: 78ec 82bc 0475 9dbd 7e79 8c3b ad04 ba3d
000000a0: 2f7a 4dbd a1e9 a6bd 278d c43b 1ae8 c1bc
000000b0: e172 833d ee76 553a 34b7 b4bd e0f7 0b3d
000000c0: b12f 953d 6619 39bd 5d5a 24bc 27bc a03c
000000d0: 8dd2 303d aa06 403d 0891 8abd b8bc 943d
000000e0: 9c78 d3bc 968d 05bd 8df2 963d 5400 593d
000000f0: da11 023c 0779 c13c c26d f23b 63c7 1cbd
00000100: 5898 f4bc 0338 0e3d dfed a83c bf0d 163c
00000110: febc 06bd 5a12 8dba b78f 73bc f38e 8a3d
00000120: 562b 6d3d 9ada bcbd e5eb 8d3c 0680 be3d
00000130: 8641 ef3c 2955 883c 7d0d f2bb cc95 c9bd
00000140: 27c0 ffbc 702a 863d 5f3d 053d 37c6 0cbd
00000150: 1c31 acbd 823e dbbc e7d1 b3bc 846c 37bd
00000160: ff3a 9cbd 8743 4cbd a20a a8bd 9e55 c43d
00000170: 1c51 3b3d 3157 d03c 3dfd 9fbd c7ae c6bd
00000180: ef7a c8bd ee88 d4bd 612a c1bd ba91 b6ba
00000190: badf 553d b029 363d bdff 513d a7cf c23c
000001a0: 3d14 083d b719 b0bd 4d16 62bc 6df0 b43c
000001b0: 532f c53c 05af 89bd dd6f 2cbd 503c 3c3d
000001c0: 020e 8dbd 53fa d73c a779 b03d e026 b23d
000001d0: cde9 31bb 4df4 d0bb 8051 843c 422b cbbd
000001e0: b8f4 a4bd 851c a73d 033a c23d 2d28 0d3d
000001f0: ba64 18bd 03db 01bd e7d6 8abc cdc6 173c
00000200: bb70 813d 4764 bfbc 02a6 9e3d fb86 893d
00000210: 6746 6dba 9d17 1cbd e04e e73c 4511 a93d
00000220: 086e 97bd 72d5 99bd 8f81 c5bd 00fb bfbd
00000230: bf31 b93d 5d3e 233d 0dfb 79bc dd66 643d
00000240: e087 943c 17ae 9cbd 1a78 4b3d 7041 a5bd
00000250: e301 993d 0d8b ca3d 33a4 a5bd 6a62 a53d
00000260: 7fa2 963d 5d02 3e3d bf01 94bd dd2b 72bd
00000270: cd4f 48bc bae8 bbbd 1319 d4bc a063 29bd
00000280: 73fa 4c3d 8700 bfbc d8ea 8bbd aa61 cbbd
00000290: fa9b 80bc 4bc4 c13d 3364 a03d cd36 b7bd
000002a0: 8056 88bc 82f2 a0bd 5349 f9bc 2dd3 6b3d
000002b0: ef09 973d 8d8f 4f3d c08c b13d 87ae 95bc
000002c0: 4da6 b43d 4d1e 6c3d da1b 29bc 68cf 9bbd
000002d0: c223 9abd 6ddf 293d 334d 853d 2368 c2bd
000002e0: a7f9 0dbc 98d2 89bd 3df0 2bbd 003a adbc
000002f0: 957b ac3d b3f6 d5bb daa9 94bd c04b 33bd
00000300: 801c 9e3b 1a75 b33d 4067 9b3d db3b a7bd
00000310: e7b8 f4bb a8a3 b03d b3a5 ab3b fa18 bcbc
00000320: d8e4 65bf 9af5 a23c 79c7 77bf 7029 95bf
00000330: 532e 8bbe 5fe3 603e 0ac3 b63d 2410 8a3d
00000340: 3373 89bb 2796 83bf dea5 023e 18eb 1ebf
00000350: 2d7e 85bf a491 6fbf 8b4d 843d 9253 bcbd
00000360: 8b5b 8d3e 4e40 a53e fd05 61bd 85e7 c43d
00000370: 13af 823e f305 2cbf 35cd a6bd ddc1 603d
00000380: ffe4 a63e 6dff 303d 9e93 873e e7c0 d1bf
00000390: 7f28 c53d 877b 6cbf 9165 30bf 628d bd3e
000003a0: 8d43 f3be 6bcc 873e 7a21 843c 990b 603e
000003b0: 781e 92be d0ae db3e e141 693e d1fb a2bf
000003c0: 492d 82bf 01ae 96bf a0e4 913e 2ce2 80bf
000003d0: 47a4 843e 422a 953e 180b 6a3e ff1c 86bd
000003e0: 3099 0a3f 4cdc 613f 8be1 1e3f 144c 01be
000003f0: dbac 9c3e a368 57bd af7f 84bd 1a3c 083f

linear2.bias f4 [100]
0.061452363 -0.0965054 -0.12470826 -0.15539174 -0.08470138 -0.021879971 0.058888532 -0.088126674
-0.093185626 0.057577778 0.11556288 -0.012361909 -0.07745908 0.0034095393 0.024919534 -0.083748415
-0.01861233 -0.016990956 -0.11247964 -0.08634799 -0.11386245 -0.06506883 -0.09620954 -0.04430596
0.06833192 -0.09220401 -0.13315414 -0.003318872 -0.15823026 -0.037881877 -0.04284085 0.5115042
-0.15806739 0.08531084 -0.09970863 0.08095533 -0.12804887 -0.09817878 -0.07678457 0.08658802
-0.06191678 0.027984906 0.0042799 -0.046987116 -0.06874626 -0.048695814 -0.06034747 -0.025694603
0.42183107 -0.1133577 -0.04261738 -0.047893073 -0.14670375 -0.16747154 0.043889392 0.06802439
-0.021981414 0.061466537 -0.11751882 0.008585939 -0.09642879 -0.09144713 -0.037598304 -0.00433532
-0.17137276 -0.0757602 0.0484087 -0.121044785 -0.10112248 -0.0211562 -0.08594672 -0.018559335
0.24178575 0.04955405 -0.1051835 -0.104039766 -0.11205599 -0.07783819 -0.07252093 0.08211189
-0.16505994 -0.09399468 -0.1258621 -0.18421187 -0.075532086 0.0696084 -0.01624594 -0.051914506
-0.095535316 0.0062237293 -0.09925487 -0.11187402 -0.056142963 -0.16361782 -0.019407082 0.09269793
-0.1335823 0.0010946536 -0.0382422 -0.026588157
00000000: 79b5 7b3d a0a4 c5bd 0b67 ffbd 031f 1fbe
00000010: eb77 adbd a03d b3bc 1a35 713d c27b b4bd
00000020: 1bd8 bebd add6 6b3d 3bac ec3d 9b89 4abc
00000030: dea2 9ebd 9472 5f3b 0d24 cc3c 4a84 abbd
00000040: e378 98bc 9e30 8bbc ba5b e6bd 37d7 b0bd
00000050: b730 e9bd cf42 85bd 8209 c5bd 2b7a 35bd
00000060: 9bf1 8b3d 75d5 bcbd 8f59 08be 6f81 59bb
00000070: 1d07 22be 072a 1bbd e379 2fbd f0f1 023f
00000080: 6bdc 21be 73b7 ae3d 0a34 ccbd e8cb a53d
00000090: 3e1f 03be f511 c9bd 3b41 9dbd 0f55 b13d
000000a0: 739c 7dbd 9a40 e53c 673e 8c3b 9075 40bd
000000b0: d7ca 8cbd 4375 47bd e92e 77bd 7d7d d2bc
000000c0: 3efa d73e 1528 e8bd 908f 2ebd 872b 44bd
000000d0: 8239 16be a97d 2bbe 5dc5 333d 5f50 8b3d
000000e0: 5e12 b4bc 56c4 7b3d b5ad f0bd 0aac 0c3c
000000f0: 757c c5bd a248 bbbd ae00 1abd 4d0f 8ebb
00000100: 577c 2fbe 2a28 9bbd 3348 463d 54e6 f7bd
00000110: 4e19 cfbd c44f adbc d504 b0bd bf09 98bc
00000120: af96 773e 30f9 4a3d 726a d7bd cd12 d5bd
00000130: 9c7d e5bd a169 9fbd da85 94bd 472a a83d
00000140: 7905 29be 4880 c0bd ffe1 00be 09a2 3cbe
00000150: 91b0 9abd d98e 8e3d 3516 85bc 4ea4 54bd
00000160: 05a8 c3bd 6df0 cb3b 2346 cbbd 351e e5bd
00000170: 2af6 65bd 6e8b 27be 9afb 9ebc 6ad8 bd3d
00000180: ccc9 08be 7b7a 8f3a daa3 1cbd 68cf d9bc

linear3.weight f4 [1, 100]
-0.009847866 0.0029783507 -0.68183905 -0.65179396 -0.0006772367 0.002243264 -0.0004536953 -0.62903464
-0.60528296 0.00023473799 1.2060903 0.0004432888 -0.6502151 -0.6524129 -0.0022805196 -0.62303567
-0.6154725 -0.63718593 -0.62048 0.0013548571 -0.66822255 -0.68731004 0.004837303 -0.6983871
-0.00076575886 -0.0009929878 -0.6972295 -0.6540702 -0.63365614 -0.0010704056 -0.00041719436 1.6158154
-0.6189709 -0.0029605844 -0.6559352 -0.0004321972 -0.67129403 0.0021418447 -0.64644474 0.0014510885
-0.0012664758 -0.001551493 -0.0022927073 -0.00067597034 -0.6723602 -0.0028844648 -0.5993329 -0.6521644
1.5679296 -0.6321444 -0.656696 0.0027890855 -0.6340532 -0.6672758 0.0025411253 -0.0007701104
-0.64589614 -0.0012884223 -0.6346438 -0.7294591 -0.0038113806 -0.0027912268 -0.6225367 -0.00218172
-0.67802477 -0.64639664 -0.00042054427 -0.6958531 -0.63136756 -0.67851245 -0.7134923 -0.65355927
1.5158734 -0.0014363205 -0.6350236 -0.6471554 -0.67233926 -0.6984065 -0.64581084 -0.0026007597
-0.67890006 0.0022894174 -0.6428848 -0.6640181 -0.635041 0.001610609 -0.6696963 -0.6502856
-0.6766548 -0.6728245 -0.64797395 -0.61853385 -3.9535404e-05 -0.6835186 -0.00037252056 -0.00063964893
-0.66670275 -0.65047145 -0.6542855 -0.0005567391
00000000: f258 21bc 6f30 433b 018d 2ebf f8db 26bf
00000010: 9688 31ba ba03 133b f4dd edb9 6a08 21bf
00000020: d3f3 1abf 0024 7639 2b61 9a3f 3769 e839
00000030: 7f74 26bf 8804 27bf c574 15bb 447f 1fbf
00000040: 9b8f 1dbf 9e1e 23bf c7d7 1ebf 7695 b13a
00000050: a210 2bbf 8df3 2fbf 3d82 9e3b 7fc9 32bf
00000060: 35bd 48ba 2427 82ba a27d 32bf 2571 27bf
00000070: 4a37 22bf da4c 8cba e1ba dab9 0ad3 ce3f
00000080: e074 1ebf 5d06 42bb 5feb 27bf 8798 e2b9
00000090: edd9 2bbf 315e 0c3b 677d 25bf 7332 be3a
000000a0: e0ff a5ba 775b cbba 3f41 16bb 9a33 31ba
000000b0: cc1f 2cbf 4a09 3dbb e26d 19bf 3ff4 26bf
000000c0: ebb1 c83f 37d4 21bf 3b1d 28bf 17c9 363b
000000d0: 4f51 22bf 96d2 2abf 0289 263b 3ce1 49ba
000000e0: 7359 25bf 47e0 a8ba 0478 22bf d5bd 3abf
000000f0: 5bc8 79bb 04ed 36bb 915e 1fbf 30fb 0ebb
00000100: 0893 2dbf 407a 25bf 7f7c dcb9 6e23 32bf
00000110: 4ea1 21bf feb2 2dbf 6ea7 36bf a94f 27bf
00000120: 2408 c23f eb42 bcba e890 22bf faab 25bf
00000130: 6d1e 2cbf c5ca 32bf dc53 25bf 8271 2abb
00000140: 65cc 2dbf 0d0a 163b 1994 24bf 17fd 29bf
00000150: 0c92 22bf 121b d33a 3771 2bbf 1e79 26bf
00000160: 4039 2dbf 3a3e 2cbf 9fe1 25bf 3c58 1ebf
00000170: d1d2 25b8 13fb 2ebf dd4e c3b9 1dae 27ba
00000180: 08ad 2abf 4c85 26bf 417f 27bf 21f2 11ba
