checkpoints/single-phase/123bus/safe-ddpg copy/value_net_checkpoint_a12.pth (torch, 44119 bytes, 5 tensors)

linear1.weight f4 [100, 2]
000000 2a bb 83 3f 28 b4 81 bf 2a 01 2f be d6 06 36 bf
       1.0291493 -1.0133104 -0.17090288 -0.7110418
000010 c3 e7 1d 3e 98 fb bc 3f e0 28 b2 be ee 0c 66 3f
       0.15420441 1.476428 -0.3479681 0.8986348
000020 53 f3 49 3f 3a 97 6a 3f 94 e2 7b 3f ba 63 03 bc
       0.7888691 0.91637003 0.98392606 -0.008019382
000030 44 cc 21 3d d4 59 37 bd 25 7e 8c 3f ab 05 5c 3e
       0.039501444 -0.0447634 1.0975996 0.21486537
000040 78 c3 1a 3f ea 3c 2f bf cd bf 08 3f ab df 68 bf
       0.6045451 -0.6845232 0.53417665 -0.9096629
000050 51 34 0e bf 1b cf 36 3f 20 c6 6d 3f 45 11 af bd
       -0.5554858 0.7140977 0.9288044 -0.08548216
000060 78 88 0f bf 57 f4 31 3f ba 74 2c 3f 8a 98 77 be
       -0.5606761 0.6951346 0.6736561 -0.24179283
000070 2d cc ae be a5 d8 06 bf 17 74 26 3f 54 02 41 bf
       -0.3414015 -0.52674323 0.6502089 -0.7539418
000080 19 cf 17 bd 09 1a b6 3f 76 e4 8d 3f c7 ed d6 3e
       -0.037062738 1.4226695 1.1085346 0.41978285
000090 24 e6 8d 3f a0 f3 4b be b0 c0 7c 3f 7a 02 82 3f
       1.1085858 -0.19917154 0.9873152 1.0157006
0000a0 8d ff 55 3f 88 49 24 bf 50 6d 75 3f a8 7f 3b bf
       0.83593065 -0.641747 0.9586992 -0.7324166
0000b0 8e ce 4a 3f ae ca 64 3e b1 2f 0c bf d9 1e 7a bf
       0.7922143 0.22342941 -0.5476027 -0.9770332
0000c0 a3 a7 20 bf 73 eb 8d 3f ab 8e 89 3f 8c 2f b7 3d
       -0.62755793 1.1087478 1.0746664 0.08944616
0000d0 55 6e 04 3f 12 35 5b be 64 87 07 bf d6 29 7b 3f
       0.51730853 -0.21406963 -0.52940965 0.9811071
0000e0 54 20 c6 be 79 8e 95 3c d5 dc d2 3c a6 8e fc be
       -0.3869654 0.018256413 0.025740067 -0.49327582
0000f0 64 cf bd be 76 3a 41 3f 0c 49 d2 be 74 4d 9d 3f
       -0.3707229 0.7547983 -0.41071355 1.2289262
000100 b1 6e f9 be 30 bf 14 3d 7a d3 88 3f b5 f0 32 3e
       -0.48717263 0.036315143 1.0689538 0.17474635
000110 cd 0d 75 3f 27 30 b7 be ad e1 0c 3f f6 45 f1 3d
       0.95724183 -0.35778925 0.55031854 0.11780922
000120 e3 f5 40 bf a5 c4 93 3f 94 af f5 3d dd 4e 97 bf
       -0.75375193 1.1544386 0.119963795 -1.1820942
000130 13 58 81 3e 54 51 3d bf c0 6f d1 be 7f 47 59 bf
       0.25262508 -0.7395222 -0.4090557 -0.8487472
000140 5c d4 4e bf 2f b5 b7 3e f6 ea d5 be 3a 02 5c 3f
       -0.80792785 0.3588042 -0.41780823 0.859409
000150 bf 65 1a bc ef 6b 5a 3f 07 70 f0 ba c8 8e 6b bf
       -0.009423672 0.85320944 -0.0018343934 -0.9201474
000160 b6 03 ad 3d c1 7e d5 be 55 08 21 3f 5a 54 80 3f
       0.084479734 -0.41698268 0.6290334 1.0025742
000170 bb c5 36 3e 41 73 11 3f 8f aa bb 3e 8f 66 09 3e
       0.17848866 0.5681649 0.36653563 0.13418029
000180 e7 56 89 3f 46 e0 8f bc 8b c4 83 3f a1 7c c8 be
       1.0729645 -0.017562997 1.0294355 -0.39157584
000190 76 cf a9 3e 6b 5d c6 3f b9 ab 3a 3f c8 62 46 bf
       0.33166093 1.5497259 0.7291828 -0.7749448
0001a0 db 4c 4a 3f 04 5b 4e 3d 17 f8 2f bd 51 b8 a3 bf
       0.7902352 0.050379768 -0.042961206 -1.2790624
0001b0 62 fb 0e bf 00 08 a7 3f 19 7f 1d 3f 97 00 0b bf
       -0.5585233 1.3049316 0.6152206 -0.54297775
0001c0 bb f7 52 3f b2 1a 8d be 1b 25 e4 be 8f 7d 6b bf
       0.82409257 -0.2755943 -0.4455956 -0.9198846
0001d0 f1 13 33 3f b2 00 81 be db e8 a3 be b1 aa 8c bf
       0.69952303 -0.25195843 -0.32013592 -1.0989591
0001e0 82 bf 64 bf 29 81 2d 3f 82 0a ea bd b4 95 c1 3f
       -0.8935472 0.6777521 -0.114277855 1.5123811
0001f0 dc 7e fd be 81 ee 93 3f 9f 1b 28 3f d6 07 5a bf
       -0.4951085 1.1557161 0.65667146 -0.85168207
000200 15 7c 49 bf 73 ae 4d 3f 6f c8 21 3f 3a 24 46 bd
       -0.7870496 0.80344313 0.6319646 -0.048374392
000210 0f 8d 32 3f 69 a8 83 bf ff 9e 58 3e a8 5c 04 3e
       0.6974649 -1.028577 0.21154402 0.1292597
000220 65 ff c6 3e 79 62 98 3f cc ce 0a 3f 0a b2 57 bf
       0.38866726 1.1905051 0.54221797 -0.8425604
000230 25 a3 1b bf f0 42 86 3f 95 a3 3a 3e 50 7a 30 be
       -0.60795814 1.0489178 0.18226464 -0.17234159
000240 f4 f4 2a 3f d8 8a 2c be 26 a6 78 3f 23 46 29 bf
       0.6678002 -0.1684984 0.9712852 -0.66122645
000250 c8 ed 17 bf 94 d0 88 3f b9 0f 24 bf b8 5f 98 3f
       -0.593472 1.0688653 -0.6408649 1.1904211
000260 cc 13 43 3f b1 28 4d bf 7b b9 79 3e 96 6c 82 3f
       0.7620208 -0.80140215 0.24387161 1.0189388
000270 5d a6 c5 3e 60 1c 52 bf cc b5 19 3f ae f1 42 3f
       0.38603488 -0.82074547 0.60043025 0.76150024
000280 29 5c 3d bb e7 54 51 bf b3 29 0f bd 72 60 91 3a
       -0.0028894043 -0.81770176 -0.034951877 0.0011091365
000290 73 4f b8 3e e0 f3 3a bf 86 9e 18 be da 7d 05 3e
       0.35998115 -0.73028374 -0.14904222 0.1303629
0002a0 b4 37 41 3f 5e b1 b0 3d ae 1e b8 bc b8 98 1f be
       0.7547562 0.0862758 -0.022475567 -0.15585601
0002b0 5f f2 85 3f b5 5a 6e be b4 b8 27 3f 75 94 ac bb
       1.0464591 -0.2327679 0.6551621 -0.005266721
0002c0 76 9f 73 3f d8 9c 6d 3e 88 ce 97 be 6f 5c c7 3f
       0.95165193 0.23204362 -0.29649758 1.5575083
0002d0 4f c8 05 bf e9 d8 98 3f 0d 93 0e be 73 9c 9d bc
       -0.5225877 1.1941196 -0.13923283 -0.01923964
0002e0 7c 64 2c 3f 47 ea 46 bf ad e1 5f 3f ed 7e b0 be
       0.67340827 -0.7770123 0.8745373 -0.34471837
0002f0 24 0c 59 be 82 e1 2d bf c5 f0 fe be 0c ef 7a 3f
       -0.21196038 -0.6792222 -0.49793068 0.98021007
000300 92 16 f8 be c0 a8 80 3f fe c5 78 3f 7b 4a 5a bf
       -0.4845472 1.0051498 0.9717711 -0.852699
000310 1f fb 23 bf ed 7d 29 3e a9 d5 90 3f f4 43 b7 3e
       -0.64055055 0.16551943 1.1315204 0.35794032

linear1.bias f4 [100]
000000 81 2c ce be 48 97 b0 bd f7 19 74 bd 2a 7c 97 be
       -0.4026833 -0.086226046 -0.059595075 -0.29586917
000010 57 51 90 be e7 53 b5 bd 2d 58 c7 be ed 52 70 bf
       -0.28187057 -0.08853894 -0.3893446 -0.93876535
000020 c3 0b 85 3e 40 09 88 be 8f 6a 58 3f 62 1d dd bd
       0.25985536 -0.26569557 0.84537596 -0.1079662
000030 a4 c7 5c 3f 2d c4 c1 3d c2 c8 c1 be c1 ce 09 bf
       0.8624213 0.09461246 -0.3784848 -0.53831106
000040 cd 42 c9 3d bc 59 9a 3e 72 90 4f 3e 8f fb 10 bf
       0.09827194 0.30146587 0.20269945 -0.5663385
000050 f2 51 15 bf 7f 84 b4 3d eb c9 d6 be 87 cb 74 3f
       -0.58328164 0.08814334 -0.41950926 0.9562306
000060 b0 08 5c 3f 89 6a 15 be 31 16 76 bd e7 32 86 3e
       0.85950756 -0.14591421 -0.060079757 0.2621071
000070 73 26 52 3d ad 8c 8f bd 0e f7 ed 3e 2b d6 7c 3e
       0.0513062 -0.07009254 0.4647755 0.24691074
000080 4e 7f 90 3f d2 9c 68 be 0a e2 0d bc b7 4d 88 bc
       1.128885 -0.22716072 -0.008659849 -0.01663862
000090 ef 16 8d 3f 11 6a 42 3e 5c 53 0f be d0 a9 45 3f
       1.1022624 0.18985774 -0.13996643 0.7721224
0000a0 41 cf 9a 3f c6 5d 41 3e da cb 85 bd 92 18 00 3f
       1.2094499 0.18883428 -0.06533022 0.5003749
0000b0 1a b1 68 be 14 b9 9d be 0d 81 4c be 5b 67 13 3f
       -0.22723809 -0.30805266 -0.19971104 0.5757958
0000c0 b4 c5 d6 be 7d 7e 8d be 63 c1 e0 bd 63 c4 19 bf
       -0.4194771 -0.27635565 -0.109743856 -0.6006529
0000d0 e8 83 1c bf 32 a3 cd 3e a3 c3 0b 3f e7 1a 0d bf
       -0.6113877 0.4016357 0.5459539 -0.55119175
0000e0 48 79 ae 3d d3 57 50 3f bd 98 f2 3e e7 ba 2f 3f
       0.08519226 0.8138401 0.47382155 0.68644565
0000f0 83 6b a8 3f 0b 7d 1f be 9b 4d e0 bc 3e eb f6 be
       1.315781 -0.15575044 -0.027380755 -0.4822635
000100 1a c8 97 3f fc 3a 9f 3e 93 b3 9f be 9e 8c 11 3f
       1.1857941 0.3109969 -0.31191692 0.5685519
000110 0e 8a 8d bd 98 79 77 3e 05 d9 83 3e c7 b9 1a 3f
       -0.069110975 0.24167478 0.2575151 0.60439724
000120 5a e5 0f be fc 62 73 3d ab 18 2f 3e 59 33 59 3f
       -0.14052334 0.05942057 0.17099254 0.84843975
000130 b1 5f 21 bf 51 7b 16 3c 2e d3 87 be 9e 75 a7 be
       -0.6303664 0.009184674 -0.26528305 -0.32706922
000140 bf 41 81 3e 3f 33 82 bc b2 c9 81 be 9f 47 1f bf
       0.25245473 -0.015893577 -0.25349194 -0.6221866
000150 0b 08 94 bc 09 2f 05 bf 77 b9 b2 39 c4 c0 f8 3e
       -0.018070241 -0.52024895 0.00034088988 0.48584569
000160 9e c8 51 bf 19 77 63 3d 3a 7f d9 3e 26 23 15 bd
       -0.8194674 0.055533502 0.4247988 -0.036410473
000170 72 6e 0b bf 57 7b ed be ae 7e 15 bd c3 44 6e 3e
       -0.544654 -0.46383163 -0.036497764 0.23268418
000180 32 02 0b 3f f0 45 b4 be f7 31 eb bd 12 ab 86 be
       0.54300225 -0.35209608 -0.114841394 -0.2630239

linear2.weight f4 [100, 100]
000000 fa a3 f7 3e c5 11 2c 3d 12 64 88 3f 35 84 d9 be
       0.48367292 0.042009134 1.0655539 -0.42483678
000010 ac e7 ec 3e ff c8 97 3e 6f dc 63 bd fa a6 9f 3f
       0.46270502 0.29645535 -0.055630144 1.2472832
000020 b0 43 0a 3e e2 88 78 3e 0d 18 8c bf 7a 01 e3 3e
       0.13502383 0.24270967 -1.094484 0.44337064
000030 db e6 8c bf d0 f1 1e 3e 3c 3d 2d be 73 70 2e 3f
       -1.1007951 0.15521932 -0.1691789 0.68140334
000040 61 1d 5f 3f 5a d5 5e 3e 7d 14 84 3e 28 11 36 3f
       0.87154204 0.21761075 0.2579688 0.7111993
000050 be 1b 04 3f cf dc 72 3e 5f 46 24 3f 95 ff 24 bf
       0.5160483 0.23717044 0.6416988 -0.6445249
000060 eb 00 88 bf 4d 7f b0 3e d7 f8 ae 3e b0 1b 48 3f
       -1.062528 0.34472123 0.34174225 0.7816725
000070 da dc b0 bc df 78 7e 3d fd 4a 85 bf 9a 11 73 bf
       -0.021589685 0.06212699 -1.041351 -0.9494873
000080 01 1d 6e bf b5 67 07 3f ce b9 c0 3e 71 f0 6f 3e
       -0.93013006 0.5289262 0.37641758 0.23431565
000090 ad f1 91 bf de 7a 17 bf 83 67 0b 3e 36 8b 58 bf
       -1.1401879 -0.59171855 0.13613705 -0.8458742
0000a0 5e 2c ab bf 57 58 11 3f 50 e9 58 bf 6a db cf bc
       -1.3372915 0.5677542 -0.84731007 -0.02537318
0000b0 4e 5a 3c 3e 01 da c5 3f c5 22 05 bf 67 db 58 bd
       0.18393824 1.5457155 -0.5200618 -0.052943613
0000c0 bf c8 0d 3f cb 7e cc 3e 79 4d 6b 3f 74 f4 2e 3f
       0.5538444 0.39940485 0.9191509 0.68341756
0000d0 1e ed 7f 3f 38 23 39 bf 3c a4 88 bf 3c 8e 36 3f
       0.9997119 -0.72319365 -1.067512 0.7131078
0000e0 34 32 5e 3e f6 4f 53 bf 58 0f 12 3e ce 07 1e bf
       0.21698838 -0.82543886 0.14263666 -0.6173066
0000f0 47 2b a3 bf b5 53 1d bf bc d4 1d 3f 1e 92 0f 3f
       -1.2747582 -0.6145585 0.6165273 0.5608233
000100 37 e5 9a bf 81 5a 5d 3e ab 01 d0 3e 5b 5c 8c bb
       -1.2101201 0.21616556 0.40626273 -0.0042834706
000110 4c f6 80 3f 4c 28 41 3e 96 77 4b 3f ef 99 1b bd
       1.0075164 0.18863028 0.7947935 -0.0379886
000120 b5 8f 93 3e 27 51 81 3e c6 3a 49 3f 00 db 87 bf
       0.28820577 0.25257227 0.78605306 -1.0613708
000130 54 e6 3d 3f 46 48 95 3f b6 6a e1 be fc 08 10 3f
       0.7417958 1.1662681 -0.44026726 0.5626371
000140 6a 80 33 bf 10 06 43 3d 9e dd db be c3 33 35 bd
       -0.7011782 0.047613204 -0.42942518 -0.044238817
000150 6f a5 c0 3e a2 20 4c 3e 89 3e b5 3e ed 0b 3e 3c
       0.37626216 0.19934323 0.35399273 0.011599523
000160 9c 41 8c 3f e4 dc 55 bf db 6b 60 bf 69 14 a9 bd
       1.0957522 -0.8354018 -0.87664574 -0.08255846
000170 c6 4a 47 3f 85 c8 1b 3f 37 34 14 3e 23 95 57 3f
       0.7784847 0.60852844 0.14473043 0.8421194
000180 27 ea 43 bf f4 3e f3 3e 2b 5b 86 bd a9 54 e7 3e
       -0.76529163 0.47508967 -0.06560358 0.45181778
000190 5e 74 ba 3e 53 b2 68 3e 9b 25 6c 3f c7 5c a2 bd
       0.36416906 0.22724275 0.9224488 -0.07927852
0001a0 a9 f5 9e 3e 14 7c 64 3e f3 df 2a 3d 9c 5a 93 3f
       0.310468 0.22312957 0.04171748 1.1512027
0001b0 e8 53 ad 3d 1f 3b 64 3e 9d 06 98 bf 7c d0 4a 3e
       0.084632695 0.22288178 -1.1877018 0.19806093
0001c0 cb 31 b5 bf 62 9a 51 3e 1b 2f a8 be e3 8d 2b 3f
       -1.4155821 0.20469049 -0.3284844 0.67013377
0001d0 c8 f3 44 3f d8 42 54 3d 9f 03 b2 3d 64 e6 1d 3f
       0.7693448 0.05182156 0.08692097 0.61679673
0001e0 ee e2 18 3f 62 f4 2e 3e 48 4e d4 3e 52 d2 29 bf
       0.5972127 0.17085412 0.41465974 -0.6633655
0001f0 2c 12 9d bf 49 53 9c 3e 9c 69 02 3e 3a cf e6 3e
       -1.2271171 0.30532292 0.127356 0.45079976
000200 2a 14 78 bd 41 10 fd 3d 32 36 a1 bf b5 48 6a bf
       -0.060566105 0.12356616 -1.2594664 -0.9151719
000210 82 a0 6f bf f5 bf a1 3e 3d 5d fb 3d 02 c5 2e 3d
       -0.9360429 0.31591764 0.12273643 0.04266835
000220 5e 5d a7 bf c6 45 21 bf 4e 45 23 3e 6e b5 5a bf
       -1.3075368 -0.6299709 0.15944406 -0.8543309
000230 67 6b c2 bf ab f6 d6 3e cc 46 54 3d 3e 2e 03 3d
       -1.5189027 0.41985068 0.05182533 0.03202652
000240 e9 b1 d6 3d 8f 57 91 3f da e7 b9 3e 08 ff 16 be
       0.104831524 1.1354846 0.363097 -0.14745724
000250 27 1c 03 3f 1b 0e 79 3e 85 64 6a 3f d8 f0 20 3f
       0.5121483 0.24321787 0.9155963 0.628675
000260 4b f3 82 3f 0c b0 17 bf 80 4f 8a bf 25 de 29 3f
       1.0230497 -0.59253 -1.0805511 0.6635459
000270 fb 3c e2 3d 07 4d 4d bf b3 e0 84 3c cc e2 2e bf
       0.11046787 -0.8019566 0.016220426 -0.68314815
000280 49 c0 bd bf f5 61 36 bf 9d 45 c7 3e 12 85 02 3f
       -1.4824306 -0.7124322 0.38920298 0.509843
000290 e1 46 b8 bf 66 01 ca bb 9c 1d ac 3e 2d a0 2b be
       -1.439663 -0.0061647175 0.3361634 -0.16760321
0002a0 ca c1 57 3f 32 c7 f3 3d 18 b7 0a 3f 20 11 4b be
       0.84280074 0.11903228 0.5418563 -0.19830751
0002b0 58 3f 7c 3e 6a d6 eb 3d d5 ea fd 3e 0e 04 93 bf
       0.24633539 0.115155056 0.49593225 -1.1485612
0002c0 6a 07 34 3f 4a 57 61 3f 53 16 04 bf 78 11 d9 3e
       0.7032381 0.8802382 -0.51596564 0.4239614
0002d0 65 84 1a bf ed e4 99 bd 45 2e 0e bf a0 ce 87 bc
       -0.6035827 -0.07514367 -0.5553935 -0.016578019
0002e0 4c c3 5a 3e d5 b9 75 3e 29 4a 10 3e ce c0 b1 bc
       0.21363562 0.2399667 0.1409079 -0.021698382
0002f0 50 69 96 3f 29 1d 64 bf 32 4c 77 bf ee f0 5a bd
       1.1750889 -0.89106995 -0.9660064 -0.053452425
000300 6f f7 1e 3f 49 b6 12 3f 3e a4 58 3e 79 af e8 3e
       0.62096304 0.57309395 0.21156403 0.45446375
000310 6a a3 6a bf 58 9d cf 3e aa fb c0 3d bd 91 63 3e
       -0.916556 0.4054973 0.09423001 0.22223563
000320 3e b2 b9 3e 04 f6 9e 3d ae 0a 4d 3f 3a cb 53 bd
       0.362688 0.077617675 0.8009442 -0.051707484
000330 a6 bf 95 3e 8c 58 08 3e 67 da 94 bb 0e 7b 9f 3f
       0.2924778 0.13315028 -0.004542637 1.2459428
000340 7a 13 50 3d 2d d7 62 3e 50 65 9f bf 7d fa 99 3e
       0.050799824 0.22152396 -1.2452793 0.3007392
000350 97 4e b3 bf 4d 3c 1f 3d 8f e6 21 be a0 bb 33 3f
       -1.4008359 0.038875867 -0.15810607 0.7020817
000360 b9 a7 2b 3f 3a 7f 15 3d 81 4c 58 3e 76 5b 22 3f
       0.670528 0.036498286 0.21122934 0.6342081
000370 13 2a 1b 3f 0b 33 36 3e fb d9 ea 3e 0b b5 42 bf
       0.60611075 0.17792909 0.4586943 -0.760575
000380 aa 37 ae bf ec 2b 8e 3e 38 5e 21 3e d6 53 a2 3e
       -1.3610737 0.27767885 0.15758598 0.31704587
000390 9a ff ed ba cc cf e0 3d d5 73 92 bf 56 d7 76 bf
       -0.001815784 0.10977134 -1.1441599 -0.96422327
0003a0 29 9b 82 bf 80 e4 39 3e 7f f0 46 3e 82 c5 ae 3d
       -1.0203601 0.18153572 0.1942768 0.085337654
0003b0 c3 48 ae bf ae 93 12 bf dc 43 93 3e c8 eb 5c bf
       -1.3615955 -0.5725659 0.2876271 -0.86297274
0003c0 bf 5e b8 bf e6 35 9d 3e 12 07 a5 3e c9 ba 6e 3d
       -1.4403914 0.30705184 0.32231957 0.0582836
0003d0 4d e5 72 3e a5 c5 6d 3f 89 16 e9 3e 55 71 f5 bd
       0.23720284 0.92879707 0.45525005 -0.11984507
0003e0 fa 96 ba 3e 19 14 7a 3e 18 bf 33 3f 44 d5 16 3f
       0.3644331 0.24421729 0.7021346 0.5891917
0003f0 8c ec 56 3f f0 a1 1f bf cd 4a 76 bf 01 ac 3f 3f
       0.8395469 -0.6235647 -0.96207887 0.7487183

linear2.bias f4 [100]
000000 85 b8 0e be 01 b8 e8 be 72 bc e0 be 9a 47 8a bb
       -0.13937576 -0.45452884 -0.43893772 -0.0042199614
000010 8d 8a 4e be 4f 58 25 be 98 f6 9b be 53 ed 4c be
       -0.2017004 -0.16146968 -0.30461574 -0.20012407
000020 de e3 27 be 8b 3c b9 be e0 a2 0e be 52 33 e0 be
       -0.16395518 -0.36179003 -0.1392932 -0.43789154
000030 a3 ca e4 bd 13 7c e8 be 0a 9a 98 be 75 a1 c9 3d
       -0.111714624 -0.4540716 -0.29805022 0.098452486
000040 b1 8b e8 be ea 0e 70 3d b1 ee ac 3d 22 dc ae bd
       -0.45419076 0.058607973 0.08443964 -0.08538081
000050 36 64 b9 3e d5 6e 93 be 89 30 b4 be 6b 23 a0 be
       0.36209267 -0.28795496 -0.3519328 -0.31277022
000060 28 7d 6a be 06 18 83 be 33 06 cc be e0 c4 f1 be
       -0.22899306 -0.25604266 -0.3984848 -0.47220516
000070 ef 19 b6 be 28 2d 5d be 13 5d c9 3e 0e 3b 45 be
       -0.3556666 -0.21599257 0.39328822 -0.19260809
000080 b1 51 d3 be f1 62 f2 be a2 1d b9 be 74 f6 83 be
       -0.41273263 -0.4734111 -0.3615542 -0.25773966
000090 52 a7 46 be b8 2d 4f 3e 2f 95 c8 bd dd ba 35 3d
       -0.19399765 0.20232284 -0.097940795 0.04436766
0000a0 f8 da 9e 3d 28 1f 0c 3f 81 74 3e 3e 1e c7 8c be
       0.07756609 0.5473504 0.1859913 -0.27495664
0000b0 c6 21 c9 be 12 f6 80 be f2 74 8a be a2 68 fc bc
       -0.3928358 -0.25187737 -0.27042347 -0.030811612
0000c0 b0 86 a0 be bd de b9 bc fa 9f ad be a7 51 a9 be
       -0.31352758 -0.022689218 -0.33911115 -0.33070108
0000d0 8a c4 b5 be a8 f3 98 bd 3d 50 17 3d 06 83 bc 3e
       -0.3550151 -0.07468349 0.036941756 0.36818713
0000e0 b4 b6 76 be 77 02 b7 bd 39 4a 22 bd bb 5b a8 be
       -0.24093133 -0.08936017 -0.039621565 -0.32882485
0000f0 92 ac 99 be f5 76 8b 3d 86 14 03 bd 61 35 84 be
       -0.30014473 0.06809799 -0.032001995 -0.25821975
000100 88 8c bb 3d 22 c5 ab be 98 14 b7 be b6 16 e1 3e
       0.091576636 -0.33548838 -0.357579 0.4396264
000110 f4 b3 bf be ba ed 37 be fd c2 bc be 58 1f a5 bd
       -0.3744198 -0.17961779 -0.36867514 -0.08062619
000120 93 d4 0c be d6 e8 88 be 71 5e 0c 3f 7b 58 a0 be
       -0.13752966 -0.2674014 0.54831606 -0.31317505
000130 1d 04 80 3d 23 f7 a3 be c4 42 48 bc 50 69 bb 3e
       0.062507845 -0.32024488 -0.012222949 0.36603785
000140 dc 99 cb be 30 f4 85 be 47 ec b5 3c 62 10 c3 be
       -0.39765823 -0.26162863 0.022207392 -0.38098437
000150 07 19 e0 be 28 07 85 be 00 b0 58 3b 97 ef 3e be
       -0.43769094 -0.25982022 0.0033063889 -0.18646084
000160 50 20 6d bd d8 de 91 bd 15 dc 4a be 55 e6 ac 3e
       -0.057892144 -0.07122582 -0.19810517 0.3376948
000170 25 e5 c2 be 17 cd 4a be 49 0c 93 be 12 0a 0b 3a
       -0.38065448 -0.19804798 -0.2872031 0.000530393
000180 4f 5f 6b be 27 49 86 3e a7 55 59 bd 56 73 8f 3e
       -0.22985576 0.26227686 -0.0530602 0.28017682

linear3.weight f4 [1, 100]
000000 bd 29 57 bf 30 15 7d bf 13 23 81 bf c5 34 1c bb
       -0.8404806 -0.98860455 -1.0088829 -0.0023835164
000010 77 b9 6e bf 64 7e 6d bf ea 6b 6f bf 8f 16 5e bf
       -0.93251747 -0.9277098 -0.9352404 -0.8675317
000020 e4 d4 64 bf 08 ad 82 bf e2 20 62 bf 6d 8a 82 bf
       -0.89387345 -1.0209055 -0.88331425 -1.0198494
000030 a3 64 54 bf 31 6d 84 bf b8 8e 6c bf 60 16 31 3b
       -0.8296606 -1.0345823 -0.9240527 0.0027021393
000040 33 50 85 bf cd 50 ce 39 ae 80 c0 ba f7 a5 0f bb
       -1.04151 0.00039351583 -0.0014686787 -0.002191899
000050 2c 83 a2 3f 02 0c 6a bf 2f ce 7d bf f5 ad 82 bf
       1.269628 -0.9142457 -0.99142736 -1.0209337
000060 86 a5 77 bf 94 b2 77 bf f7 f9 84 bf e4 5f 83 bf
       -0.96736944 -0.96756864 -1.0388783 -1.0263638
000070 b5 9a 83 bf 2e f2 5b bf fc 28 a5 3f b1 a9 61 bf
       -1.0281588 -0.8591641 1.2903132 -0.88149554
000080 47 51 80 bf f9 2b 8e bf 0c 55 87 bf cf af 76 bf
       -1.0024804 -1.1107169 -1.0572829 -0.9636201
000090 4a a3 6b bf 52 0e 2f bf 99 07 34 3b 02 8d e8 b9
       -0.92046034 -0.68381226 0.002747035 -0.00044355547
0000a0 89 11 3e 3b f2 dc b3 3f 8b 5f 57 bf b8 e8 7c bf
       0.002900215 1.4051802 -0.8413016 -0.987926
0000b0 92 00 83 bf bf 20 68 bf 63 a4 73 bf 50 53 63 3b
       -1.0234549 -0.90674967 -0.9517271 0.003468711
0000c0 59 31 6c bf ba 49 75 bb 23 cb 81 bf ed b6 6f bf
       -0.922628 -0.0037427978 -1.0140117 -0.936385
0000d0 d9 a5 73 bf ec 92 03 3b 25 af 80 bb 31 41 31 bf
       -0.9517494 0.0020076586 -0.003927129 -0.692401
0000e0 85 13 68 bf 31 99 36 3b 35 46 16 bc b2 fd 69 bf
       -0.90654784 0.0027862305 -0.009172012 -0.91402733
0000f0 bf a9 7d bf 63 1c 0d bb 34 99 8f 3b 7f d9 67 bf
       -0.99087137 -0.0021531812 0.004382277 -0.9056625
000100 fd b7 1a bb ff b6 6b bf 2a c0 75 bf 53 54 87 3f
       -0.00236082 -0.92076105 -0.95996344 1.0572609
000110 76 12 77 bf 8e 83 7c bf e5 6f 83 bf 6d be 89 ba
       -0.96512544 -0.98638237 -1.0268523 -0.0010509022
000120 54 2b 59 bf 8e d1 66 bf 8f e8 ad 3f 59 d1 6a bf
       -0.8483174 -0.90163505 1.3586596 -0.9172569
000130 0c 1c bf b9 81 b8 80 bf a0 3e 39 ba 1b ab 9f 3f
       -0.00036451255 -1.0056306 -0.0007066522 1.2474092
000140 fc fc 80 bf 83 52 78 bf 0a 5f ff b9 1e d0 73 bf
       -1.0077205 -0.970009 -0.000487082 -0.95239437
000150 d3 d8 81 bf 33 fc 77 bf 79 91 23 ba ad 99 74 bf
       -1.0144295 -0.968692 -0.00062396337 -0.9554699
000160 f8 e2 44 3e bc 30 06 39 49 29 5b bf 8f 92 a2 3f
       0.19227207 0.00012797391 -0.8560987 1.2700976
000170 50 27 83 bf 28 66 61 bf ee 12 75 bf 07 78 bc 3b
       -1.0246372 -0.88046503 -0.9573201 0.005751613
000180 57 67 66 bf e0 d6 5b bf 31 20 f4 39 c5 9a 25 bf
       -0.90001434 -0.8587475 0.0004656329 -0.64689285
