checkpoints/three-phase/eu-lv/safe-ddpg/loss/policy_net_checkpoint_a0.pth (torch, 45271 bytes, 6 tensors)

linear1.weight f4 [100, 3]
0	0xbf3c9f05	-0.73680145
1	0xbec3547f	-0.38150403
2	0xbf690095	-0.91016513
3	0x3e3e532f	0.1858642
4	0xbebe2333	-0.3713623
5	0x3e3f612b	0.1868941
6	0x3d055ab9	0.032557223
7	0x3ee74db1	0.4517646
8	0x3ebe08a4	0.37115967
9	0x3ddb43cc	0.107062906
10	0x3eaead26	0.34116477
11	0xbea2308a	-0.31677657
12	0xbf081ec8	-0.5317197
13	0xbf4e57b7	-0.8060259
14	0xbcee2ee9	-0.029075103
15	0xbea7a7b9	-0.3274515
16	0x3ecaa1e2	0.39576632
17	0xbf0d444d	-0.55182344
18	0x3f2bf3fc	0.67169166
19	0x3f3207b6	0.69543016
20	0xbccb44ec	-0.024813138
21	0xbf6abcc4	-0.91694283
22	0x3e24076b	0.16018455
23	0xbebcf341	-0.36904338
24	0xbb721150	-0.0036936589
25	0xbe416973	-0.18887882
26	0x3eed1895	0.46307817
27	0x3f5337e7	0.82507175
28	0xbd70f711	-0.05882937
29	0x3f242fe6	0.6413559
30	0xbd95c327	-0.07312613
31	0xbf581258	-0.8440299
32	0xbef8f5d6	-0.48625058
33	0x3dd625eb	0.10456451
34	0xbdb488be	-0.08815144
35	0x3edf382f	0.43597552
36	0xbf4a455c	-0.79012084
37	0xbde6add9	-0.112636276
38	0xbd5d4466	-0.054020308
39	0x3d9a14ee	0.07523523
40	0x3d8257a2	0.06364371
41	0xbdfdf4be	-0.124001965
42	0xbdc9c18a	-0.09851368
43	0x3f0c8370	0.5488806
44	0xbecbef80	-0.39831161
45	0xbedda13b	-0.43287072
46	0xbf280707	-0.6563572
47	0xbe1da6a2	-0.15395597
48	0x3e8af6b7	0.27141353
49	0xbdb0659d	-0.08613131
50	0x3f08e22e	0.5347012
51	0x3f1437b2	0.57897484
52	0x3ef34c1a	0.47518998
53	0x3f4c6c57	0.79852813
54	0x3eea9c6a	0.4582246
55	0xbf0e6c5e	-0.55634105
56	0x3f13b082	0.57691205
57	0xbf06943a	-0.52569926
58	0xbe6450ee	-0.22296497
59	0xbe0da6f6	-0.13833222
60	0x3e022c22	0.12712148
61	0xbd9da357	-0.0769717
62	0x3e96511e	0.29358763
63	0x3ecc61f8	0.39918494
64	0x3f2f6af0	0.6852255
65	0x3f86fd23	1.0546001
66	0xbf4810f2	-0.78150856
67	0xbf4de515	-0.80427676
68	0xbe8ec642	-0.27885634
69	0x3e894cc1	0.2681637
70	0x3f112f69	0.5671297
71	0x3e140b39	0.14457406
72	0xbddf0690	-0.108899236
73	0x3e6d95e2	0.23201707
74	0x3f083fcf	0.53222364
75	0xbec3064b	-0.3809074
76	0x3f05a15d	0.52199346
77	0x3f305777	0.6888346
78	0x3de9200c	0.113830656
79	0xbd4456f5	-0.04793449
80	0xbf016e29	-0.50558716
81	0x3e5cdefe	0.2156944
82	0x3f2c2605	0.67245513
83	0x3d015b27	0.03158107
84	0xbf139fde	-0.5766581
85	0x3d3f5125	0.046708245
86	0xbf75f956	-0.9608358
87	0x3efe44b5	0.49661794
88	0xbeea7108	-0.4578936
89	0x3daab98f	0.08336174
90	0x3e42cf11	0.19024302
91	0xbee56cd9	-0.44809607
92	0x3ecf3f90	0.40478182
93	0x3f37d811	0.71814066
94	0x3ebe0da8	0.37119794
95	0x3ecf9786	0.4054529
96	0x3ecf27a1	0.40459922
97	0x3d90bec1	0.070676334
98	0x3f56617b	0.83742493
99	0x3f22846c	0.6348331
100	0x3f51a635	0.81894237
101	0x3d8eb54f	0.069681756
102	0x3ebc58e2	0.36786562
103	0x3e27b481	0.1637745
104	0xbdf676f7	-0.120344095
105	0x3ea2b020	0.31774998
106	0xbe849976	-0.2589833
107	0x3ea3aac0	0.3196621
108	0x3ee71b66	0.4513809
109	0x3ef23c10	0.4731145
110	0xbeaf8e5f	-0.34288308
111	0x3f0ce4ef	0.55036825
112	0xbe751caa	-0.23936716
113	0xbdba6886	-0.091019675
114	0xbe1abf7c	-0.15112108
115	0xbd5c136d	-0.053729463
116	0xbd22c834	-0.03974171
117	0xbf4d027b	-0.8008191
118	0xbf37a8db	-0.7174203
119	0xbeff5a56	-0.49873608
120	0xbf3a7231	-0.7283049
121	0xbf35373a	-0.70787394
122	0xbf49b3ca	-0.7878996
123	0x3f627023	0.8845236
124	0x3f6533e9	0.89532334
125	0x3ebdbef3	0.37059745
126	0xbed4b1b0	-0.41541815
127	0xbe16f261	-0.14740898
128	0x3ecb7e10	0.39744616
129	0xbf195dfb	-0.5990903
130	0xbe7db0e9	-0.24774517
131	0x3a1a35f8	0.0005882676
132	0x3e0e2bab	0.13883846
133	0x3f0e5820	0.5560322
134	0x3dd161bb	0.10223719
135	0x3e0ee25a	0.13953534
136	0xbef4b34a	-0.47793037
137	0xbea68f52	-0.3253122
138	0xbf44655f	-0.7671718
139	0xbef19e9d	-0.47191325
140	0xbdf3bbd7	-0.11901062
141	0xbeb57901	-0.3544388
142	0xbe172be9	-0.14762844
143	0xbf59b2b6	-0.85038316
144	0x3f0c0bcc	0.547055
145	0x3f55a34b	0.8345229
146	0x3ec6635b	0.38747677
147	0xbd62805e	-0.0552982
148	0x3e7c5a52	0.2464383
149	0xbea3db5b	-0.32003292
150	0x3d11b9a2	0.035577424
151	0xbf134387	-0.57524914
152	0xbec77285	-0.3895456
153	0x3ece3a17	0.40278694
154	0xbef740fa	-0.4829176
155	0x3e889e21	0.26683143
156	0xbec57344	-0.38564503
157	0xbe9c5350	-0.30532312
158	0xbee30d1a	-0.44345933
159	0xbd7a7d11	-0.06115443
160	0x3ec6890c	0.38776433
161	0xbdc24460	-0.09485698
162	0x3f2962bc	0.6616628
163	0x3f4af74a	0.79283583
164	0x3dfc5a13	0.12321868
165	0x3d1f872d	0.038947273
166	0x3ec79d97	0.3898742
167	0x3f132c06	0.5748905
168	0xbe2df7b8	-0.16989028
169	0xbf1c0d1d	-0.6095751
170	0xbc2aef3b	-0.010433014
171	0x3ed8016e	0.4218859
172	0x3e88a6ac	0.2668966
173	0x3ee5ea73	0.44905433
174	0xbe783ea5	-0.24242647
175	0xbe91d60f	-0.28483626
176	0x3e9f3df6	0.3110196
177	0xbe731fb2	-0.2374256
178	0x3ca5d5bb	0.020243516
179	0xbf60dc29	-0.8783594
180	0x3ef604b0	0.4805045
181	0xbe223dc9	-0.15843882
182	0x3f1646a7	0.58701557
183	0x3d95a1e4	0.07306269
184	0xbea0ec42	-0.3143025
185	0xbd918c0f	-0.07106792
186	0xbf0fdac1	-0.56193167
187	0xbd611bc3	-0.054958116
188	0xbf1982e6	-0.5996536
189	0x3f2a173c	0.664417
190	0xbe655b16	-0.22398028
191	0x3e5c31bc	0.21503347
192	0xbe8af489	-0.2713969
193	0xbe9d52c3	-0.30727205
194	0xbe6ed62b	-0.23323886
195	0x3f3b0d53	0.73067206
196	0x3f39f0e8	0.7263322
197	0x3f04c5d6	0.51864374
198	0xbf551c2c	-0.8324611
199	0xbe8f11cc	-0.27943265
200	0xbe4fe999	-0.20303954
201	0x3f11889b	0.5684907
202	0x3e299515	0.16560777
203	0x3f4f019f	0.8086185
204	0x3ed5c7e3	0.41754064
205	0xbe8d20d9	-0.27564123
206	0x3e1c8a63	0.15287165
207	0xbdeb05f6	-0.11475746
208	0xbe800017	-0.2500007
209	0x3d4a9e3b	0.049467307
210	0xbf567c24	-0.83783174
211	0xbc86da67	-0.016461564
212	0xbed069aa	-0.40705615
213	0xbd4d6689	-0.050146613
214	0x3c2a28ca	0.010385701
215	0x3f117f61	0.5683499
216	0x3ded5056	0.115875885
217	0x3cdfc26d	0.02731439
218	0xbea551c3	-0.32288942
219	0x3e489b16	0.1959041
220	0x3f297966	0.66200864
221	0x3f3f13eb	0.7463977
222	0xbe0e3074	-0.13885671
223	0x3df23aa1	0.11827589
224	0xbec04e93	-0.37559947
225	0x3d2f5213	0.04280288
226	0x3e3c4435	0.18385394
227	0x3f141be9	0.5785509
228	0x3f0a0aee	0.5392293
229	0x3ed693bf	0.41909596
230	0xbec36680	-0.3816414
231	0x3e0071b7	0.12543379
232	0xbe010870	-0.12600875
233	0x3f559d87	0.8344349
234	0xbf0cf855	-0.55066425
235	0x3e7ab40f	0.2448275
236	0xbe50f6f7	-0.2040671
237	0xbe1831f3	-0.14862804
238	0x3caf61cf	0.021408943
239	0xbf3fdf98	-0.7495055
240	0xbe872d89	-0.26401928
241	0xbd891257	-0.06692951
242	0xbeb42e4f	-0.3519158
243	0xbf01ff84	-0.5078051
244	0xbebc6e51	-0.36802915
245	0x3eeefab0	0.46675634
246	0xbe8611c0	-0.26185417
247	0xbeb4dc2d	-0.3532423
248	0x3ecf35d0	0.40470743
249	0xbee1afc0	-0.440794
250	0xbd9cb99b	-0.07652589
251	0x3f0b07ac	0.5430858
252	0x3eda3249	0.4261649
253	0xbe8589bf	-0.26081654
254	0xbe7e2002	-0.24816898
255	0x3de85926	0.11345129

linear1.bias f4 [100]
0	0x37d45656	2.5312573e-05
1	0xbe6e136c	-0.23249596
2	0xbed93d05	-0.42429367
3	0xbeaf5bba	-0.3424967
4	0x3de4d569	0.11173517
5	0xbeef0b77	-0.46688434
6	0x3a4272e5	0.00074176333
7	0xb81e9803	-3.7811707e-05
8	0xbefa1ba6	-0.4884922
9	0x3da37aed	0.079824306
10	0x3ecfae5c	0.40562713
11	0x3eb67dbf	0.35642812
12	0x3e1245ce	0.14284441
13	0xbebb8622	-0.36625773
14	0xbeae624b	-0.34059367
15	0x3d56616f	0.052339014
16	0x3d7eba1d	0.06218921
17	0x3e06fe58	0.13182962
18	0xbe5fe1e7	-0.21863519
19	0x3ed5d7cf	0.4176621
20	0xbec58bfa	-0.38583356
21	0x3e86f76a	0.26360637
22	0x3e9a2c32	0.30111843
23	0x3efb2c63	0.49057302
24	0xbeda5786	-0.426449
25	0x3f02a864	0.51038194
26	0xbe3df210	-0.18549371
27	0x3ea22333	0.3166748
28	0x3f07a732	0.52989495
29	0xbe929918	-0.28632426
30	0x3f00146d	0.5003117
31	0x3e36d939	0.17856301
32	0x3dc16983	0.09443953
33	0x3e1212ce	0.14264986
34	0xbdacb84c	-0.08433589
35	0xbdcab450	-0.09897673
36	0xbe434c1d	-0.19072004
37	0xbf03b67b	-0.5145032
38	0xbe2ef9f9	-0.17087545
39	0x385c5b95	5.253738e-05
40	0x3f025cf0	0.5092306
41	0x3eb7f33b	0.35927758
42	0x3e11f4eb	0.14253585
43	0x3b11f224	0.0022269571
44	0x3d06440b	0.032779735
45	0xbef6b572	-0.48185307
46	0x39672590	0.0002204387
47	0x3de5ea7d	0.11226366
48	0xb8fa41b1	-0.00011933165
49	0xbeca4b6b	-0.39510664
50	0xbed27908	-0.41107965
51	0xbdf1d87b	-0.118088685
52	0x3d55f7e5	0.052238364
53	0xbed67971	-0.41889527
54	0x3e9ce0ae	0.30640167
55	0x3e1c5140	0.1526537
56	0x3eb6be23	0.35691938
57	0xbba707d2	-0.005097368
58	0x3e04a16b	0.12952201
59	0xb81b6a3a	-3.705381e-05
60	0x3e066c85	0.13127334
61	0xbe57616b	-0.21033256
62	0x3e88fe23	0.2675639
63	0xba2de20e	-0.0006633111
64	0xbf0d994b	-0.5531203
65	0xbaf319ad	-0.0018547081
66	0xb756a9f1	-1.2794962e-05
67	0xbc37514a	-0.011188814
68	0xbeabe4a7	-0.33572885
69	0xbe864a77	-0.26228687
70	0x37b9d753	2.2153987e-05
71	0xbe1503a0	-0.14552164
72	0x3e3e2fcc	0.1857292
73	0x3d3c5711	0.04598147
74	0xbe9b9aee	-0.3039164
75	0x3ecd4b92	0.40096718
76	0xbec9ef9c	-0.3944062
77	0x3e880b28	0.26571012
78	0xbec80107	-0.39063284
79	0xb8c8ea3e	-9.580374e-05
80	0xbec65db3	-0.38743362
81	0xbe84a1e6	-0.2590477
82	0x3ea9cd0c	0.3316425
83	0xbe5db316	-0.21650347
84	0xbeba86cd	-0.3643097
85	0xbeda1a1e	-0.4259805
86	0xbe520a94	-0.20511848
87	0x3df599a8	0.11992198
88	0xbec22e7f	-0.379261
89	0xb92979d1	-0.00016162476
90	0xb86772cb	-5.51816e-05
91	0x3e8ed7e0	0.27899075
92	0x3eab59a7	0.33466837
93	0xbe9a4db1	-0.301374
94	0x3e739aea	0.23789564
95	0xbeb7d912	-0.359078
96	0x3e1aa8ca	0.1510345
97	0x3eb08281	0.34474567
98	0x3f12b06c	0.5730045
99	0x3e2fc3dc	0.17164558

linear2.weight f4 [100, 100]
0	0x3e4d5136	0.20050511
1	0x3b601800	0.0034193993
2	0xbd442d1d	-0.047894586
3	0x3d111b8a	0.035426654
4	0xbd257b75	-0.04040094
5	0x3dc7cd8d	0.097560026
6	0x3e20bc97	0.15696941
7	0xbe94c2af	-0.29054782
8	0x3d71de2a	0.059049763
9	0x3d685db2	0.05672998
10	0xbd94b4de	-0.0726106
11	0xbce4c45b	-0.02792566
12	0x3d8dbbd8	0.06920594
13	0xbd2eb78d	-0.042655516
14	0x3c50db67	0.012747622
15	0x3c805d8c	0.015669607
16	0xbda9ba2c	-0.082874626
17	0x3c529e2b	0.012855093
18	0xbc053bcd	-0.008131933
19	0x3d7446d0	0.059637845
20	0x3d39aa93	0.045328688
21	0xbc22e43a	-0.009942109
22	0xbdb3de37	-0.087826185
23	0xbc913c82	-0.017729048
24	0x3d4595a0	0.048238397
25	0xbd008ea8	-0.031386048
26	0x3d5e77d7	0.054313507
27	0x3d405316	0.046954237
28	0xbd8b77ed	-0.068099834
29	0x3d758047	0.059936788
30	0x3d3b26dd	0.04569136
31	0xbd23da9b	-0.0400034
32	0x3ba15df9	0.0049245325
33	0x3da61ea7	0.08111315
34	0xbc892dc0	-0.016745448
35	0x3b609467	0.0034268142
36	0xbc9264cd	-0.017870331
37	0xbda16ec7	-0.07882457
38	0xbdc63550	-0.09678137
39	0x3c7895fd	0.015172479
40	0x3da4f958	0.08055371
41	0xbd2bfc7e	-0.041988842
42	0x3d75f4be	0.060047857
43	0xbe10b18f	-0.14130233
44	0x3d4fa2e6	0.05069246
45	0x3d92711b	0.071504794
46	0xbda52dd8	-0.080653846
47	0xbda627da	-0.0811307
48	0x3e4095fd	0.18807216
49	0xbd5b0db0	-0.05347985
50	0xbc0c00da	-0.008545125
51	0x3b8c7780	0.0042867064
52	0x3dae4159	0.08508558
53	0xbd2c4093	-0.04205377
54	0xbc3514d5	-0.01105233
55	0xbdb425bb	-0.08796259
56	0xbb7ed5e9	-0.0038884825
57	0x3d6097e4	0.054832354
58	0xbdcdd9a6	-0.10051279
59	0xbe4c0c49	-0.19926561
60	0xbd842dbe	-0.06454037
61	0xbb2f31cd	-0.0026732564
62	0x3d7e6bf4	0.06211467
63	0xbdae6dd5	-0.085170425
64	0xbd542d8d	-0.051801253
65	0x3e305599	0.17220153
66	0x3d862934	0.065508276
67	0x3e96c9ac	0.29450738
68	0xbd9d4e43	-0.07680943
69	0x3d8e0157	0.06933849
70	0x3e3f1ff6	0.18664536
71	0xbd920cf2	-0.07131375
72	0x3cb7ed40	0.022451997
73	0x3b4b2f9c	0.003100372
74	0xbdcb069d	-0.09913371
75	0x3d67875d	0.056525577
76	0xbd24aaea	-0.04020206
77	0x3d0dd022	0.03462232
78	0x3d14f300	0.036364555
79	0xbe77b09f	-0.2418847
80	0xbd91efa5	-0.07125787
81	0xbd5436da	-0.051810123
82	0xbcd2272a	-0.02565344
83	0x3d801438	0.062538564
84	0x3d7a0ccd	0.061047364
85	0x3dbee46b	0.09320911
86	0x3d07bfe7	0.033141997
87	0x3da825f4	0.08210364
88	0x3c5810e7	0.013187624
89	0x3e60113d	0.21881576
90	0x3e662676	0.22475609
91	0xbd4565e0	-0.04819286
92	0x3c5873f6	0.013211241
93	0xbda5a230	-0.080875754
94	0x3d999583	0.0749922
95	0x3c9efe87	0.019408477
96	0xbb944be5	-0.004525649
97	0xbceccae7	-0.028905345
98	0x3d700c72	0.05860562
99	0xbd39b825	-0.04534163
100	0x3cee744d	0.02910819
101	0x3d17f51d	0.037098993
102	0x3dafabfd	0.08577726
103	0x3db440a3	0.08801391
104	0xbc3406b1	-0.0109879235
105	0xbd997130	-0.07492292
106	0xbe91d901	-0.28485873
107	0x3e8a90fb	0.27063736
108	0xbd8744fb	-0.06604954
109	0x3d8e5975	0.06950656
110	0xb9897395	-0.00026216792
111	0x3d2af907	0.041741397
112	0x3dc41db6	0.095759794
113	0x3db9e975	0.090777315
114	0xbd53222d	-0.051546264
115	0x3e0e6294	0.13904792
116	0x3c6d066a	0.014466861
117	0xbd2d3934	-0.04229088
118	0xbd66cd70	-0.056348264
119	0x3d90eceb	0.070764385
120	0x3dc3a7bf	0.095534794
121	0x3d1efc0c	0.03881459
122	0xbd2326f7	-0.03983208
123	0xbdd1f987	-0.10252672
124	0x3d2f7a6a	0.042841353
125	0x3cf8fa37	0.03039275
126	0xbd7d409d	-0.0618292
127	0x3c121ab7	0.008917502
128	0xbcb1872b	-0.021670898
129	0x3b9a009a	0.0046997787
130	0x3d8a4c7a	0.06752868
131	0x3d999b52	0.07500328
132	0xbdc1ee16	-0.094692394
133	0xbd328932	-0.04358787
134	0x3d4c5e57	0.049894657
135	0xbd32833d	-0.04358219
136	0x3d918332	0.07105102
137	0xbcb8cf40	-0.022559762
138	0xbd2fc313	-0.042910647
139	0x3cfaa811	0.030597718
140	0x3dccf364	0.100073606
141	0xbd09076e	-0.03345435
142	0xbcc0cc5c	-0.023534946
143	0x3ed2bcb7	0.41159603
144	0x3d143a24	0.03618826
145	0xbc9e3bfa	-0.019315708
146	0x3e9a0546	0.30082148
147	0x3cabf64a	0.020991463
148	0xbe4b141d	-0.19831891
149	0x3dc68385	0.09693054
150	0xbdaf4db2	-0.08559741
151	0x3d76232d	0.06009214
152	0xbd65989b	-0.05605374
153	0x3db8750b	0.09006699
154	0xbdaf3e3e	-0.08556794
155	0x3d71751b	0.05894957
156	0xbd202ed0	-0.039107144
157	0xbd82971f	-0.0637648
158	0x3dcc7c77	0.09984677
159	0x3da2daca	0.07951887
160	0x3d5c2156	0.05374273
161	0xbc71a280	-0.014748216
162	0x3c0ef5a2	0.008725556
163	0xbe4f3efa	-0.20238867
164	0xbd823500	-0.06357765
165	0xbe80543f	-0.25064275
166	0x3dab6e13	0.08370604
167	0xbdbd78a0	-0.09251523
168	0xbb770e33	-0.0037697672
169	0x3d2654c7	0.040608194
170	0x3d0d24f1	0.03445906
171	0xbdac3bf2	-0.08409871
172	0x3d85de64	0.06536558
173	0xbdf8650b	-0.121286474
174	0xbba58667	-0.0050514224
175	0x3d8f1e07	0.06988149
176	0x3db69c48	0.08916527
177	0xbdc62ab5	-0.096761145
178	0x3d7ab1e7	0.061204817
179	0x3e073e0b	0.13207261
180	0xbca63fa7	-0.020294024
181	0x3da11087	0.078644805
182	0xbda19131	-0.07889021
183	0x3b2c8f26	0.002633044
184	0x3c433a67	0.01191578
185	0xbd0f7920	-0.035027623
186	0xbd69442a	-0.056949772
187	0x3d17b395	0.037036497
188	0xbd8d4ba8	-0.06899196
189	0xbc81b2f2	-0.015832398
190	0xbeac70f0	-0.33679914
191	0x3dbc7040	0.092010975
192	0xbcec64f7	-0.028856738
193	0xbd977f78	-0.073973596
194	0xbdb30b8b	-0.08742436
195	0xbd29fda3	-0.041501652
196	0xbbebe8aa	-0.0071993666
197	0x3d2f2038	0.042755336
198	0x3d1caf56	0.03825315
199	0x3cfab62a	0.03060444
200	0x3d928934	0.07155076
201	0x3d04ec50	0.032451928
202	0x3d1b24bd	0.037876833
203	0x3d27d863	0.040977847
204	0x3db60d6e	0.0888928
205	0x3d8bbf4b	0.068235956
206	0xbe808a0a	-0.25105315
207	0xbe8106a2	-0.25200373
208	0xbd8ed218	-0.06973666
209	0x3d5b59bc	0.053552374
210	0x3c9f5f4c	0.01945462
211	0xbd171c0d	-0.036891986
212	0x3db47366	0.08811073
213	0xbd48b427	-0.04899993
214	0x3dc0e50b	0.094186865
215	0x3c8317c0	0.016002536
216	0x3caffd91	0.021483215
217	0xbd3b2922	-0.045693524
218	0x3d4c57d7	0.049888458
219	0x3dd92a26	0.10603742
220	0xbcd20200	-0.02563572
221	0x3d8d7b90	0.06908333
222	0xbccd96b0	-0.025096267
223	0xbd4a4a31	-0.04938716
224	0x3bb0cf80	0.0053958297
225	0x3bb6885b	0.005570454
226	0x3c311f73	0.010810721
227	0xbd5c274e	-0.05374842
228	0x3c84d7df	0.016216217
229	0x3d1033a7	0.03520551
230	0xbc902271	-0.017594548
231	0xbcee6752	-0.029102001
232	0xbce19860	-0.027538478
233	0xbd5c4c5e	-0.053783767
234	0xbd2eb393	-0.042651724
235	0xbca067e7	-0.019580794
236	0x3d5c9f03	0.053862583
237	0x3cc37b9a	0.023862649
238	0xbd81cd20	-0.063379526
239	0xbe39817d	-0.18115802
240	0x3d9baad6	0.07600944
241	0x3d496198	0.04916534
242	0xbd3a4c18	-0.045482725
243	0xbd6048e3	-0.05475701
244	0xbc0c626b	-0.008568387
245	0xbbfe2b00	-0.007756591
246	0xbec17534	-0.3778473
247	0x3dc0da59	0.094166465
248	0xbe9515ad	-0.291181
249	0xbc9f0e73	-0.01941607
250	0xbcf6ff13	-0.030150926
251	0xbda0e57d	-0.078562714
252	0x3c53b815	0.012922307
253	0xbdad7477	-0.084694795
254	0x3cef5151	0.02921358
255	0xbd8071c6	-0.062717006

linear2.bias f4 [100]
0	0xbd8ab6a0	-0.06773114
1	0x3d863e5a	0.06554861
2	0x3d194071	0.03741497
3	0xbd17ffde	-0.03710925
4	0x3da6e11d	0.08148406
5	0x3c3b2087	0.011421329
6	0xbbaf6d9a	-0.0053536417
7	0x3d1e56d0	0.03865701
8	0xbd8fe107	-0.070253424
9	0xbcf97c61	-0.030454816
10	0xbd6c288a	-0.05765585
11	0x3a77e7bc	0.00094568334
12	0xbda0d1dc	-0.078525275
13	0xbdc01ca8	-0.09380466
14	0x3d9a4cb1	0.07534159
15	0x3c186cc0	0.009303272
16	0x3d8e4f48	0.069487154
17	0x3cb83aa2	0.022488896
18	0xbd934254	-0.071903855
19	0xbdad9085	-0.084748305
20	0xbc9f1e0d	-0.019423509
21	0xbc4b5478	-0.012410276
22	0xbd342917	-0.0439845
23	0x3daac086	0.08337502
24	0x3dbdbbe9	0.09264357
25	0xbd63b68a	-0.055594005
26	0xbd97ee05	-0.074184455
27	0xbcae052c	-0.0212427
28	0xbc8af976	-0.016964655
29	0x3d97db9f	0.07414936
30	0xbd606170	-0.054780424
31	0x3d6c5f8b	0.057708304
32	0xbc822f87	-0.015891803
33	0xbdb0d09c	-0.08633539
34	0xbdb435ba	-0.0879931
35	0xbd1543c1	-0.03644157
36	0x3d164a1b	0.036691766
37	0xbc8b4324	-0.016999789
38	0xbd030bfd	-0.031993855
39	0xbda4bceb	-0.08043846
40	0xbdba7a0b	-0.09105309
41	0xbd69179a	-0.056907274
42	0x3d03ae1b	0.03214846
43	0x3cc3aa26	0.023884844
44	0xbcf72fb3	-0.030174112
45	0x3ba2151a	0.004946363
46	0x3cd12db3	0.025534486
47	0xbcd2bc0e	-0.025724437
48	0xbc16f5e7	-0.009213901
49	0x3dbeea1f	0.09321999
50	0xbdaf788a	-0.08567913
51	0xbd908d5d	-0.07058213
52	0xbb40ca72	-0.0029417542
53	0xbcf21820	-0.02955252
54	0x3dab35e8	0.08359891
55	0x3da67d93	0.0812942
56	0x3d7dd82c	0.061973736
57	0xbd0bcd6d	-0.034131456
58	0x3c350f52	0.011051016
59	0x3b5082d5	0.0031816263
60	0xbb1f6c33	-0.0024325966
61	0x3d5189e7	0.051156905
62	0xbda8faff	-0.08250999
63	0xbd8c695c	-0.06856033
64	0x3d8e855a	0.069590285
65	0x3dadc653	0.08485093
66	0xbb0c0600	-0.002136588
67	0xbce95b2d	-0.028485859
68	0xbd98e813	-0.0746614
69	0xbd9aa7aa	-0.07551511
70	0xbd4ff37b	-0.05076931
71	0x3d7cfe14	0.061765745
72	0xbd4401ea	-0.047853388
73	0x3d671cec	0.056424066
74	0xbcfd9973	-0.03095696
75	0xbcc16157	-0.023605986
76	0x3c186484	0.009301309
77	0x3d370f72	0.044692464
78	0x3a800d9a	0.0009769679
79	0xbd222cbe	-0.03959345
80	0x3db283c9	0.08716542
81	0xbda6fe3d	-0.08153961
82	0x3d4b3871	0.049614374
83	0xbce1a0ef	-0.02754256
84	0xbd3ead9a	-0.046552278
85	0x3d2c411a	0.042054273
86	0x3c77aa7e	0.015116332
87	0x3aad2f33	0.0013212919
88	0xbd65cd88	-0.056104213
89	0x3d46dab8	0.04854843
90	0xbd198a0d	-0.03748517
91	0x3ce78f89	0.028266685
92	0xbc0336db	-0.008008684
93	0xbc8c63da	-0.017137457
94	0xbda53357	-0.08066433
95	0xbd075697	-0.033041563
96	0x3d962d25	0.073328294
97	0xbb546a2c	-0.0032411916
98	0xbccc79fc	-0.02496051
99	0x3d97dbce	0.07414971

linear3.weight f4 [3, 100]
0	0x3d70332b	0.058642548
1	0xbcbe9619	-0.023264932
2	0x3d77bbd3	0.060481858
3	0xbc405c8c	-0.011740815
4	0x3c28e2d8	0.01030799
5	0x3d6fddbe	0.05856108
6	0x3af7f417	0.0018917349
7	0xbcc56abb	-0.024098745
8	0x3d2ccdb7	0.042188372
9	0x3cce6fa9	0.025199728
10	0xbcd3209f	-0.02577239
11	0x3e17d9ee	0.14829227
12	0x3b515f67	0.0031947733
13	0x3b0df746	0.002166228
14	0xbce0c048	-0.027435437
15	0xbaf5ce2a	-0.0018753458
16	0xbcea0c0d	-0.0285702
17	0x3cad762c	0.021174513
18	0x3c90f278	0.017693743
19	0xbcf51dc5	-0.029921422
20	0x3b0dbb0d	0.0021626384
21	0x3e02364d	0.12716027
22	0x3b366a9d	0.0027834543
23	0x3d6459aa	0.055749573
24	0xbc8e5c29	-0.01737793
25	0x3ae56608	0.0017501721
26	0x3b10ce3d	0.0022095584
27	0x3d1405a0	0.036138177
28	0xbd05cd7d	-0.032666672
29	0xbdb6cf97	-0.08926313
30	0xbade124d	-0.001694271
31	0x3c7c60f4	0.015403975
32	0xba60b587	-0.00085719716
33	0xbcb0a3e6	-0.021562528
34	0x3dd7dba1	0.10539938
35	0xbd1ded5b	-0.038556438
36	0x3e0cea12	0.13761166
37	0x3e031e97	0.12804638
38	0x39d1742d	0.00039950144
39	0x3d9e87dc	0.07740757
40	0x3b240478	0.0025027078
41	0x3dd6a130	0.10479963
42	0xbd1bd331	-0.038043205
43	0xbcd39276	-0.025826674
44	0x3b351405	0.002763034
45	0xbad16202	-0.0015974643
46	0xbda7f6d8	-0.082013786
47	0x3ca0e493	0.019640243
48	0x3a49caae	0.0007697743
49	0x3d59eef2	0.05320639
50	0xbb3b5316	-0.0028583459
51	0xbe6d950f	-0.23201393
52	0x3d5c8722	0.05383981
53	0x3d43a43e	0.047764055
54	0x3d019040	0.03163171
55	0x3d9cb126	0.07650976
56	0xbca86d63	-0.020559972
57	0xbcb633fd	-0.022241587
58	0xbd0cbafd	-0.034358013
59	0x3d93939f	0.07205891
60	0x3b0ff714	0.0021967338
61	0xbc2d03d4	-0.010559995
62	0x3b25a751	0.002527673
63	0xbccf089c	-0.02527266
64	0x3c42cecd	0.011890125
65	0x3ad991db	0.0016599254
66	0x3b2dd4f5	0.0026524637
67	0xbb097f23	-0.002098032
68	0xbac68fde	-0.0015149077
69	0x3b108bcd	0.0022055984
70	0xbde4f836	-0.11180155
71	0xbcacc52e	-0.021090116
72	0x3b0bb870	0.002131965
73	0x3afad23d	0.0019136142
74	0x3b333d09	0.0027349612
75	0x3daa2edc	0.08309719
76	0xbb86c86a	-0.0041132467
77	0x3c9f7772	0.019466136
78	0x3ae4de50	0.0017461274
79	0xbd0a8308	-0.033816367
80	0xbcedf445	-0.02904714
81	0x3db811fa	0.08987804
82	0x3d2403a0	0.04004252
83	0xbe3da21f	-0.18518876
84	0x3d4d72ef	0.050158437
85	0xbd0954ff	-0.033528324
86	0x3d327a9b	0.043573957
87	0x3a9b7d93	0.0011862986
88	0xbdb269f3	-0.087116145
89	0x3cfacecc	0.030616187
90	0xb95e091f	-0.00021174968
91	0xbe91cecd	-0.2847809
92	0x3d76a716	0.06021794
93	0xba541860	-0.00080907904
94	0xbd19c63f	-0.037542578
95	0x3d89cff5	0.06729118
96	0x3b2c9923	0.0026336394
97	0x3c9c1177	0.019051297
98	0xbb2a3a0b	-0.0025974538
99	0xbd2a3e99	-0.041563604
100	0x3cfe32ff	0.031030176
101	0xbbdd76ed	-0.006758562
102	0x3d967bb3	0.073478125
103	0xbb98892e	-0.004655025
104	0x3ad003e6	0.0015870302
105	0xbceb6afc	-0.028737538
106	0xbb18292a	-0.0023217895
107	0xbbe7f0e0	-0.007078275
108	0xbd180e9e	-0.037123315
109	0xba045c96	-0.0005049197
110	0xbbf84891	-0.00757701
111	0x3e1ef8e9	0.15524639
112	0x3c054d55	0.008136113
113	0x3b38ba02	0.0028187041
114	0xbc44e6af	-0.01201789
115	0x39f88ff8	0.0004740951
116	0xbb6145ae	-0.0034373808
117	0x3b93920e	0.004503495
118	0x3a8fbdf6	0.0010966647
119	0xbc479cb3	-0.012183356
120	0xbb2ddb77	-0.0026528516
121	0x3dcc1ca2	0.09966399
122	0xba557c89	-0.00081438624
123	0x3c51e877	0.012811772
124	0xbbd1e98b	-0.0064060143
125	0xb98551ec	-0.00025428773
126	0xba271c44	-0.00063747563
127	0x3d49b8ed	0.049248625
128	0xbb8af9f0	-0.0042412207
129	0xbe7dad79	-0.24773206
130	0xba40816f	-0.0007343506
131	0xbc0bbb44	-0.008528534
132	0xb957a579	-0.00020565641
133	0xbd9f30d1	-0.07772983
134	0x3e1221a9	0.14270653
135	0xbe003ad4	-0.12522441
136	0x3e1345b8	0.14382064
137	0x3e4a8c38	0.19780052
138	0xbb158360	-0.0022813901
139	0x3d38409c	0.04498349
140	0xbb305675	-0.0026907
141	0x3e00cde7	0.12578546
142	0xbbab61d4	-0.005230168
143	0xbc1414a0	-0.0090381205
144	0x3b0ee826	0.0021805852
145	0x3b2da44d	0.0026495636
146	0xbe06a640	-0.13149357
147	0x39994ae3	0.0002923823
148	0x3b1fadfb	0.0024365175
149	0x3b8fe0be	0.004390805
150	0x3b38ddbf	0.0028208343
151	0x3c611f9c	0.013740446
152	0x3caac3ed	0.020845378
153	0x3c844bd6	0.016149443
154	0x3b8e95d8	0.004351359
155	0x3d5b9be6	0.053615473
156	0xbbaa0de8	-0.005189646
157	0x3bd251bc	0.006418435
158	0xbbdff01d	-0.0068340437
159	0x3cc7c287	0.02438475
160	0xbaf01608	-0.0018317113
161	0xbb305936	-0.0026908643
162	0x39dca4d1	0.00042084468
163	0xbc0446f0	-0.008073553
164	0xbb801ed5	-0.0039099255
165	0xba87a776	-0.001034959
166	0x3ab41d3b	0.0013741622
167	0x3a4ecd2b	0.0007888849
168	0xb9dbf21d	-0.00041951324
169	0xba19f019	-0.0005872264
170	0xbe154118	-0.14575613
171	0xbc200be2	-0.009768458
172	0x3b19f2b2	0.0023490605
173	0xbab8a95b	-0.0014088558
174	0xbb40dee5	-0.002942973
175	0x3d900a67	0.07033234
176	0x3a7adc06	0.0009569529
177	0x3c088ac6	0.008333867
178	0xbb3b5c7d	-0.0028589063
179	0xbc29fd2c	-0.010375302
180	0xbb2f3822	-0.0026736339
181	0x3dc9c326	0.09851675
182	0x3c8215e8	0.015879586
183	0xbc20af9d	-0.0098074945
184	0x3d0c486b	0.03424875
185	0x3c2414c7	0.010014719
186	0x3c16eafe	0.0092113
187	0x3afe5c52	0.0019406176
188	0xbe056c2f	-0.1302955
189	0x3b8d6642	0.0043151686
190	0x3b1ac409	0.0023615381
191	0x3d9f95a6	0.07792215
192	0xbb8ffdf3	-0.004394287
193	0x3b25b6be	0.0025285925
194	0xbc51db3b	-0.012808616
195	0x3d9b3fef	0.07580554
196	0x3c1233ca	0.00892348
197	0xbd3de81d	-0.04636394
198	0x3b251c77	0.0025193968
199	0xbc1ba41d	-0.009499577
200	0x3d84e0b5	0.06488172
201	0xbbb8b3f0	-0.0056366846
202	0x3e5b941d	0.2144322
203	0xbd0f235c	-0.03494583
204	0xbd4a2b6a	-0.04935781
205	0x3e000f28	0.12505782
206	0xba416cc1	-0.00073785713
207	0xbc82ab07	-0.015950693
208	0x3d87cc80	0.06630802
209	0xbba8b019	-0.0051479456
210	0xbca81361	-0.020517053
211	0x3e50aad5	0.20377667
212	0xbc57ab65	-0.013163422
213	0xbb2bd401	-0.0026218893
214	0xbd187a78	-0.03722617
215	0xb88beb85	-6.6719054e-05
216	0xbb78c34b	-0.00379582
217	0x3c144885	0.009050493
218	0x3abf8101	0.001461059
219	0xbd0bdcb2	-0.03414602
220	0x3ac1994c	0.0014770417
221	0x3e03c743	0.12868981
222	0x3b42648d	0.0029661984
223	0x3c0de516	0.008660575
224	0x3bd0eb29	0.0063756895
225	0x3b17e424	0.0023176754
226	0xbb0a5f74	-0.0021114023
227	0x3e36c99d	0.17850347
228	0xbc973b7d	-0.018460983
229	0xbe11495c	-0.1418814
230	0x38f495e3	0.00011662745
231	0x3e0adcc0	0.13560772
232	0x3adc45d3	0.0016805477
233	0x3dd5f751	0.104475625
234	0x3dfd7076	0.12374966
235	0x3d2f40a6	0.042786263
236	0x3e0c85f2	0.13722971
237	0x3e42de52	0.19030121
238	0xbaccc091	-0.0015621354
239	0x3d99df5d	0.07513306
240	0x3a9b6629	0.0011856008
241	0x3e23190b	0.15927522
242	0xbd17af70	-0.037032545
243	0xbcc38c0a	-0.023870487
244	0x3ac950f4	0.0015359209
245	0xbb3d41d5	-0.002887835
246	0xbd25a653	-0.040441822
247	0x3bbd603e	0.005779295
248	0x387a77f0	5.9716345e-05
249	0xbbeab2ff	-0.0071624513
250	0xbb062124	-0.002046653
251	0xbe1c2633	-0.15248947
252	0x3cc46369	0.023973184
253	0x3d118a29	0.03553215
254	0xbc3a570d	-0.011373294
255	0x3dd1eeb1	0.10250605

linear3.bias f4 [3]
0	0xba8027cd	-0.0009777487
1	0xbbac07dd	-0.005249961
2	0xbbe2c069	-0.0069199097
