checkpoints/single-phase/123bus/linear/safe-flow_value_net_checkpoint_a12.pth (torch, 44119 bytes, 5 tensors)

linear1.weight f4 [100, 2]
0	0xbeaddba6	-0.3395664
1	0x3e91c4d4	0.2847048
2	0x3eb4ce14	0.35313475
3	0x3f3b32bf	0.7312431
4	0x3f07a958	0.52992773
5	0x3dc124dc	0.094308585
6	0xbf11124b	-0.5666854
7	0xbd8d35e8	-0.068950474
8	0xbf0e202c	-0.5551784
9	0xbe994af3	-0.29939994
10	0x3f1fd67f	0.6243667
11	0x3eafa37d	0.3430442
12	0x3f03e969	0.5152803
13	0xbe9d9ed2	-0.30785233
14	0x3e8718c2	0.26386076
15	0xbc51eb0e	-0.012812389
16	0x3ca23615	0.019801179
17	0xbdbb76c3	-0.091535114
18	0x3eab373a	0.33440572
19	0xbeb1caca	-0.34725028
20	0x3f12671a	0.5718857
21	0x3f14302c	0.57886004
22	0xbedb4636	-0.42827004
23	0x3ee0c68e	0.43901485
24	0x3f196eb6	0.59934556
25	0xbf1cbe86	-0.61228216
26	0x3ecd82ee	0.40138954
27	0xbf05b9bc	-0.52236533
28	0xbe93db17	-0.2887809
29	0x3edf1c59	0.43576315
30	0xbdec843c	-0.11548659
31	0xbdf80a24	-0.12111309
32	0xbef9e78c	-0.4880947
33	0xbeec3061	-0.4613066
34	0xbef7ec1a	-0.4842232
35	0x3f3aab96	0.7291807
36	0xbf01662f	-0.50546545
37	0xbe8385e5	-0.2568809
38	0xbece5b70	-0.40304136
39	0xbd5971eb	-0.053087156
40	0x3eeffc9c	0.46872413
41	0xbef91aa6	-0.48653144
42	0xbec0f5e9	-0.37687615
43	0xbeade762	-0.33965594
44	0xbedc55ad	-0.43034115
45	0xbf04cac4	-0.51871896
46	0xbe452555	-0.19252522
47	0x3ee2e8d5	0.44318262
48	0xbefa7efd	-0.4892501
49	0xbf2179ec	-0.63076663
50	0x3f04a4b8	0.5181384
51	0xbe6e8a02	-0.23294833
52	0xbeb7daa7	-0.35909006
53	0xbe68edb9	-0.22746934
54	0x3f2483b2	0.6426345
55	0xbe8ae721	-0.27129462
56	0xbe9817dd	-0.29705706
57	0xbee738db	-0.45160565
58	0xbece6fab	-0.4031957
59	0x3ecba27c	0.39772403
60	0xbe757640	-0.2397089
61	0x3e6bf2e8	0.2304188
62	0xbecb6419	-0.39724806
63	0x3ee0961c	0.43864524
64	0x3e8d7346	0.2762701
65	0x3f37724e	0.7165879
66	0x3eb4ef20	0.35338688
67	0xbebc4baf	-0.36776492
68	0xbc809c73	-0.0156996
69	0x3e296599	0.16542663
70	0xbef50748	-0.47857118
71	0x3eb940f1	0.3618236
72	0xbf2adc88	-0.66742754
73	0xbf252876	-0.64514863
74	0x3e997793	0.2997404
75	0xbef037a9	-0.46917465
76	0xbd898d95	-0.06716458
77	0xbeccc05e	-0.39990515
78	0x3e9c8816	0.30572575
79	0xbeafb4d3	-0.34317645
80	0x3de4e59c	0.11176607
81	0x3f025675	0.5091317
82	0xbed86fc6	-0.42272776
83	0xbf31b19f	-0.69411653
84	0x3dfc2468	0.123116314
85	0xbeae5ca6	-0.3405506
86	0x3d012aa0	0.03153479
87	0xbe095fbd	-0.13415428
88	0xbe1ca85c	-0.15298599
89	0xbf328dc5	-0.69747573
90	0xbbd1006a	-0.006378223
91	0xbedd6c23	-0.43246564
92	0x3ddd1a62	0.10796048
93	0x3f1a3405	0.60235626
94	0x3f007b0b	0.5018775
95	0xbf00bf69	-0.5029207
96	0x3f380ab5	0.7189134
97	0x3ef57e7e	0.47948068
98	0x3f24844e	0.6426438
99	0xbe91c6ad	-0.2847189
100	0xbe43a14d	-0.191045
101	0xbe46319b	-0.1935486
102	0x3f089339	0.53349644
103	0xbf306726	-0.6890739
104	0xbf2d1a7e	-0.6761855
105	0xbc8734e0	-0.016504705
106	0x3d80c5ce	0.06287728
107	0xbe891528	-0.26773953
108	0x3f01ff64	0.5078032
109	0x3f2f5b65	0.6849883
110	0x3f1e138c	0.61748576
111	0xbe341ec9	-0.17589869
112	0xba41e6c9	-0.00073967554
113	0xbe995218	-0.29945445
114	0x3ea01965	0.31269374
115	0xbf1bb42c	-0.60821795
116	0xbe436756	-0.19082388
117	0x3f1ee271	0.6206427
118	0x3d8baeb9	0.06820435
119	0xbed26831	-0.41095117
120	0x3f327642	0.697117
121	0x3ecd0da6	0.40049475
122	0x3f372aeb	0.7154986
123	0xbe1979e3	-0.14987902
124	0xbe80bf89	-0.2514613
125	0x3f358d90	0.7091913
126	0x3ebbe4a0	0.36697865
127	0xbe0c759b	-0.13716738
128	0x3e330f5d	0.1748633
129	0xbe91dd3b	-0.28489098
130	0xbee23811	-0.441834
131	0xbe9832d3	-0.29726276
132	0x3ee9d5a4	0.45670807
133	0xbeddd67c	-0.433277
134	0xbdb8902a	-0.09011872
135	0x3e666097	0.22497784
136	0xbed5bf5e	-0.41747564
137	0xbf0a0720	-0.5391712
138	0x3e0c1b35	0.13682254
139	0xbf338107	-0.70118755
140	0x3e938d18	0.28818583
141	0x3ecfc8be	0.40582842
142	0xbde72d87	-0.112879805
143	0x3eb3a2d4	0.35085166
144	0xbf060c2a	-0.5236231
145	0xbf07c611	-0.530366
146	0x3e2917be	0.16512963
147	0xbeffd963	-0.4997054
148	0xbd50ad4e	-0.050946526
149	0x3e99b80a	0.30023223
150	0xbe7a2266	-0.24427184
151	0x3e980ccb	0.2969726
152	0xbea779ca	-0.32710105
153	0xbed0cd49	-0.4078162
154	0x3ee0beb1	0.43895486
155	0xbe5ec465	-0.21754606
156	0xbf002f60	-0.5007229
157	0xbef778be	-0.48334306
158	0xbf12bdec	-0.5732105
159	0x3f3cba15	0.7372144
160	0xbf076f3d	-0.5290411
161	0xbf006e02	-0.5016786
162	0x3f28291a	0.65687716
163	0x3e8a5b68	0.27022862
164	0xbdb5d0bb	-0.08877703
165	0x3de5ba07	0.112171225
166	0xbe445129	-0.19171585
167	0x3ef3be75	0.47606245
168	0x3e7f6529	0.24940933
169	0x3e485a5c	0.1956572
170	0x3f680627	0.9063439
171	0x3eafcb87	0.34334967
172	0x3f1941be	0.5986594
173	0xbf0fa15e	-0.561056
174	0xbeeba720	-0.46025944
175	0x3f34735f	0.7048854
176	0xbf36219c	-0.71145034
177	0x3edece60	0.43516827
178	0x3ee08ba7	0.43856546
179	0xbed3c4b3	-0.41361007
180	0xbea2adae	-0.31773132
181	0x3da8c8d2	0.082414284
182	0x3f15bcfe	0.58491504
183	0xbf28aba1	-0.65886885
184	0x3eb152b4	0.3463341
185	0x3ebb95c1	0.3663769
186	0xbebd6f87	-0.3699915
187	0xbdf5d5e7	-0.12003689
188	0xbd858244	-0.06518987
189	0xbe1bb988	-0.15207493
190	0x3f37791d	0.7166918
191	0xbea28f27	-0.31749842
192	0x3e04066d	0.12893076
193	0x3ee55b06	0.44796008
194	0x3d959a1f	0.07304787
195	0xbdc09857	-0.094040565
196	0xbeba8607	-0.3643038
197	0x3eb9c92b	0.3628629
198	0x3f2e69fb	0.68130463
199	0x3f3c3164	0.73512864

linear1.bias f4 [100]
0	0x3e738454	0.23780948
1	0xbe1a4a2a	-0.15067354
2	0x3e1415a3	0.14461379
3	0x3e5f92f2	0.21833399
4	0x3e8fccda	0.28085977
5	0x3e804234	0.2505051
6	0xbf24681f	-0.64221376
7	0xbeb10476	-0.34573716
8	0xbf291c15	-0.66058475
9	0x3cf0d9a0	0.029400647
10	0xbf2ed5ca	-0.68294966
11	0x3eadbfbe	0.3393535
12	0xbf04e22d	-0.51907617
13	0xbe8a6db8	-0.27036834
14	0xbf4736cd	-0.77817994
15	0x3f31ea0d	0.6949776
16	0xbde008e2	-0.10939194
17	0xbe77c436	-0.24195942
18	0xbf1603ea	-0.5859972
19	0xbe351284	-0.17682844
20	0x3f3a402e	0.7275418
21	0x3dda08c0	0.106462
22	0xbf253f0b	-0.6454932
23	0x3e11e507	0.14247523
24	0xbeb4007c	-0.3515662
25	0xbeea7785	-0.4579431
26	0xbe0eec66	-0.13957366
27	0x3eafa426	0.34304923
28	0xbf2ff6ee	-0.6873616
29	0x3eeed617	0.46647713
30	0x3e056705	0.1302758
31	0x3ed2db62	0.41183
32	0x3e3f42bd	0.18677802
33	0x3f0cf11b	0.550554
34	0x3ed19f03	0.4094163
35	0xbed4b519	-0.41544417
36	0x3e3b4e6b	0.18291633
37	0xbe338cff	-0.17534254
38	0xbec6d6ac	-0.38835657
39	0x3e844f4f	0.25841758
40	0x3e9628e7	0.2932808
41	0xbf1641bb	-0.58694047
42	0x3ee3c5ea	0.44486934
43	0xbc402133	-0.011726665
44	0xbe78c177	-0.24292551
45	0xbf29c723	-0.66319484
46	0xbeb1b980	-0.34711838
47	0xbea4b955	-0.32172647
48	0x3b582407	0.0032980458
49	0xbf0ca331	-0.5493651
50	0xbf30c585	-0.6905139
51	0x3e84f2ab	0.2596639
52	0x3e3685b4	0.17824441
53	0x3dc96186	0.09833054
54	0x3e6b46d0	0.22976232
55	0x3f159f19	0.5844589
56	0xbe605bfc	-0.21910089
57	0x3f34c0f2	0.7060691
58	0x3e2354b6	0.15950283
59	0x3f1da997	0.615869
60	0x3ea4ef0f	0.32213637
61	0x3f12892c	0.5724056
62	0xbe1d27de	-0.1534724
63	0xbe839f52	-0.2570749
64	0xbdeb6c65	-0.11495284
65	0x3ea08c65	0.31357113
66	0xbef087ca	-0.469786
67	0xbf25c8b1	-0.64759356
68	0x3ea2943a	0.31753713
69	0xbec97731	-0.39348748
70	0x3ea92794	0.33038008
71	0x3ef197b3	0.4718605
72	0xbf10f06d	-0.5661686
73	0xbeb9739f	-0.36221024
74	0x3efb8cc3	0.4913083
75	0xbf393ccd	-0.723584
76	0xbf0ff451	-0.5623217
77	0x3f324574	0.6963723
78	0xbdf6fadb	-0.12059566
79	0xbc4151b9	-0.011799269
80	0xbeff841e	-0.49905485
81	0xbe43aa54	-0.19107944
82	0xbeff16fa	-0.49822217
83	0x3e1c71b7	0.15277754
84	0xbf3a7cb4	-0.7284653
85	0xbea06ac0	-0.31331444
86	0xbc4f5d44	-0.012656514
87	0x3ef5cff1	0.4801021
88	0x3b93e8c5	0.0045138323
89	0xbf20e5f6	-0.6285089
90	0x3f2d2b12	0.67643845
91	0xbede90c4	-0.43469822
92	0xbdd1d1a3	-0.10245063
93	0xbdefc682	-0.11707784
94	0xbf120faf	-0.5705518
95	0x3ef318bc	0.47479808
96	0xbee56586	-0.4480402
97	0x3f1c51af	0.6106214
98	0x3d6b2621	0.05740941
99	0x3f0b421a	0.5439774

linear2.weight f4 [100, 100]
0	0x3d081d4a	0.033231057
1	0x3dcc0588	0.099619925
2	0xbd971515	-0.07377068
3	0xbdc8d3e8	-0.09806043
4	0x3dac2e55	0.08407275
5	0xbda9c91b	-0.08290311
6	0x3cfe5dcd	0.031050587
7	0x3da39ced	0.079889156
8	0xbca9ea5a	-0.02074163
9	0xbd9ce5da	-0.07661028
10	0x3d7ceed0	0.061751187
11	0x3d096523	0.033543717
12	0x3ca1f2ba	0.019769061
13	0x3d8c62a2	0.0685475
14	0xbd30591d	-0.043053735
15	0x3da5cb85	0.08095459
16	0xbd22692a	-0.039651074
17	0x3db4e3ab	0.08832487
18	0xbd858f95	-0.06521527
19	0x3d8bb54d	0.0682169
20	0xbd9fa9db	-0.07796069
21	0xb858999a	-5.1641466e-05
22	0x3db037f7	0.086044244
23	0x3c023773	0.00794779
24	0x3bb9f5cd	0.0056750537
25	0xbc312727	-0.010812557
26	0x3cd4b780	0.025966406
27	0xbc7a16e7	-0.015264249
28	0xbd3844ea	-0.044987597
29	0xbb196f67	-0.0023412348
30	0x3cfd4bed	0.030919993
31	0x3db1ab8a	0.086752966
32	0xbd0d01a7	-0.034425404
33	0x3d8fb67f	0.0701723
34	0x3da5cd53	0.08095803
35	0x3db83a7f	0.08995532
36	0x3ccaba33	0.02474699
37	0x3c64d90d	0.013967765
38	0x3dcc7f45	0.09985212
39	0xbd0a3dda	-0.033750392
40	0xbc1ab433	-0.009442377
41	0xbdaf3e10	-0.08556759
42	0xbd8158fa	-0.06315799
43	0xbdc26863	-0.094925664
44	0x3c1d3667	0.00959549
45	0xbdcb589d	-0.09929011
46	0xbd2c491d	-0.042061914
47	0xbdb86ba8	-0.09004909
48	0x3c01beda	0.007919038
49	0x3d8577e5	0.06517009
50	0x3c4af6b3	0.012387919
51	0x3b4a7100	0.0030890107
52	0xbb997eb3	-0.004684293
53	0xbda572c0	-0.080785275
54	0xbd898b03	-0.067159675
55	0xbd72f41d	-0.059314836
56	0xbd23ff6a	-0.040038504
57	0xbd597b3a	-0.053096034
58	0xbdb11a03	-0.086475395
59	0x3d443d5a	0.047910072
60	0x3d57ae33	0.052656364
61	0xbcdb0320	-0.026734889
62	0xbd347a70	-0.044062078
63	0xbdbdb1e2	-0.09262444
64	0xbd6f394d	-0.058404256
65	0xbd9c24df	-0.0762422
66	0x3d956d73	0.072962664
67	0xbbd3f400	-0.006468296
68	0xbd5810ea	-0.052750506
69	0x3da2c9fd	0.079486825
70	0x3b8d964d	0.0043208958
71	0xbdae64e2	-0.085153356
72	0x3c32b4f3	0.0109073995
73	0xbda1c06d	-0.078980304
74	0x3d57bb9d	0.052669156
75	0x3d750450	0.059818566
76	0x3d5f7757	0.05455717
77	0x3d86fb98	0.065909564
78	0xbd213640	-0.039358377
79	0x3ca30d33	0.019903755
80	0xbd10eb6a	-0.03538076
81	0x3ce298d3	0.027660763
82	0xbd7cd677	-0.061727967
83	0xbdbd1457	-0.09232395
84	0xbd82f84a	-0.06395014
85	0xbdc29068	-0.095001996
86	0xbcbae360	-0.022813499
87	0x3d7b9dcd	0.061429787
88	0x3d2d6cca	0.042340077
89	0x3dad9760	0.08476138
90	0x3b346e9a	0.0027531744
91	0x3d997a70	0.07494056
92	0x3d4c7000	0.0499115
93	0xbdb93c5b	-0.09044715
94	0x3cfc0ffa	0.030769337
95	0x3d9306a7	0.07179003
96	0x3da6a64f	0.081371896
97	0x3ccb85fa	0.024844158
98	0x3c89ea3a	0.01683532
99	0xbd746c37	-0.059673514
100	0xbe48759b	-0.19576113
101	0xbd90727d	-0.07053087
102	0x3dd0c4d5	0.10193793
103	0xba7f159a	-0.0009730697
104	0xbdd836ed	-0.10557351
105	0x3e244a91	0.1604407
106	0x3c8fcc90	0.017553598
107	0xbae6b400	-0.0017601252
108	0xbd7eff1d	-0.062255014
109	0x3b158dfe	0.002282023
110	0xbeab9730	-0.33513784
111	0xbc7ede13	-0.015555876
112	0x3db6e948	0.089312136
113	0x3d87b0f6	0.066255495
114	0x3dc4f330	0.09616697
115	0xbc2d74c0	-0.010586917
116	0xbd87c2fb	-0.066289864
117	0xbe4d32bd	-0.20038886
118	0xbd315563	-0.04329432
119	0x3c4f51da	0.012653792
120	0x3d3eba41	0.046564344
121	0x3cd54b84	0.026036985
122	0xbdba2273	-0.09088602
123	0xbe117e36	-0.14208302
124	0x3d22d6f5	0.03975578
125	0x3d5af80a	0.053459205
126	0xbdef4ee6	-0.116849706
127	0x3e08d3b9	0.13362016
128	0xbd9410cd	-0.07229767
129	0xbda94a01	-0.08266068
130	0xbec4708f	-0.38367125
131	0x3e3b245e	0.18275592
132	0xbe155f4d	-0.14587136
133	0x3d4559a0	0.048181176
134	0x3d14ea06	0.036355995
135	0xbdabe652	-0.083935395
136	0xbd817a00	-0.06322098
137	0xb95dc3d2	-0.00021149151
138	0x3cd460a1	0.025924983
139	0x3c0aa30d	0.008461726
140	0x3c7d08a4	0.015443955
141	0x3d8111ad	0.063021995
142	0xbc329339	-0.010899358
143	0xbd6d2f27	-0.057906296
144	0x3d7b7aae	0.061396293
145	0x3e00af2f	0.12566827
146	0xbe64c956	-0.22342429
147	0x3d22f6c1	0.039786104
148	0x3dfadd6e	0.122492656
149	0xba840c21	-0.0010074415
150	0xbdb777eb	-0.089584194
151	0x3d9fad4d	0.077967264
152	0xbd9ec530	-0.07752454
153	0x3d410735	0.047126014
154	0x3dc916ee	0.098188266
155	0xbc9a2bea	-0.018819768
156	0x3d89a425	0.06720761
157	0x3d64aa07	0.055826213
158	0xbd619081	-0.05506945
159	0xbc87ae2b	-0.016562542
160	0x3d7f8e11	0.062391344
161	0xbb59d380	-0.0033237636
162	0x3b831343	0.004000099
163	0xbc60c9f3	-0.013720023
164	0x3b854b36	0.0040678037
165	0xbddd14bd	-0.10794971
166	0x3ddacb4a	0.106833056
167	0x3b739f33	0.0037173748
168	0xbde14610	-0.109996915
169	0x3d987854	0.07444826
170	0x3d7ed8ad	0.062218357
171	0xbdb9e3f1	-0.090766795
172	0xbdc5d262	-0.09659268
173	0x3e05fc0e	0.13084432
174	0x3c7df1f8	0.015499584
175	0x3da84ccd	0.082177736
176	0xbe286fdf	-0.16448925
177	0x3cc1e2f1	0.023667784
178	0xbe044de3	-0.12920336
179	0xbe265ad0	-0.1624558
180	0xbe0ac8ff	-0.13553236
181	0x3dfd2472	0.12360467
182	0xbda12965	-0.078692235
183	0xbe4cc85c	-0.19998306
184	0x3d72faa3	0.059321057
185	0x3e7e37ce	0.24825975
186	0xbce90254	-0.028443493
187	0x3d687961	0.05675638
188	0xbc98a980	-0.018635511
189	0x3c01ae41	0.0079150805
190	0xbd637dbd	-0.055539835
191	0x3dd8e1dd	0.10589955
192	0xbd51d14c	-0.05122499
193	0xbccc75da	-0.02495854
194	0xbd8295c8	-0.06376225
195	0x3e0512ec	0.129955
196	0xbe92a8c9	-0.28644398
197	0xbc96a4bb	-0.018389096
198	0xbd27bd2a	-0.040951885
199	0x3c648938	0.013948731
200	0x3dd6b6b5	0.10484067
201	0xbce877ad	-0.028377378
202	0x3d64b431	0.055835906
203	0xbc477167	-0.012173033
204	0x3d8a715d	0.067599036
205	0x3df6de74	0.12054148
206	0xbf3644ec	-0.71198916
207	0x3d03f7e0	0.032218814
208	0x3d338193	0.043824743
209	0x3ea1603a	0.31518728
210	0xbd0fc7ed	-0.035102773
211	0x3cdffbc0	0.027341723
212	0xbfabf076	-1.3432758
213	0xbf43dec9	-0.7651182
214	0xbf410611	-0.7539988
215	0x3e2e1797	0.17001186
216	0xbab6f667	-0.0013958932
217	0xbcfcd6a2	-0.030864064
218	0x3b218b9a	0.002464986
219	0x3ce05073	0.027382111
220	0xbe5da8b8	-0.21646392
221	0x3cd9b093	0.026573455
222	0xbc0ee600	-0.008721828
223	0x3d5e4985	0.054269332
224	0xbda9b7a3	-0.08286979
225	0xbfe564c6	-1.7921379
226	0xbd838ca5	-0.0642331
227	0xbd4e8dba	-0.05042813
228	0xbc972d60	-0.018454254
229	0xbc488b2c	-0.012240212
230	0x3e18be6d	0.14916392
231	0xbc860cd6	-0.016363543
232	0x3dfe8cb6	0.12429182
233	0xbe91a86c	-0.28448808
234	0x3d914637	0.070934705
235	0xbf238e97	-0.6388945
236	0xbcfc2a60	-0.030781925
237	0xbeccc6ea	-0.3999551
238	0xbd2dc9a3	-0.042428624
239	0x3e82f474	0.25577128
240	0x3def45fc	0.1168327
241	0xbd64c6a3	-0.055853497
242	0x3edcdeaf	0.43138644
243	0xbd9ac41b	-0.075569354
244	0xbc2d4f1a	-0.010577941
245	0x3d2633ea	0.040576853
246	0xbb32bd72	-0.0027273563
247	0xbe558942	-0.20853141
248	0xbd913ec7	-0.07092052
249	0xbf9e43d9	-1.2364455
250	0x3c5da81a	0.013528848
251	0x3eb5c883	0.3550454
252	0xbd4a75f3	-0.04942889
253	0x3eaabad1	0.33345655
254	0x3d4e6a3e	0.05039429
255	0xbb676376	-0.0035307086

linear2.bias f4 [100]
0	0xbd7406f3	-0.05957694
1	0x3c642c4d	0.013926578
2	0x3e21904a	0.15777698
3	0x3cbbfa75	0.022946576
4	0x3d5ce412	0.053928442
5	0x3c417753	0.011808234
6	0xbc2a2726	-0.01038531
7	0xbceb7e26	-0.028746676
8	0xbd6411cd	-0.05568104
9	0x3d4873b7	0.04893848
10	0x3db84d0c	0.089990705
11	0x3de02df6	0.10946266
12	0x3d94c55f	0.07264208
13	0xbd237b7d	-0.03991269
14	0xbcb5aa11	-0.02217582
15	0x3ddc2cd2	0.10750736
16	0x3c6a3d1a	0.014296794
17	0x3c25b767	0.010114527
18	0x3d077e3a	0.033079363
19	0xbd21feef	-0.039549764
20	0x3b0fe7d7	0.0021958256
21	0x3d09b23f	0.033617254
22	0x3e09fdea	0.13475767
23	0x3da88cc3	0.08229973
24	0x3d9f4a97	0.07777899
25	0x3b63bc05	0.003474952
26	0x3de09ab1	0.10967005
27	0xbd351eaa	-0.044218697
28	0xbce36e95	-0.02776269
29	0xbcd5a87a	-0.026081312
30	0xbd49cd15	-0.049267847
31	0x3d834f49	0.06411607
32	0x3db82c22	0.08992793
33	0x3e001021	0.12506153
34	0x3d4ddcbd	0.05025934
35	0xbd34318d	-0.043992568
36	0x3cbcbfea	0.02304073
37	0x3c8a1939	0.01685773
38	0xbc6fc1c0	-0.014633596
39	0x3da8c076	0.08239834
40	0xbd14611d	-0.036225427
41	0x3dbafa67	0.09129792
42	0x3dbbd8ab	0.091721855
43	0x3dd0366a	0.10166629
44	0x3d5324ad	0.05154865
45	0xbd8aed7a	-0.06783576
46	0xbb57b73d	-0.0032915615
47	0x3d32f030	0.043686092
48	0x3c1e60e7	0.009666658
49	0xbcf0bfe9	-0.029388385
50	0x3d91ce1c	0.0711939
51	0x3e0429e4	0.12906605
52	0x3dc33bba	0.09532876
53	0xbd8ba097	-0.068177395
54	0x3d86673d	0.0656266
55	0x3ccaa8ca	0.024738688
56	0x3ddd2e2e	0.10799824
57	0x3c36c373	0.011154997
58	0x3d11084b	0.0354083
59	0xbd63900d	-0.0555573
60	0xbc1b005a	-0.009460533
61	0xbd381d27	-0.044949677
62	0x3c55ee7e	0.013057349
63	0xbcd42c06	-0.025899898
64	0xbd9f70a7	-0.077851586
65	0x3d887c20	0.066643
66	0x3e3980cf	0.18115543
67	0x3dbd86d3	0.09254231
68	0x3e11814d	0.1420948
69	0x3d8dd42a	0.06925233
70	0x3d389430	0.045063198
71	0x3cdaefad	0.026725614
72	0xbab36067	-0.0013685346
73	0x3d92ccc5	0.07167963
74	0x3b9b2e3d	0.0047357366
75	0x3d3f9ce0	0.046780467
76	0xbc3408e9	-0.0109884525
77	0x3b2c1d54	0.0026262598
78	0x3d864711	0.065565236
79	0xbdc2e518	-0.095163524
80	0x3e2eb446	0.17060956
81	0xbccf25ad	-0.02528652
82	0x3d941ae0	0.072316885
83	0xbc43bf9a	-0.011947537
84	0x3cb912d8	0.022591993
85	0x3db0a691	0.0862552
86	0x3c54c1a9	0.012985625
87	0xbc5b3f08	-0.013381727
88	0xbd1d57ff	-0.038413998
89	0x3dda1ec0	0.10650396
90	0x3d59b4a5	0.05315079
91	0x3cd64613	0.02615646
92	0x3c5068bb	0.012720282
93	0xbce62e68	-0.0280983
94	0xbc3d43a2	-0.011551769
95	0x3e2c2e8a	0.16814628
96	0xbda0ea1f	-0.07857155
97	0x3d9a1916	0.07524316
98	0xbda19225	-0.07889203
99	0xbdaf7950	-0.085680604

linear3.weight f4 [1, 100]
0	0xba7c230a	-0.00096182583
1	0x3d5d2027	0.05398574
2	0x3dc236c9	0.09483106
3	0x3d6a668f	0.057226714
4	0x3d774049	0.06036404
5	0x3d9671a7	0.07345896
6	0x3d30267b	0.043005448
7	0xb79f2214	-1.8970146e-05
8	0xbaccaaeb	-0.0015614902
9	0xbe8493bd	-0.25893965
10	0x3d776ea6	0.060408257
11	0x3d8ec647	0.06971412
12	0x3d550ce6	0.052014254
13	0xbb35e2cd	-0.0027753592
14	0x3d5473b2	0.05186815
15	0x3d7a7641	0.061147932
16	0x3b2d05b1	0.0026401097
17	0xba079a2d	-0.0005172815
18	0x3b0c026b	0.0021363746
19	0x3d5e3c84	0.05425693
20	0x3d41f099	0.047348592
21	0x3d7acf5b	0.061232906
22	0x3de4fb70	0.111807704
23	0x3d813381	0.06308652
24	0x3d62bfdc	0.055358753
25	0x3d82f3d5	0.063941635
26	0x3d383937	0.04497644
27	0x3d7004fe	0.05859851
28	0x3d6462d0	0.055758297
29	0x3d7e34b1	0.06206197
30	0x3d3c9cc1	0.04604793
31	0x3dae7d73	0.08520021
32	0x3d37e1ca	0.044893064
33	0x3d398414	0.045291975
34	0x3d92fbe0	0.071769476
35	0x3d822bd4	0.06356016
36	0x3d6da03b	0.058014136
37	0x3d8a06d1	0.067395814
38	0xbaad3e9f	-0.0013217515
39	0x3d4f2159	0.050568912
40	0xba6f25dd	-0.00091227685
41	0x3d8a2298	0.067448795
42	0x3d8a90c5	0.06765894
43	0x3dba33d5	0.090919174
44	0xba89888a	-0.0010492962
45	0xba56cbac	-0.00081938016
46	0x3d9442aa	0.07239278
47	0xbadfb25a	-0.0017066703
48	0xbafa409e	-0.0019092744
49	0x3d913667	0.070904545
50	0x3d7c5291	0.06160218
51	0x3dda3cbf	0.10656118
52	0x3d749aa9	0.059717808
53	0xba538740	-0.0008069165
54	0x3dd911bc	0.10599086
55	0x3d756e85	0.059919853
56	0x3d40dc58	0.047085136
57	0xba7585a0	-0.000936592
58	0x3d5c1153	0.05372746
59	0x3dcb02f4	0.09912673
60	0x3b105929	0.00220258
61	0x3d7a96d0	0.061178982
62	0x3d69385d	0.056938518
63	0x3d6c86e7	0.05774584
64	0x3b1d3099	0.0023985265
65	0x3d577b7c	0.052608
66	0x3da69c62	0.081352964
67	0x3d9e6517	0.07734125
68	0x3d8a1262	0.067417875
69	0x3d9ca103	0.07647898
70	0x3d62658c	0.055272624
71	0x3ad21964	0.0016029296
72	0xba9bcd00	-0.0011886656
73	0x3d37c8ea	0.04486934
74	0x3db02093	0.08599963
75	0x3b2fb3f6	0.0026810146
76	0x3d6a39e8	0.05718413
77	0x3d52a89d	0.051430333
78	0xbe820392	-0.2539335
79	0x3d6e8dbe	0.058240645
80	0x3dc7106e	0.097199306
81	0x3d27d802	0.040977485
82	0x3add7b23	0.001689766
83	0xb99cca6b	-0.00029905452
84	0xbcb40a5d	-0.021977598
85	0x3d41a7cc	0.047279164
86	0x3d5e0fa5	0.05421414
87	0x3d77c595	0.060491163
88	0x3d836241	0.06415225
89	0x3d529651	0.051412884
90	0x3d64cc6a	0.055859007
91	0x3d97a7fb	0.074050866
92	0x3d6347a3	0.05548824
93	0x3d1ecc96	0.038769327
94	0x3d93a935	0.07210008
95	0x3db1cac3	0.08681252
96	0x3d81ef48	0.063444674
97	0x3dd34da0	0.1031754
98	0xbb3ac34b	-0.0028497751
99	0x3a0b7c47	0.0005320948
