checkpoints/single-phase/123bus/linear/safe-flow_value_net_checkpoint_a9.pth (torch, 44119 bytes, 5 tensors)

linear1.weight f4 [100, 2]
000000 bd be 19 3f 2e d7 35 bf ae 1c 62 3d 1f 30 31 bd
       0.6005667 -0.71031463 0.055203132 -0.043258782
000010 51 af 4e 3f 23 bc b3 3e d2 8f 79 be 76 1d 03 3f
       0.8073626 0.35104474 -0.2437127 0.5121683
000020 ef c8 3e bf fd dc d0 3e 16 86 0c 3e c0 8e 1f 3f
       -0.7452535 0.407936 0.13723025 0.62327194
000030 08 33 04 bf c7 53 e7 be 0a 05 3b 3f 08 18 3d bf
       -0.5164037 -0.45181105 0.73054564 -0.73864794
000040 5d b6 86 bd aa 18 1d 3f 9b 12 fb 3e 21 f4 26 3f
       -0.06577752 0.6136576 0.49037632 0.6521626
000050 90 a2 f9 3d f4 a8 19 bd 8b 02 1e 3f ba 61 e1 bd
       0.121892095 -0.037514642 0.6172263 -0.11004968
000060 8c b9 24 be b1 a0 22 bf 05 05 f2 3e 46 1b ff 3d
       -0.16086406 -0.63526446 0.47269455 0.12456374
000070 29 78 bc bd d9 5a bf 3e 43 13 7f 3f 5a 51 42 3e
       -0.09202606 0.37374 0.99638766 0.18976346
000080 e6 f2 08 3f 5e 17 ce bd 84 53 94 3e ce f2 1a bf
       0.53495634 -0.10063051 0.28969967 -0.6052674
000090 f6 4a 44 3f 5f 88 ac be 9e 14 42 3f 43 41 19 3f
       0.7667688 -0.33697793 0.7581271 0.59865206
0000a0 71 89 21 bf a8 3a 58 be 92 02 f2 3e a4 d2 ee 3e
       -0.63100344 -0.21116126 0.47267586 0.4664508
0000b0 a1 83 c1 3e f1 71 84 3d d7 7c d2 bd c8 d5 7c 3e
       0.37795737 0.06467045 -0.102777176 0.24690926
0000c0 59 8c ac be fa e4 2f 3d 81 b2 1e 3f f7 8d 3d bd
       -0.33700827 0.04294298 0.61991125 -0.046277966
0000d0 3e 04 0a bf 5c 5d d2 3d ef f1 06 bf f2 52 19 bf
       -0.53912723 0.10271713 -0.5271291 -0.5989219
0000e0 a6 ef 8d be 4e 2e 9c 3e 7b b8 cf be db f8 75 3e
       -0.277219 0.30504078 -0.40570435 0.24020712
0000f0 be 4f 20 be c2 86 54 be dd 6d 12 bf ba 4a 8c be
       -0.15655419 -0.20754531 -0.5719889 -0.27400762
000100 04 d8 51 3f 89 95 01 3f 16 b2 13 3f 51 22 14 3f
       0.8197024 0.506188 0.5769361 0.5786486
000110 7b 0c e9 bd 28 41 cd be ae 49 7f 3e 86 90 8b 3e
       -0.113793336 -0.40088773 0.2493045 0.272587
000120 ca d6 54 bd 3c 79 28 bf bf 5c c9 be bf 22 3f 3c
       -0.05196265 -0.6580999 -0.39328572 0.011665999
000130 5c e8 1a bf 9c 16 aa be 4f 4f ee 3e 56 86 bb 3e
       -0.605108 -0.33220375 0.46544883 0.36625928
000140 39 e8 4f 3f e5 79 27 bf c2 f6 fc 3d f4 83 06 3f
       0.8121372 -0.6542037 0.12351753 0.52545094
000150 a2 3f 08 3f 59 78 1e 3f f5 f1 2e 3e a1 21 3a 3d
       0.53222096 0.61902386 0.17084487 0.045442227
000160 a4 a8 98 3e 25 8d 86 3e d8 d3 64 bc 20 5b 09 bf
       0.29816163 0.2627956 -0.013966523 -0.5365467
000170 36 a5 a3 3e 39 03 41 3e d3 74 88 3d 55 99 cb 3e
       0.31961983 0.18848886 0.066629075 0.3976542
000180 78 1e 59 be 78 2d 03 3f e1 f8 2c bf a1 83 04 bf
       -0.21203029 0.51241255 -0.6756726 -0.5176335
000190 d5 15 16 3f 10 36 45 bd ec e4 20 3f 2d 56 d5 3e
       0.58627063 -0.04814726 0.6284931 0.4166731
0001a0 58 64 07 3f fc 37 04 bf 28 13 7f 3e f0 c1 d5 3e
       0.5288749 -0.51647925 0.24909651 0.41749525
0001b0 30 36 09 bf 74 3f 69 bd 73 31 1d 3f 68 35 39 bf
       -0.5359831 -0.05694528 0.6140358 -0.72347116
0001c0 ad 48 cd 3e 8f 9d 72 be 53 5a df 3e ed 7b 06 bf
       0.4009451 -0.23692916 0.436236 -0.52532846
0001d0 01 e1 cb be 23 43 81 be e6 5a 04 3e c4 a4 72 3d
       -0.39820102 -0.25246534 0.129253 0.059239164
0001e0 95 69 39 be 8d 06 c8 bb 01 6b df 3e eb ac 17 3f
       -0.18106683 -0.0061042965 0.43636325 0.59248227
0001f0 32 27 f0 be 21 c3 37 bf 2f a7 7b be fa b5 d7 3e
       -0.46904904 -0.7178212 -0.24575494 0.42131025
000200 d7 b1 c5 3e ac c1 2d 3f 32 f0 0c be c5 f6 a5 3e
       0.38612244 0.67873645 -0.13763502 0.32414833
000210 35 14 0b bf c9 b6 ca 3d 4f bc cc 3e b7 e7 2d 3f
       -0.5432771 0.09898145 0.39987418 0.67931694
000220 01 f2 da 3d d4 65 e6 3e 94 8a 65 be 0e 56 d4 3e
       0.1069069 0.44999564 -0.22416145 0.41471905
000230 82 29 23 3f d3 aa 8d 3e 54 00 e4 be 42 72 6a be
       0.6373521 0.2766939 -0.445315 -0.22895148
000240 ad 59 df 3e 1e 5e 32 3e a8 e6 e5 be c8 5d 2e 3f
       0.43623105 0.17418715 -0.4490254 0.6811185
000250 f1 ef 09 bf 7e 2c 1c bf 96 08 81 3e e1 64 0a bf
       -0.53881747 -0.6100539 0.25201863 -0.5406018
000260 55 04 b9 3e aa ee 7f 3e 7f f3 0c bf 18 09 1f 3f
       0.36136118 0.24993387 -0.55059046 0.6212325
000270 4e 58 32 3e e1 3a f6 3e 51 0a a2 3d b3 a8 10 3f
       0.17416498 0.48091796 0.07912124 0.56507415
000280 dc d0 90 be d7 b8 e0 3e 08 84 a1 be 3d fb 23 bd
       -0.28284347 0.43891022 -0.31546044 -0.04003452
000290 6a c7 bb 3e 96 ac 12 3f 74 9d 30 3f 03 4d dc be
       0.36675578 0.57294595 0.68990254 -0.43027505
0002a0 a3 62 0b bf 29 91 ab be 1b d2 48 3e df bf aa 3e
       -0.5444738 -0.33509186 0.19611399 0.3334951
0002b0 e9 8a ea 3e b4 67 e5 be e7 5b f0 3e 0c 97 f6 3d
       0.45809105 -0.44805682 0.46945116 0.12040529
0002c0 57 14 41 be 0f c2 2a be 78 49 7a 3c 5e 9d ef be
       -0.18855415 -0.1667559 0.015276305 -0.4679975
0002d0 26 6e 03 3f b3 ff 0d bf 6e 83 06 3f 42 96 39 3f
       0.5133995 -0.5546829 0.52544296 0.724949
0002e0 9f 14 22 bf 80 5c 38 3f 85 9f d4 be 78 5a e4 3e
       -0.63312715 0.72016144 -0.41527954 0.44600272
0002f0 dc 86 0e bf 58 08 da bd dd 7f 0f 3f e7 d5 c8 be
       -0.5567453 -0.10646123 0.5605448 -0.39225695
000300 b6 92 a4 3d c1 7b 2a 3f 19 6c 95 3e 8c d9 bb 3e
       0.080357954 0.66595083 0.29184034 0.36689413
000310 94 2a 35 bf 68 15 87 be ee c4 13 be 28 7a c5 3d
       -0.70768094 -0.2638352 -0.14430591 0.0964244

linear1.bias f4 [100]
000000 72 81 de 3e 61 f4 1a 3f 56 e5 05 3f aa cb 4d 3f
       0.43458134 0.6052914 0.52303064 0.8038889
000010 11 0d 84 be 74 b2 a1 3c ab 5d 22 bf e3 37 0d 3f
       -0.2579122 0.019738413 -0.63424176 0.551634
000020 7c c9 6b 3e 88 85 ba 3c ce f5 30 3f 6f ab 55 bc
       0.23026079 0.02276875 0.6912507 -0.013041361
000030 66 77 05 bf 3b 29 83 bd 1d 34 09 3f a7 fe fd be
       -0.5213531 -0.064043485 0.53595144 -0.49608347
000040 47 07 e7 3e b3 93 2b bf e4 c5 34 bf d7 ca 33 bd
       0.4512274 -0.67022246 -0.7061446 -0.043894615
000050 96 e6 fa 3e 50 b9 c6 3e 2f b7 8a 3e 8a ae 17 bf
       0.49004048 0.38813257 0.27092883 -0.592507
000060 f5 69 0a 3f 92 8f ea bc 14 4e 51 3f 8b a7 ed be
       0.5406793 -0.028632913 0.8175976 -0.46416888
000070 f9 ee 37 3f 1f 0c 2e bf ac c8 3c 3f a6 c8 fb 3e
       0.7184902 -0.67987245 0.737437 0.4917652
000080 59 4f d9 be fb c7 e0 be 83 20 65 3e c7 f4 59 bd
       -0.4244335 -0.43902573 0.22375683 -0.053211953
000090 9c 99 68 3e 21 65 1c 3f 2f 0c 62 3b 99 c5 18 bf
       0.22714847 0.6109181 0.0034492125 -0.5967651
0000a0 c5 c1 49 3f f2 7e 91 3e ef d1 91 3e 18 b5 1c bf
       0.78811294 0.28417164 0.2848048 -0.6121383
0000b0 ca ea 38 3f 19 ce b9 3e b0 54 b7 be 8e 09 bc be
       0.7223326 0.36290053 -0.358068 -0.3672604
0000c0 4b 60 87 be bd 75 b2 be bb b8 23 3d 72 6e 6f bc
       -0.26440653 -0.34855452 0.039971095 -0.014613735
0000d0 f4 0b a9 be 26 b7 14 3f 96 36 81 3d d7 5a 3d 3f
       -0.33016932 0.5809196 0.063092396 0.73966736
0000e0 bc 54 9c be 1a 0a 8e 3e 19 09 4d 3f 80 9c 34 bf
       -0.30533397 0.27742082 0.80092007 -0.705513
0000f0 26 83 f8 bd 15 48 25 bf ec 57 30 bb ed 96 57 3f
       -0.121343896 -0.64563113 -0.0026907874 0.8421467
000100 5e 8e 1b 3f a8 98 cd 3e 10 f6 0f bf 49 07 2e 3f
       0.6076411 0.4015553 -0.56234837 0.67979866
000110 a1 d1 5c 3e 8f 8c 18 3f 7c f7 d0 3e a7 fd 27 bf
       0.21564342 0.59589475 0.40813816 -0.6562142
000120 8c f3 86 39 3c c5 3e 3f d4 e6 67 be 8a 8b 21 bf
       0.00025739928 0.74519706 -0.22646648 -0.63103545
000130 7a 0c d9 be 7a f5 43 3f 5e e3 17 3f 63 23 34 3f
       -0.4239233 0.7654644 0.5933131 0.70366496
000140 75 9f 33 3f 7f ec 98 3d 24 b3 14 bf cd 0d 02 bf
       0.7016519 0.07466983 -0.58085847 -0.5080231
000150 4f 1b c4 3d 6c e7 1e 3e 98 37 c3 3e cf 89 0f 3f
       0.09575521 0.15517968 0.38128352 0.56069654
000160 35 96 7a 3e 9f 41 03 3e 62 78 bb bd f1 b7 bd be
       0.24471362 0.12818001 -0.091538206 -0.370544
000170 48 57 14 bf 4b 1c 12 3f e0 23 0b 3f 3e 15 ef bc
       -0.5794568 0.5707442 0.54351616 -0.029184934
000180 1b b4 ae 3d a8 80 e7 be bc c2 0c bf 28 72 d2 be
       0.08530446 -0.45215344 -0.5498464 -0.4110272

linear2.weight f4 [100, 100]
000000 a8 45 86 3e e7 43 1f 3c b4 5f c3 3d 58 90 3f bd
       0.26225019 0.009720779 0.09539738 -0.046768516
000010 50 6f 6e 3e 4e 82 b5 bd 5f e1 c1 bd c8 bd 1b 3e
       0.2328465 -0.08862744 -0.09466814 0.15209115
000020 cc 93 c1 3c c9 8b 8d 3d ee 6c ef 3d be 6e 26 bd
       0.023630045 0.069114275 0.116906986 -0.040632956
000030 90 c0 8d bd 87 06 fb 3b 36 3f c7 3a 84 bc 32 3d
       -0.06921494 0.00766069 0.0015201333 0.043636814
000040 87 c7 97 3d 42 b2 88 3d 7e 8c cf bd 62 10 9b 3d
       0.07411104 0.06674625 -0.10134219 0.07571484
000050 41 4f 9f be 42 a5 85 3d f7 1a a4 3d 50 68 88 3e
       -0.31115153 0.06525661 0.08012956 0.26642084
000060 2e 12 14 3d 66 a5 27 3d d3 ec 2d 3e 5b 9e ee be
       0.03615015 0.04092922 0.16984873 -0.4660519
000070 e3 f2 00 3e 9d 41 51 bf 55 23 a7 3e 3c cc 33 be
       0.12592654 -0.8174074 0.32644144 -0.17558378
000080 a0 41 62 3d 04 29 e6 bc bf 58 1b be 18 80 53 3d
       0.055238366 -0.02809573 -0.15170573 0.05163583
000090 80 cd 94 be 3e f2 7d 3e 5d 1d 06 be e3 ef ed 3c
       -0.29063034 0.2479944 -0.13097139 0.029045051
0000a0 c8 8d 2d 3e 8f 33 55 bd 82 33 f6 bc ea 66 b9 3d
       0.16948617 -0.052051123 -0.030053858 0.090528324
0000b0 2d df 14 bc 79 56 02 be 70 7d 53 3c cd 24 50 3d
       -0.009086412 -0.12728299 0.012908325 0.050816346
0000c0 7b c6 ba 3d 33 c3 92 3a f7 72 91 bd 83 ee 30 3d
       0.091198884 0.001119709 -0.07102006 0.043196213
0000d0 55 d4 c8 be 8c 6a 8d bc 0a cc 42 3d 0e cc 4c 3e
       -0.39224496 -0.01726272 0.047557868 0.19999716
0000e0 16 ff df be 27 33 30 bd b6 0a 81 3d 8a d1 33 3d
       -0.43749303 -0.043017533 0.06300871 0.043901004
0000f0 0d c8 06 bd 40 84 13 3d e8 9a 0e bd 43 16 8d bc
       -0.032905627 0.036014795 -0.0348157 -0.01722253
000100 b3 e6 38 3d 34 f9 80 3d 3d 72 37 bd ce 71 9c 3c
       0.045141887 0.06297532 -0.04478668 0.019097235
000110 1a f0 96 3d 71 39 13 3d 53 8d 2f 3c 67 e3 9b 3d
       0.073700145 0.035943452 0.010714847 0.07611733
000120 e8 30 8e 3c e1 1b 07 3e d7 30 0e be 81 d0 1b bd
       0.017357305 0.13194229 -0.13885818 -0.03804064
000130 23 0e a7 bd 11 5e 99 3d fd f2 5f bd a4 2a 94 3d
       -0.08156993 0.07488645 -0.05467509 0.072346956
000140 28 f1 01 3d b0 ec 46 bd 47 56 b5 bd cf 28 d4 be
       0.031724125 -0.048565567 -0.08854347 -0.41437384
000150 64 7d 73 be e2 e9 5b 3d 24 d1 72 3e 45 12 14 bd
       -0.23778301 0.053689845 0.23712593 -0.036150236
000160 1f 32 b7 bd fe c8 e8 be f0 a5 24 be b4 d4 0b 3d
       -0.08945107 -0.45465845 -0.16078925 0.034138396
000170 5a 45 0d 3e 9c 6b 72 3d eb c6 1c bc e7 4a e3 bd
       0.13795987 0.059184656 -0.00956891 -0.11098271
000180 3e a3 4c 3d da fc 0c be 28 60 ab bd 3a 16 af bc
       0.049960367 -0.1376833 -0.0836795 -0.021372903
000190 26 41 23 bd 85 10 42 3d c1 7f d5 3d cd 0b 12 3e
       -0.039857052 0.047379036 0.10424758 0.14262314
0001a0 be 32 ab 3d 16 f1 90 3d a8 6d 20 3d 36 d0 aa 3d
       0.08359288 0.070772335 0.039167076 0.08340494
0001b0 6c 02 55 3d 73 2d b4 3d f1 b8 19 3e 50 a1 0b 3e
       0.052004263 0.08797731 0.15011956 0.13635755
0001c0 34 e6 89 3d f4 0c 75 3d 02 8d 35 3d 63 72 d3 3d
       0.06733361 0.059826806 0.04432393 0.10324552
0001d0 a5 08 c6 3d b9 42 8a 3d 1c 9f 21 3d dc de 65 bd
       0.096696176 0.067510076 0.03945838 -0.05612074
0001e0 e3 c8 d4 bd 1d 7f e8 bc da 66 29 3e a7 26 9a 3e
       -0.103898786 -0.028380925 0.16543141 0.30107614
0001f0 45 c1 02 3d 5f 8b af 3c 7f fd 33 3e 8a 68 fc 3c
       0.031922597 0.021428762 0.1757717 0.030811567
000200 5f ca 5f 3d 93 d8 67 bf 0a ed ac 3d ab dd 86 bd
       0.054636355 -0.9056484 0.08443649 -0.065852486
000210 98 a9 82 bc 4e fb ab 3c a2 63 7e 3d f9 76 93 3c
       -0.01595001 0.020993855 0.062106736 0.018001067
000220 8e d3 53 3d 28 3f 62 3c b9 57 f2 bd d7 80 6f bd
       0.051715426 0.013809003 -0.11833138 -0.05847248
000230 e6 25 5b 3d 65 1d a1 3d c8 d5 97 3d a2 cb ac 3d
       0.05350294 0.07866935 0.074138224 0.084372774
000240 e0 06 dd bc 36 e4 37 3d f1 57 09 be 80 b3 84 bd
       -0.026980817 0.044895373 -0.13412453 -0.064795494
000250 fb 42 1b bd 8b c8 1b bd d4 75 c0 3d e5 e8 f1 3d
       -0.037905674 -0.03803305 0.09397474 0.11811999
000260 da c2 fa 3d ae 62 e9 3d 00 ab 60 3c c5 e4 0c 3e
       0.12244196 0.11395775 0.013712645 0.13759144
000270 08 c8 14 3d 9e 8c 30 bd ff 4d 57 3d f3 42 22 bd
       0.036323577 -0.043102853 0.052564617 -0.03961463
000280 6a 0d b8 bd f3 5a 82 bd 56 38 ab 3d b4 e9 3c 3d
       -0.089869335 -0.063650034 0.083603546 0.046121314
000290 02 2d 7c 3d 53 48 78 3d ad db a3 3c 5c 84 07 3e
       0.06156636 0.06061585 0.02000221 0.13234085
0002a0 57 fd 76 3d da 5f 43 bd c9 7e 45 3d 91 dc d3 be
       0.060300197 -0.047698833 0.048216615 -0.41379216
0002b0 61 fa 33 3d dc 52 02 3e b4 40 6e 3d b7 2a bd ba
       0.04393995 0.12726921 0.058167174 -0.0014432286
0002c0 e4 ca 37 ba d3 f6 60 3d 48 b3 fe 3d fb 37 45 3d
       -0.0007011129 0.05492289 0.12436539 0.04814909
0002d0 81 53 1a 3e a0 40 83 3d c9 7a 81 bd d2 60 1a 3e
       0.15070917 0.064088106 -0.063222475 0.15075997
0002e0 b7 bf 78 3d bf 34 70 3c 3e 3c 9c 3d 8c 40 b1 3c
       0.06072971 0.014661013 0.07628678 0.021637224
0002f0 e4 ba 89 bd 68 71 94 bd 3e 03 99 3d 7c 55 1c bd
       -0.067251 -0.07248193 0.074713215 -0.03816746
000300 4e b4 2e bc e6 92 42 bc 3a c9 0a be 0c f7 96 3d
       -0.010663105 -0.011875844 -0.13553324 0.07371339
000310 17 cd b3 bc 4e e7 0b be f9 00 8a be 80 6d 7b 3d
       -0.02194838 -0.13662454 -0.26953867 0.061383724
000320 82 95 16 3d e3 e3 cb 3d 58 04 84 bb 75 70 98 be
       0.036763676 0.09955575 -0.004028838 -0.29773298
000330 e5 7c 33 bc cf bb a6 be 8b ab ae bd cd 5d af bd
       -0.01095507 -0.32565162 -0.08528813 -0.08562813
000340 31 1c 28 be 74 17 9d be 11 35 31 3d 39 4a 8f 3d
       -0.16417004 -0.30681956 0.0432635 0.06996579
000350 a2 38 91 3d 14 32 7a be ad 20 8b be c0 06 2d bf
       0.0709088 -0.24433166 -0.27173367 -0.67588425
000360 bf b1 14 3d 7d de 19 be 10 9f ce bd f8 b6 79 be
       0.036302324 -0.15026279 -0.100889325 -0.24386203
000370 08 1a e8 3d 97 02 0a be 13 3e f3 3d 4c a4 dc bd
       0.1133309 -0.1347755 0.11877074 -0.10773525
000380 b9 ba d8 3e 8a 81 cc bc 59 4a 53 3f 31 91 37 3c
       0.42329958 -0.024964113 0.8253532 0.01120405
000390 67 41 a7 bc 2b 4a 99 bd 4e ad 24 3e 87 bf 39 3e
       -0.020416928 -0.074848495 0.16081735 0.18139468
0003a0 94 c4 77 be f6 15 81 be 17 80 74 3d 11 44 97 be
       -0.24196082 -0.25212067 0.05969247 -0.29544118
0003b0 f3 50 16 3d 4b 35 b1 3e 5e 0c e7 3d f6 0f 1a 3c
       0.036698293 0.34610972 0.11281656 0.009403219
0003c0 57 09 98 3d f4 7a 90 be 7d bb 2c bd 5a d2 a1 3c
       0.074236564 -0.28218806 -0.04217099 0.019753624
0003d0 07 3f b3 3d 44 c1 3d 3d 88 58 83 3d d6 af 0c bd
       0.08752256 0.04632689 0.0641337 -0.034347378
0003e0 e7 b3 98 bd 5c 43 9b 3d 94 37 5f bd b7 4d 24 be
       -0.07456189 0.07581207 -0.054496363 -0.16045271
0003f0 8d 2c 87 bd a9 d8 50 3d 1f 3c 83 3d ab 79 fc bc
       -0.06600294 0.050987873 0.064079516 -0.030819735

linear2.bias f4 [100]
000000 b1 93 4a 3d 84 c0 18 3e 75 7a d1 3d ad 71 d1 3d
       0.049457256 0.14917189 0.10228435 0.1022676
000010 b4 08 7b 3d 81 c1 f3 3d 4d 0d 00 3e 91 df 97 3d
       0.061287597 0.11902142 0.12505074 0.07415689
000020 cd 05 6b bb 98 f0 4e 3d 6f a3 93 bd 52 54 f1 3d
       -0.0035861612 0.050522417 -0.07208907 0.11783661
000030 70 2b 80 bc 00 ca f3 bc 44 c1 0f 3e 14 81 db bd
       -0.015645713 -0.029759407 0.14038569 -0.10717979
000040 23 bc 5a b9 52 ea 98 bc 0f 6b aa 3c 69 a5 08 3d
       -0.00020860186 -0.01866642 0.020803003 0.033360872
000050 dd 0b de 3c b7 a2 62 3d f2 96 57 3e 8e c7 f4 bd
       0.027105266 0.05533096 0.21053675 -0.119521245
000060 a1 83 e7 3d 41 be 85 bd c0 79 3d bd 79 ee 06 3e
       0.11304403 -0.06530429 -0.046258688 0.13176908
000070 88 c9 95 3d 84 3e 53 3d 1b 11 9b bd 48 2f 2a 3e
       0.0731383 0.05157329 -0.07571622 0.16619599
000080 7c f7 2e 3e 50 fa 93 bd 0b 8c 30 3e 87 36 c1 3d
       0.17086595 -0.07225478 0.17240922 0.094342284
000090 b5 91 9a 3d 7a 8c bc 3c 73 98 8a 3d e3 10 88 bc
       0.07547323 0.023016203 0.06767359 -0.016609615
0000a0 af 10 2d 3e 47 89 3e 3e 8b a7 5e bd 3b 1a 0f be
       0.16900896 0.18607055 -0.054359 -0.1397485
0000b0 2c 90 8e 3c 74 17 be 3b 43 14 0d 3d d3 60 29 ba
       0.01740273 0.0058011357 0.03444315 -0.00064612663
0000c0 ca 19 0c bd 8e ac a4 bd 18 2e 7a 3c 65 5a ce bb
       -0.034204282 -0.08040725 0.015269779 -0.006297397
0000d0 58 b3 c3 3d e7 b2 81 3d 1e d6 2d 3e 67 4d 29 bc
       0.095556915 0.06332951 0.1697621 -0.010333396
0000e0 79 28 a0 3c 6f 87 c4 bd c0 18 95 bd 3e ea 58 3d
       0.019550549 -0.095961444 -0.07280111 0.052957766
0000f0 ee fa 15 3e 4a 02 1b 3d 12 8d 40 3d e9 63 c7 3d
       0.14646503 0.03784398 0.047009535 0.09735853
000100 40 a8 a5 bd 17 d0 1d bc 6a 8a 35 bd 19 39 b7 bc
       -0.08088732 -0.009632132 -0.044321455 -0.022366093
000110 9a 14 7e 3d f3 df 25 3e 59 28 24 3e f2 e9 18 3e
       0.062031366 0.16198711 0.16031016 0.14932993
000120 8d 75 9a bd 4d 99 36 3d c0 a4 6b bd 51 6c 95 3d
       -0.07541952 0.044579793 -0.057530165 0.0729605
000130 dd d2 2e bd dc 5d d9 3d e0 63 21 bd e7 d8 94 bb
       -0.042681564 0.106136054 -0.03940189 -0.0045424583
000140 ae 81 f8 38 c4 2c 9f 3a 61 95 f0 3c 6f 4c 90 3d
       0.00011849716 0.0012144079 0.029368104 0.070458286
000150 1e 43 25 3d 57 00 b7 3d 2f 26 a5 bb b3 40 17 3e
       0.04034721 0.08935612 -0.005039952 0.14770775
000160 45 39 81 3d 9d 4c b1 3b 40 ff e1 bd 24 04 7c 3d
       0.063097514 0.0054107443 -0.11035013 0.061527386
000170 93 c0 9f bc a4 ab 4d bd 5b b1 d0 bc 83 89 03 bd
       -0.019501006 -0.050212517 -0.025475195 -0.032113563
000180 a5 03 f6 3d e7 2b 42 3c b3 ff a2 3d 75 db f5 3d
       0.12012414 0.011851287 0.07958927 0.12004749

linear3.weight f4 [1, 100]
000000 88 d1 88 3d ce 10 3e 3d 82 ac dc be 52 1b 5f 3d
       0.0668059 0.046402745 -0.43100363 0.054469414
000010 4c 95 c9 3d dc 80 5b 3d 75 0a 9f 3d b9 d9 37 3d
       0.09842929 0.053589687 0.077656664 0.04488537
000020 f5 3f 32 3b 4a 62 f2 be 41 6f 0e 3b b8 01 3d 3d
       0.0027198766 -0.47340614 0.0021733793 0.046144217
000030 c5 65 c7 3d dc 20 21 3b 79 8b 5b 3d bd 11 a7 3d
       0.09736208 0.0024586236 0.05359981 0.0815768
000040 86 66 5a 3d 23 cb 8e 3d bb 98 65 3d 63 ed ad 3d
       0.05332043 0.06972339 0.05605386 0.084925435
000050 8c f1 99 3d ac a2 ab 3a 0e 89 a8 3d 3b da 70 3d
       0.075167745 0.0013094745 0.08229266 0.05880187
000060 e0 96 4e 3d 0d 4b bb 3d 89 62 12 bb 0b 7e 61 3d
       0.050436854 0.09145174 -0.0022336564 0.055051845
000070 74 48 bb 3a e9 c9 55 3d 49 0b 86 ba ff a9 9c 3d
       0.001428856 0.05219451 -0.0010226752 0.07649612
000080 a6 bb da be 05 8e 62 3a fe 81 8e 3d ac 04 57 3d
       -0.4272129 0.00086423784 0.06958388 0.05249469
000090 87 31 f4 3d b6 45 b9 ba 12 80 22 bf 38 74 4f 3d
       0.11923509 -0.0014135155 -0.6347667 0.050647944
0000a0 a1 53 60 3d 39 15 92 3d 87 08 73 3d ef c7 44 bd
       0.054767255 0.07132954 0.059334304 -0.048042234
0000b0 28 e0 97 3d 03 b1 9e 3d c3 4d c3 ba 43 ea 95 3d
       0.07415801 0.07748606 -0.0014900494 0.073200725
0000c0 56 4d 08 ba 96 28 04 3b ce c6 b1 3d ce b0 6b 3a
       -0.0005199512 0.0020165793 0.08680497 0.00089908845
0000d0 15 d7 0f ba 2c 53 58 3d 46 e2 c6 3d 04 f3 bc 3a
       -0.0005487067 0.052813694 0.09711127 0.0014415686
0000e0 af 1d 17 b6 5e 08 66 3a 55 0d 30 3b 10 2e 7f 3d
       -2.2518032e-06 0.00087750505 0.0026863415 0.062299788
0000f0 f8 5a 7b 3d 18 4f bf 3d 81 66 b0 3d 41 01 60 3d
       0.06136605 0.09341258 0.08613301 0.054688696
000100 c0 22 d1 3d 71 a0 30 3d ce 37 b0 ba e7 0c 45 3d
       0.10211706 0.04312176 -0.0013444365 0.048108008
000110 42 fb ad 3d 73 95 0f bf 6c 7e b9 3d 15 d9 e3 3d
       0.08495189 -0.56087416 0.09057316 0.111253895
000120 ba dd 24 39 6c 99 84 3d 14 f1 2a 3b 64 6d a3 3d
       0.00015722858 0.064745754 0.0026083635 0.07979849
000130 56 7a ac 3d 1b 4b 6e be 7e 0d 2a 3b ee f0 f2 3a
       0.08421771 -0.23270838 0.0025947983 0.0018534937
000140 1b 4d 91 3d 61 e7 4d 3d c5 31 83 3d 90 60 bf 3d
       0.07094785 0.05026949 0.06405977 0.0934459
000150 ba 3d 89 3d 3c a6 07 bb 96 13 e2 3d c4 a5 77 3d
       0.067012265 -0.0020698449 0.11038892 0.06046082
000160 9f 3b 0a bf 2b 41 93 3d ea 91 b3 3d 80 34 61 3d
       -0.53997225 0.07190164 0.08768065 0.05498171
000170 f8 61 1c ba b1 db 5a 3d d9 80 60 3d 4f 87 98 3d
       -0.0005965526 0.05343217 0.05481038 0.07447683
000180 e6 74 86 3d db 62 49 3a 05 d1 1a 3b db 1a c9 3d
       0.06565265 0.0007682272 0.002362312 0.098195754
