checkpoints/single-phase/123bus/ddpg copy 3/value_net_checkpoint_a0.pth (torch, 44119 bytes, 5 tensors)

linear1.weight f4 [100, 2]
-0.059277266 -0.024244469 -0.9016354 -0.00051672535 -0.99558717 -0.2528548 -0.090811536 0.436395
-0.3639968 -0.00046050045 -0.48606768 -0.24746773 -0.093656026 -0.0043095676 0.24442594 1.1123898
-0.29362798 -0.024990551 -0.2823095 -0.009001737 -0.44968677 -0.32824475 -1.3725486 -0.48135215
-1.4376484 -0.55507714 -1.5052122 -0.6480668 -0.7375234 0.5589861 -0.2471713 0.54700047
0.033628393 0.069054514 -0.07232386 -0.60976094 1.3044412 -0.13173589 0.95898205 -0.06785192
0.5736961 0.677441 -0.7372595 -0.0004134081 -0.37409478 -0.26610848 -0.2759601 0.9357671
-0.96441853 -0.27903768 -0.5013957 1.294996 -1.0989435 -0.0005718241 -0.32699192 0.16603494
-0.44153914 -0.038659763 0.46492028 0.28576764 -1.4938456 -0.6826992 0.4792772 0.7979457
-0.028810292 0.396549 -0.020914234 -0.21859105 -0.48168057 0.22632723 0.5874779 -0.17621964
-0.6865277 0.039459534 -1.1548228 -0.29076755 -0.5456628 0.5849453 -0.77374274 -0.007032081
-1.029215 -0.44596702 -0.11243345 -0.00893378 0.50428545 -0.38620475 -0.59692913 1.2308698
-1.3437859 -0.41612157 -0.7375221 1.1462408 0.15863411 -0.13244706 0.25890827 0.8697297
0.13011655 0.77395576 -0.55366576 -0.2896556 -0.11101627 1.0376858 1.1314781 -0.08980694
-0.51926285 0.1578803 -0.18275663 0.05318009 -0.70688397 -0.33535993 -0.092493765 0.05559462
-0.5741534 -0.5106497 0.14817645 -0.21884266 -0.8515027 -0.3093925 -0.5648061 1.005495
0.67767864 -0.0317058 -1.1500589 -0.44188032 0.4237944 -0.093659 -0.60892797 0.45436442
-0.6277246 -0.004261889 -0.73467654 -0.00040136153 -0.7967523 -0.00042600592 -0.67172575 -0.25349233
0.3742702 1.1623013 -1.3881912 -0.7226277 -0.8437359 0.9604096 0.5282644 -0.82176167
0.72421235 0.6776329 0.70364124 -0.4410458 -0.48369905 -0.02176274 -0.66054696 0.0793535
-1.0005295 -0.00054698484 -0.4753752 -0.91192585 0.16801919 0.91933906 0.48842657 0.007653603
-0.82976323 -0.89184064 -0.5448661 -0.025543952 -0.47162277 0.19349408 -0.5272057 -0.019858247
-0.79794395 0.036183495 -0.12264706 0.22140281 -0.39617047 -0.88373846 0.2820205 -1.0124657
-0.004881553 -0.7939493 0.037961606 0.097049594 -0.43095225 -0.008502765 0.62422943 1.2780013
-0.68463165 -0.3826654 -0.2989865 1.0336658 0.69708616 0.9764343 -0.4774458 0.0015972848
-1.4380062 -0.5465846 0.18305936 -0.9113938 -0.15503827 0.2422175 -0.80736643 -0.27081293
00000000: b8cc 72bd 569c c6bc 94d1 66bf da74 07ba
00000010: cdde 7ebf 2f76 81be 66fb b9bd 2a6f df3e
00000020: ca5d babe 536f f1b9 dddd f8be 2e68 7dbe
00000030: bbce bfbd 4637 8dbb cb4a 7a3e ca62 8e3f
00000040: 6856 96be fcb8 ccbc df8a 90be 067c 13bc
00000050: 583d e6be b20f a8be acaf afbf ca73 f6be
00000060: dd04 b8bf 8919 0ebf cbaa c0bf b5e7 25bf
00000070: 55ce 3cbf b719 0f3f 791a 7dbe 3908 0c3f
00000080: edbd 093d 746c 8d3d 881e 94bd 4b19 1cbf
00000090: eef7 a63f c6e5 06be d97f 753f f3f5 8abd
000000a0: bfdd 123f c66c 2d3f 0abd 3cbf b2be d8b9
000000b0: 5a89 bfbe 5f3f 88be a44a 8dbe 6f8e 6f3f
000000c0: 22e4 76bf 07de 8ebe 785b 00bf 6ec2 a53f
000000d0: 2eaa 8cbf 77e6 15ba 7c6b a7be 1005 2a3e
000000e0: 6b11 e2be b359 1ebd 080a ee3e 2350 923e
000000f0: 5536 bfbf 60c5 2ebf d263 f53e 2b46 4c3f
00000100: 9003 ecbc 7808 cb3e 5454 abbc 55d6 5fbe
00000110: d69e f6be 53c2 673e f464 163f ec72 34be
00000120: 48c0 2fbf 52a0 213d 3cd1 93bf 7cdf 94be
00000130: 8fb0 0bbf fabe 153f 0114 46bf 5f6d e6bb
00000140: 51bd 83bf ca55 e4be 8243 e6bd fd5e 12bc
00000150: da18 013f a1bc c5be 59d0 18bf 248d 9d3f
00000160: 2d01 acbf e30d d5be 40ce 3cbf 05b8 923f
00000170: fb70 223e 34a0 07be a08f 843e 9ba6 5e3f
00000180: 463d 053e f721 463f 0abd 0dbf bd4d 94be
00000190: 805c e3bd e3d2 843f 46d4 903f b3ec b7bd
000001a0: 69ee 04bf 60ab 213e 8e24 3bbe 5ed3 593d
000001b0: 59f6 34bf 4cb4 abbe 5f6d bdbd 2fb7 633d
000001c0: b8fb 12bf f0b9 02bf 91bb 173e 4a18 60be
000001d0: 15fc 59bf b268 9ebe 2297 10bf 0fb4 803f
000001e0: 597c 2d3f f1dd 01bd 2135 93bf 233e e2be
000001f0: 94fb d83e 4ad0 bfbd b4e2 1bbf 74a2 e83e
00000200: 8fb2 20bf 51a7 8bbb c313 3cbf d56d d2b9
00000210: f5f7 4bbf 8c59 dfb9 38f6 2bbf bfc9 81be
00000220: 58a0 bf3e 4ac6 943f 40b0 b1bf 21fe 38bf
00000230: 13ff 57bf 67dd 753f 563c 073f f95e 52bf
00000240: fb65 393f 5a79 2d3f d521 343f c1d0 e1be
00000250: 67a7 f7be c647 b2bc 9b19 29bf 1684 a23d
00000260: 5a11 80bf 8863 0fba 6164 f3be f973 69bf
00000270: 390d 2c3e ce59 6b3f 0c13 fa3e 13cb fa3b
00000280: 5d6b 54bf ab4f 64bf 587c 0bbf 8d41 d1bc
00000290: 8a78 f1be 5023 463e f4f6 06bf c3ad a2bc
000002a0: 0e46 4cbf 2535 143d 622e fbbd 6bb7 623e
000002b0: dbd6 cabe af3c 62bf fe64 903e 7a98 81bf
000002c0: 6ff5 9fbb 4340 4bbf a17d 1b3d f0c1 c63d
000002d0: c6a5 dcbe 2e4f 0bbc 80cd 1f3f 8c95 a33f
000002e0: 0544 2fbf b8ec c3be c214 99be 294f 843f
000002f0: 3d74 323f 99f7 793f c773 f4be fc5b d13a
00000300: 9610 b8bf f8ec 0bbf ea73 3b3e 1b51 69bf
00000310: 5ac2 1ebe dd07 783e 91af 4ebf fea7 8abe

linear1.bias f4 [100]
-0.7029669 0.85989445 -0.43468186 0.77384883 0.35202193 -0.8082533 0.9485946 0.06308633
-0.4539969 0.8446537 1.0443044 -1.2114176 -1.5144634 -0.44280058 -0.16425215 0.36336026
0.7382901 0.26926753 0.005293332 0.47168142 0.54024994 0.70313597 -1.0003815 0.25008956
-0.5407499 0.45479152 1.047457 0.89212716 0.97228974 0.9157742 -0.5603361 -0.5980034
0.6622159 0.80822736 1.0864115 0.8921944 0.9918824 -0.493372 0.13410611 0.78037286
-1.319633 0.69474393 0.59458476 0.54156554 -0.8898958 0.6690184 0.5460334 -0.40818807
-0.27529973 0.8528865 -0.15627871 0.25702706 1.0523226 0.7265319 -1.0525504 0.6863206
-1.0632249 1.0008479 0.045852598 0.512386 0.7303271 -1.1947023 0.85611 -0.4998784
-0.6307741 0.7005425 0.75961274 1.0029426 -0.024327273 -0.78343886 0.76637554 0.7280388
-0.43056828 0.36828342 0.58825487 -0.47015163 0.95387405 0.43241522 0.065748625 0.75876576
0.7561324 0.923107 1.1298828 -0.568018 1.1013321 0.86812073 0.3599424 -0.599486
0.22715394 1.0463185 0.49443534 -0.15194978 -1.3127095 0.2710402 0.37470302 0.51727986
-0.20650907 0.44431666 0.97165066 1.1505284
00000000: a4f5 33bf 0b22 5c3f 9f8e debe f51a 463f
00000010: 383c b43e b0e9 4ebf 19d7 723f 6833 813d
00000020: 4872 e8be 3a3b 583f c4ab 853f bb0f 9bbf
00000030: f0d9 c1bf c2b6 e2be b731 28be 5b0a ba3e
00000040: 9400 3d3f 6fdd 893e b073 ad3b 3a80 f13e
00000050: d24d 0a3f b800 343f 800c 80bf bd0b 803e
00000060: 966e 0abf 6fda e83e 1213 863f 7262 643f
00000070: fbe7 783f 2e70 6a3f 3072 0fbf c016 19bf
00000080: fb86 293f fde7 4e3f 880f 8b3f da66 643f
00000090: 01ec 7d3f 419b fcbe 1d53 093e 84c6 473f
000000a0: bce9 a8bf bdda 313f b536 183f 0aa4 0a3f
000000b0: 36d0 63bf ca44 2b3f d8c8 0b3f 07fe d0be
000000c0: 16f4 8cbe c556 5a3f 8707 20be 0d99 833e
000000d0: 82b2 863f fffd 393f f9b9 86bf b5b2 2f3f
000000e0: c117 88bf c91b 803f efcf 3b3d bb2b 033f
000000f0: b8f6 3a3f 01ec 98bf 062a 5b3f 10f0 ffbe
00000100: 697a 21bf c156 333f fb75 423f 6c60 803f
00000110: fd49 c7bc 738f 48bf 3031 443f c060 3a3f
00000120: 7273 dcbe a58f bc3e df97 163f b7b7 f0be
00000130: 1731 743f 8765 dd3e 37a7 863d 793e 423f
00000140: e591 413f be50 6c3f 00a0 903f a169 11bf
00000150: 73f8 8c3f 293d 5e3f 5f4a b83e ea77 19bf
00000160: 0b9b 683e c4ed 853f a126 fd3e b998 1bbe
00000170: dd06 a8bf c8c5 8a3e 13d9 bf3e 746c 043f
00000180: 1d77 53be 797d e33e 19be 783f 8444 933f

linear2.weight f4 [100, 100]
0.007788086 4.0544796 -0.4036755 -0.06472702 1.7935029 -0.41834736 0.09076165 -0.0211687
-0.08653515 -0.03598308 0.034942526 -0.1521811 -0.12514059 0.4250451 -0.4735588 -0.3931254
0.06329569 -0.035538588 -0.2313649 0.051859193 0.059330728 4.677365 -0.5178774 0.3365047
-0.47602063 0.3513787 6.866402 0.059250213 0.06013819 0.10487886 0.34800377 -0.39752334
-0.0068256557 -0.075955644 -0.10499209 0.1717697 0.12867557 -0.43616283 -0.5258861 0.5994294
-0.50103503 0.009618462 -0.038939226 0.54988873 -0.46629173 0.5894618 0.12596142 -0.4496408
-0.31852365 0.020898031 0.036752675 -0.18143076 0.10938207 0.014475653 -0.61876935 -0.050819762
0.26163155 0.060778365 0.15193583 0.51583993 0.120202206 -0.38527825 0.011701735 -0.8184971
0.050471403 5.713877 4.7196345 0.09172468 -0.15088966 0.4125782 0.18959522 -0.021032961
-0.45440477 0.037632994 -0.58177274 -0.04948261 4.666783 0.5248349 -0.009517623 0.019434344
0.5303727 -0.16297221 0.11504629 -0.005548358 0.26982927 0.15118523 0.4477463 -0.2794459
0.111621656 0.06771907 -0.75324816 -0.20859097 -0.38241175 0.43444592 -0.0026773408 -1.7112044
0.41849208 -0.07745776 0.16355681 0.1782008 -0.05821649 -0.016954506 0.08517604 0.049331665
0.043058395 -0.04211091 -0.038665023 0.022936845 -0.03762442 0.04372866 0.07390783 0.038989462
-0.03462149 -0.06385262 0.0027946352 0.022693897 0.089166604 -0.074473836 0.08952264 -0.027571535
0.015152204 0.09657585 -0.039701845 -0.03388206 -0.043551695 -0.028229177 -0.06952007 -0.085173525
0.016294016 -0.09463203 -0.0134740835 -0.036865212 -0.006486106 -0.063866496 0.018792106 -0.08444049
-0.047105994 0.07625618 0.034507047 0.02752371 0.08274187 -0.025974846 0.07538458 0.010557473
-0.05810472 -0.02855431 -0.033156455 0.089595534 -0.033546533 0.014787746 -0.042343985 -0.04112388
-0.04904833 -0.04805031 -0.030250823 -0.045952916 -0.056105256 -0.08661442 0.006225407 0.04040102
-0.0844561 0.09829483 -0.031376064 0.03825028 -0.05551442 0.016165484 0.053153086 -0.036446072
-0.07477044 0.038500022 -0.027488887 0.03165715 0.03526639 0.09899169 0.051863324 0.0705389
0.07388277 0.06560937 -0.0417563 -0.02684847 0.07078358 0.03351171 -0.002175534 -0.023618747
-0.08441042 -0.06673642 0.008535243 -0.050364435 -0.034781408 -0.015817607 -0.07933753 -0.057740238
0.046695482 -0.07571452 -0.025429297 0.034157038 -0.067450896 -0.088863745 0.013655114 -0.09197425
-0.027272403 4.103279 -0.47282767 0.061754182 1.7382215 -0.54652953 0.09247491 -0.027175
-0.0537166 0.036688123 0.032298204 -0.076833375 -0.1931002 0.3170521 -0.47824287 -0.23476453
-0.021858312 0.02394258 -0.3444867 -0.008950194 -0.0025779146 4.7157965 -0.5772824 0.4277652
-0.55990374 0.33824462 6.7777267 0.057412867 -0.026220445 0.13745207 0.30587626 -0.5959033
0.07008114 0.07923558 0.067467384 0.035656933 0.1765375 -0.430246 -0.4127822 0.61994874
-0.4268849 -0.01578677 -0.013516777 0.4401979 -0.4880513 0.48457608 0.05357083 -0.54454434
-0.41428736 0.04175824 -0.0020718286 -0.20845135 0.13653816 -0.075523 -0.59022206 -0.0992425
00000000: 3333 ff3b 4cbe 8140 8eae cebe 9a8f 84bd
00000010: 8191 e53f a031 d6be 3ee1 b93d fb69 adbc
00000020: 5739 b1bd fe62 13bd e51f 0f3d 5dd5 1bbe
00000030: db24 00be 839f d93e 4d76 f2be bc47 c9be
00000040: 2ca1 813d e990 11bd ecea 6cbe 4e6a 543d
00000050: c704 733d f9ac 9540 9d93 04bf 584a ac3e
00000060: fab8 f3be e9e7 b33e 91b9 db40 5ab0 723d
00000070: 7653 763d baca d63d 8d2d b23e 2e88 cbbe
00000080: c0a9 dfbb a28e 9bbd 1806 d7bd 65e4 2f3e
00000090: 87c3 033e bc50 dfbe 79a0 06bf 3574 193f
000000a0: d543 00bf c196 1d3c bd7e 1fbd 82c5 0c3f
000000b0: cabd eebe f8e6 163f 08fc 003e 5237 e6be
000000c0: 8815 a3be 5932 ab3c f989 163d fcc8 39be
000000d0: b503 e03d 4a2b 6d3c ab67 1ebf 6228 50bd
000000e0: 92f4 853e bcf2 783d 1195 1b3e 160e 043f
000000f0: 932c f63d 3143 c5be a2b8 3f3c 0789 51bf
00000100: 1abb 4e3d 15d8 b640 3f07 9740 26da bb3d
00000110: d282 1abe 733d d33e 4025 423e 514d acbc
00000120: bea7 e8be 0e25 1a3d 0fef 14bf 47ae 4abd
00000130: 4956 9540 945b 063f ceef 1bbc c634 9f3c
00000140: 81c6 073f 30e2 26be 649d eb3d 00cf b5bb
00000150: 1027 8a3e 4dd0 1a3e 013f e53e 8813 8fbe
00000160: e599 e43d 4cb0 8a3d dfd4 40bf df98 55be
00000170: 79cb c3be b26f de3e 5376 2fbb bf08 dbbf
00000180: 9844 d63e 2da2 9ebd 707b 273e 457a 363e
00000190: 6a74 6ebd 2de4 8abc c770 ae3d 0010 4a3d
000001a0: 005e 303d 7d7c 2cbd 375f 1ebd 0de6 bb3c
000001b0: 101c 1abd d31c 333d fd5c 973d 6ab3 1f3d
000001c0: 43cf 0dbd 2ac5 82bd 3326 373b 8de8 b93c
000001d0: fb9c b63d bd85 98bd a557 b73d b3dd e1bc
000001e0: f340 783c 8fc9 c53d 679e 22bd eac7 0abd
000001f0: 4363 32bd e040 e7bc 8a60 8ebd 756f aebd
00000200: 077b 853c 70ce c1bd 67c2 5cbc faff 16bd
00000210: 6789 d4bb 70cc 82bd e7f1 993c 23ef acbd
00000220: 37f2 40bd 332c 9c3d 4357 0d3d 6779 e13c
00000230: 9274 a93d 33c9 d4bc 3b63 9a3d 40f9 2c3c
00000240: 37ff 6dbd baea e9bc 10cf 07bd dd7d b73d
00000250: 1768 09bd 4d48 723c e370 2dbd 8371 28bd
00000260: e7e6 48bd 67d0 44bd 93d0 f7bc 2039 3cbd
00000270: a0ce 65bd e762 b1bd 80fe cb3b 8a7b 253d
00000280: 52f7 acbd cd4e c93d 3084 00bd 53ac 1c3d
00000290: 1763 63bd 7a6d 843c 0db7 593d 7a48 15bd
000002a0: 3f21 99bd 33b2 1d3d 6030 e1bc edaa 013d
000002b0: 7d73 103d 28bc ca3d a36e 543d b376 903d
000002c0: da4f 973d 355e 863d a708 2bbd 53f1 dbbc
000002d0: fbf6 903d 9343 093d 6793 0ebb 1a7c c1bc
000002e0: 5fdf acbd 1bad 88bd 67d7 0b3c f04a 4ebd
000002f0: f376 0ebd ed93 81bc b77b a2bd 0781 6cbd
00000300: c343 3f3d 3710 9bbd 1a51 d0bc 40e8 0b3d
00000310: b223 8abd 32fe b5bd b3b9 5f3c ff5c bcbd
00000320: 606a dfbc 104e 8340 7816 f2be f4f1 7c3d
00000330: 0b7e de3f 5ce9 0bbf 7c63 bd3d 1b9e debc
00000340: f005 5cbd 4946 163d 1f4b 043d d15a 9dbd
00000350: 0fbc 45be a754 a23e 40dc f4be 1d66 70be
00000360: 3410 b3bc 3b23 c43c 9060 b0be d6a3 12bc
00000370: 3bf2 28bb cee7 9640 c8c8 13bf 0a04 db3e
00000380: da55 0fbf 662e ad3e 23e3 d840 c129 6b3d
00000390: 42cc d6bc 3cc0 0c3e d09b 9c3e 1e8d 18bf
000003a0: b386 8f3d 4446 a23d 572c 8a3d 010d 123d
000003b0: 3fc6 343e 3449 dcbe 3058 d3be f6b4 1e3f
000003c0: a890 dabe 4253 81bc 7975 5dbc 9f61 e13e
000003d0: dce1 f9be 5b1a f83e 166d 5b3d 4267 0bbf
000003e0: 791d d4be b00a 2b3d 84c7 07bb 4574 55be
000003f0: a9d0 0b3e cdab 9abd cb18 17bf a73f cbbd

linear2.bias f4 [100]
0.26985234 0.043949354 0.30578235 0.2881369 0.33264196 0.2952447 0.3177088 0.2197721
0.2875741 0.2703963 0.15454103 0.29208362 0.22250664 0.32591152 0.22398421 0.2717246
0.30448034 0.26772448 -0.05962696 0.210372 0.2910826 0.24972428 0.31656623 0.3529487
-0.07877198 0.16720875 0.33563802 -0.10419558 0.27982414 0.33277684 -0.009016789 0.25115132
0.36613926 0.18758005 0.1628492 0.34867874 0.24009436 -0.031239962 0.30306888 -0.046133887
0.36619115 0.15418339 0.32046017 0.19121464 0.344727 0.27465189 0.14564733 0.3379814
0.2889053 0.08959993 0.32255363 0.34098786 0.13468756 0.2945291 -0.506806 0.29563606
0.24355909 0.16433206 0.24024813 0.22430447 -0.032351177 0.33939683 0.21338393 0.22972254
0.1599541 0.34872016 0.3295185 0.3628026 0.23891765 0.24967645 0.33611298 0.28973
-0.08215454 0.35843697 -0.042786002 0.2094835 0.20357245 0.34748453 0.2841335 0.1699067
0.08611424 0.20199375 0.30512816 0.2511637 -0.044264082 -0.033019435 0.26843342 0.30098414
0.23752922 0.2526124 0.2445852 0.19111997 0.22424918 0.26707348 0.1451408 0.24101052
0.36304283 0.19932367 0.29853985 0.35502353
00000000: 162a 8a3e 3d04 343d 818f 9c3e ae86 933e
00000010: 0c50 aa3e 502a 973e baaa a23e f00b 613e
00000020: ea3c 933e 6271 8a3e 0140 1e3e fc8b 953e
00000030: c8d8 633e e0dd a63e 1e5c 653e 7d1f 8b3e
00000040: d9e4 9b3e 2f13 893e 663b 74bd c26b 573e
00000050: c708 953e b9b7 7f3e f814 a23e b1b5 b43e
00000060: 3453 a1bd c538 2b3e bfd8 ab3e 7e64 d5bd
00000070: 1c45 8f3e ba61 aa3e 27bb 13bc e896 803e
00000080: 9b76 bb3e fc14 403e f1c1 263e 0586 b23e
00000090: 4cdb 753e f3ea ffbc d82b 9b3e e3f6 3cbd
000000a0: 687d bb3e 40e2 1d3e 5b13 a43e c5cd 433e
000000b0: 0f80 b03e 2c9f 8c3e 9324 153e e60b ad3e
000000c0: 65eb 933e 2b80 b73d c025 a53e f695 ae3e
000000d0: 89eb 093e 85cc 963e 0abe 01bf 9c5d 973e
000000e0: 8e67 793e aa46 283e 9b03 763e 12b0 653e
000000f0: ab82 04bd 6cc5 ad3e 5181 5a3e 633c 6b3e
00000100: 02cb 233e 738b b23e a6b6 a83e 43c1 b93e
00000110: d4a6 743e 2fab 7f3e 0017 ac3e 7e57 943e
00000120: a440 a8bd 0d85 b73e 6040 2fbd d882 563e
00000130: 4c75 503e 7ee9 b13e f279 913e 06fc 2d3e
00000140: aa5c b03d 73d7 4e3e c239 9c3e 8798 803e
00000150: 414e 35bd 633f 07bd 1b70 893e 981a 9a3e
00000160: dc3a 733e 6a56 813e 8b74 7a3e f4b4 433e
00000170: 94a1 653e dbbd 883e ca9f 143e 76cb 763e
00000180: c0e0 b93e 811b 4c3e 37da 983e a5c5 b53e

linear3.weight f4 [1, 100]
-1.0040559 0.0016824589 -0.8811442 -0.97670794 -4.843457 -0.96241575 -3.1105418 -0.98874104
-0.919536 -3.7653747 -5.746195 -6.8697505 -5.813832 -0.91083616 -0.90180254 -4.117609
-0.93424636 -6.3420124 0.00053980976 -0.91327447 -4.9996524 -0.9088282 -0.9418828 -0.95105344
0.0013331108 -0.96469617 -0.9294983 -0.005954972 -0.893443 -0.90091425 0.00073804567 -0.93281955
-0.895686 -0.95922655 -5.8329663 -0.938984 -0.89496654 -0.00094517146 -0.923175 0.00084241305
-0.8652843 -5.7071595 -0.9008222 -3.2349524 -0.923635 -0.9044968 -4.077721 -0.9208848
-0.8991698 -0.002304211 -0.8265422 -0.9210881 -3.0191352 -4.861178 0.51492727 -4.364567
-0.96680546 -0.8807377 -6.217575 -3.660334 -0.007533099 -0.9307525 -0.93862265 -0.93930733
-4.490104 -1.0080216 -5.2281995 -0.97203904 -6.1785855 -0.9903296 -0.9277146 -5.4468894
0.0038200023 -0.8964919 -0.0008589331 -4.4499273 -0.94763935 -0.91762424 -0.95677286 -0.8416232
-0.0036382095 -0.9941032 -5.8512707 -0.96457255 0.002254636 0.0022653856 -5.6585894 -4.83632
-0.9709327 -1.0056074 -1.0276053 -0.9529976 -3.581399 -0.95033884 -6.5254083 -5.1592703
-0.94440985 -3.1363142 -0.8920546 -0.9297559
00000000: e784 80bf f485 dc3a ab92 61bf 8809 7abf
00000010: 9afd 9ac0 e160 76bf 1e13 47c0 221e 7dbf
00000020: b666 6bbf e6fb 70c0 d4e0 b7c0 ffd4 dbc0
00000030: e90a bac0 8f2c 69bf 88dc 66bf 74c3 83c0
00000040: c52a 6fbf c4f1 cac0 0582 0d3a 5bcc 69bf
00000050: 27fd 9fc0 f7a8 68bf 3b1f 71bf 3d78 73bf
00000060: c7bb ae3a 54f6 76bf 9af3 6dbf ed21 c3bb
00000070: aeb8 64bf 51a2 66bf 6879 413a 43cd 6ebf
00000080: ad4b 65bf df8f 75bf a9a7 bac0 4161 70bf
00000090: 871c 65bf 62c5 77ba 3255 6cbf 62d5 5c3a
000000a0: 4683 5dbf 0da1 b6c0 499c 66bf 7609 4fc0
000000b0: 5873 6cbf 1a8d 67bf b17c 82c0 1bbf 6bbf
000000c0: fe2f 66bf 3f02 17bb 4598 53bf 6ecc 6bbf
000000d0: 8339 41c0 c58e 9bc0 46d2 033f 88aa 8bc0
000000e0: 9080 77bf 0778 61bf 60f6 c6c0 ea42 6ac0
000000f0: 37d8 f6bb cc45 6ebf 9349 70bf 7276 70bf
00000100: efae 8fc0 da06 81bf 694d a7c0 8dd7 78bf
00000110: f9b6 c5c0 3e86 7dbf b47e 6dbf eb4c aec0
00000120: 0159 7a3b 7e80 65bf 062a 61ba ce65 8ec0
00000130: 7e98 72bf 6ce9 6abf 11ef 74bf 9e74 57bf
00000140: 076f 6ebb 8c7d 7ebf 9c3d bbc0 3aee 76bf
00000150: 84c2 133b dd76 143b 2a13 b5c0 22c3 9ac0
00000160: 0c8f 78bf beb7 80bf 9288 83bf a7f7 73bf
00000170: a435 65c0 6849 73bf 25d0 d0c0 be18 a5c0
00000180: d8c4 71bf 5fb9 48c0 b15d 64bf 7c04 6ebf
