checkpoints/single-phase/123bus/safe-ddpg copy 2/policy_net_checkpoint_a9.pth (torch, 3103 bytes, 4 tensors)

b f4 [100]
00000000: 0000 0000 0000 0000 0000 0000 0000 0000
00000010: 0000 0000 0000 0000 0000 0000 0000 0000
00000020: 0000 0000 0000 0000 0000 0000 0000 0000
00000030: 0000 0000 0000 0000 0000 0000 0000 0000
00000040: 0000 0000 0000 0000 0000 0000 0000 0000
00000050: 0000 0000 0000 0000 0000 0000 0000 0000
00000060: 0000 0000 0000 0000 0000 0000 0000 0000
00000070: 0000 0000 0000 0000 0000 0000 0000 0000
00000080: 50dd 173d 0000 0000 0000 0000 0000 0000
00000090: 0000 0000 0000 0000 0000 0000 0000 0000
000000a0: 0000 0000 0000 0000 0000 0000 0000 0000
000000b0: 0000 0000 0000 0000 0000 0000 d66a 193d
000000c0: 0000 0000 0000 0000 0000 0000 0000 0000
000000d0: 0000 0000 0000 0000 0000 0000 0000 0000
000000e0: 0000 0000 0000 0000 0000 0000 0000 0000
000000f0: 0000 0000 0000 0000 0000 0000 0000 0000
00000100: 0000 0000 0000 0000 0000 0000 0000 0000
00000110: 0000 0000 0000 0000 0000 0000 0000 0000
00000120: 0000 0000 0000 0000 0000 0000 0000 0000
00000130: 0000 0000 0000 0000 0000 0000 0000 0000
00000140: 0000 0000 0000 0000 0000 0000 0000 0000
00000150: 0000 0000 b0ad 193d 0000 0000 9070 1b3d
00000160: 0000 0000 0000 0000 0000 0000 0000 0000
00000170: 0000 0000 0000 0000 0000 0000 0000 0000
00000180: 0000 0000 0000 0000 0000 0000 eb33 8410
0.0 0.0 0.0 0.0 0.0 0.0 0.0 0.0
0.0 0.0 0.0 0.0 0.0 0.0 0.0 0.0
0.0 0.0 0.0 0.0 0.0 0.0 0.0 0.0
0.0 0.0 0.0 0.0 0.0 0.0 0.0 0.0
0.037076294 0.0 0.0 0.0 0.0 0.0 0.0 0.0
0.0 0.0 0.0 0.0 0.0 0.0 0.0 0.037455402
0.0 0.0 0.0 0.0 0.0 0.0 0.0 0.0
0.0 0.0 0.0 0.0 0.0 0.0 0.0 0.0
0.0 0.0 0.0 0.0 0.0 0.0 0.0 0.0
0.0 0.0 0.0 0.0 0.0 0.0 0.0 0.0
0.0 0.0 0.0 0.0 0.0 0.037519157 0.0 0.037949145
0.0 0.0 0.0 0.0 0.0 0.0 0.0 0.0
0.0 0.0 0.0 5.214481e-29

c f4 [100]
00000000: 3f82 e23a ce20 523b cd9e e13a 2e73 0e3b
00000010: 037b 483b a3ac e43a 48e4 7d3a 29e1 ba39
00000020: ab68 863a 64af 113a ca06 713a 20fc 083b
00000030: f37f 2a38 b152 cf3a c4cf 313b c53d 6c3a
00000040: 8636 f13a 9ee9 3c3b c4dd 213b 8a0c df39
00000050: 89f8 da3a 05b7 2c3a bb47 443b 2317 173b
00000060: be3b 1d3b 0ed3 1c3b b3e3 4d3b d6a6 ef39
00000070: 361d 003a fd40 0d3b 6563 1a3b 1e6a b43a
00000080: 45be 3e3b 0cc2 7c39 4655 da3a c09b 7b3a
00000090: 92b0 ed3a 4a91 803a 42f9 863a 421a ad3a
000000a0: 0509 d139 5772 973a 4019 273a e9f2 bc3a
000000b0: 8c10 4a3b 6b3f c539 826b 1d3b 9990 ed3a
000000c0: de29 043b 9e36 2938 78e8 cd3a d192 9a3a
000000d0: 7107 d13a 1339 bc39 8125 2c3b 744e b139
000000e0: 855a 413b f182 343b be65 3e3b 3f9e fa3a
000000f0: 39a6 7b38 108c 723a 0fd1 723a 0bc5 c639
00000100: 445d 193b af10 233b ab3f 843a 86b3 ab39
00000110: 2f6e a13a 98e2 a736 b283 133b b28b 1d3a
00000120: cd05 063b af77 dc3a 55a5 453b 74bf 133a
00000130: 2f0d a83a 64fc 303b 7159 473b 158d ed3a
00000140: 243b 513a 7c94 7b39 d223 3139 7796 063b
00000150: 0a8d 003b 9b64 253b f63a a339 c7e8 c03a
00000160: 9504 e939 2d96 393a 9e64 4d3b 56b6 eb39
00000170: 5428 0b37 3dec 9939 9691 b33a a828 d83a
00000180: a1c7 443b 5b3f 003a 3d44 5b3a a1f3 0a3b
0.0017281248 0.003206301 0.0017213464 0.0021736133 0.0030590899 0.0017446469 0.00096852006 0.00035644442
0.0010254582 0.0005557446 0.0009194432 0.0020902231 4.065032e-05 0.0015817491 0.0027131895 0.000901189
0.001840309 0.002882577 0.0024698833 0.00042543217 0.0016706149 0.00065885513 0.0029949981 0.0023054562
0.0023991908 0.002392951 0.0031416237 0.00045709935 0.0004887165 0.0021553629 0.002355778 0.0013764536
0.0029105109 0.00024104881 0.0016657494 0.00095980987 0.0018134287 0.0009808925 0.0010297673 0.0013206678
0.00039870307 0.0011554462 0.0006374307 0.0014415655 0.0030832617 0.00037622018 0.0024020378 0.0018124758
0.0020166556 4.0343606e-05 0.001570954 0.0011793022 0.0015947652 0.00035900678 0.0026267471 0.00033818523
0.0029503417 0.0027543867 0.0029052342 0.0019120647 5.999787e-05 0.00092524383 0.00092627195 0.0003791231
0.0023401538 0.002488177 0.0010089775 0.00032749417 0.0012316162 5.003367e-06 0.0022508916 0.0006009891
0.0020450235 0.0016820336 0.003015836 0.0005636134 0.0012821312 0.0027005905 0.0030418301 0.0018123711
0.000798153 0.0002399254 0.0001689338 0.0020536461 0.0019615316 0.0025236967 0.00031133712 0.001471781
0.00044444637 0.0007079568 0.003134049 0.00044958544 8.294435e-06 0.00029358445 0.0013700004 0.0016491609
0.0030026215 0.0004892253 0.00083643553 0.0021202343

q f4 [1, 100]
00000000: 0ca3 133f d32d e53e 0dfe 103f 4df6 ae3e
00000010: ebf9 113f a11c e93e 0464 493f b6e4 2d3f
00000020: 1d4f 093f 6db9 073f d2e8 5d3f 36ff 423f
00000030: 1927 c73e bfd9 c33e 7a9b 043f deec 083f
00000040: fa53 1340 45af d23e b9be b03d 619e 893e
00000050: f031 c73e e812 3c3e b309 053f b3f6 623f
00000060: 159d 043e fc2b 333f b161 513e f81f bb3e
00000070: 51b7 db3e 52cb c13e 1a2e 3f3f 2027 193f
00000080: e4d4 2440 7c88 653f 6a67 7c3e a50c 113f
00000090: 95b8 403f 92e4 613f 09bf 573d cb87 583f
000000a0: 49ec 693e 972a 953e 20f5 943e c63b 163f
000000b0: 24e8 d33e 43bf b53d bb02 923e 2b66 2740
000000c0: 11f4 be3d 6334 393f 7e7f a03e f1e5 573f
000000d0: d824 8d3e ddf3 ed3e 9720 613f 6d73 8f3f
000000e0: 683b 283f 3c2a 7d3e b3c7 c03e 8e1c 9e3e
000000f0: f386 6f3c 5a2b 613f 89d7 983e 7e0d 6e3e
00000100: 3045 663e 1b34 973f f254 313f db94 633f
00000110: bffb 6f3e ac6a ee3e 07ac f53c b0ec 4b3f
00000120: ae6f 4a3e 39d0 1b3f 9720 ee3e 2904 cb3c
00000130: 852a 8c3e 8b3e ec3e b088 e23e dbbc 263f
00000140: 14e4 573f 7bfa 833e f438 4a3f d4cd 663d
00000150: 180f cd3e a502 2540 726a 443f c860 2440
00000160: b1f9 433f d87a 333f 104c 4d3f d0a1 543e
00000170: 3832 303f 7050 3c3f 991e 623f 9a89 9a3f
00000180: 6965 383f ec4d 453e 8fe9 2e3f 851f 1b40
0.57670665 0.44761524 0.5663765 0.34172288 0.5702197 0.45529655 0.78668237 0.6792711
0.5363634 0.5301731 0.8668338 0.7617067 0.38897017 0.38252065 0.5179974 0.5348643
2.3020005 0.41149345 0.086301275 0.26878646 0.38905287 0.18366587 0.51967925 0.88657683
0.12950547 0.6998899 0.20447423 0.36547828 0.42913297 0.37850434 0.7467972 0.59825325
2.5754938 0.89661384 0.24648824 0.5665992 0.7528165 0.88239396 0.05267242 0.84582204
0.22844042 0.29134056 0.29093266 0.5868496 0.41388047 0.08874371 0.28517708 2.6156108
0.09323896 0.7234556 0.3134727 0.8433524 0.27567172 0.46475115 0.87940353 1.12071
0.65715647 0.24723142 0.37652358 0.3088116 0.014619577 0.87956774 0.2985194 0.23247334
0.2248733 1.1812776 0.6927024 0.8889901 0.23435877 0.4656576 0.029989256 0.7965803
0.19769165 0.608646 0.4650924 0.024782257 0.2737619 0.46141466 0.4424491 0.6513192
0.84332395 0.2577704 0.78993154 0.056348637 0.40050578 2.5782864 0.7672492 2.568407
0.76552874 0.7010932 0.8019419 0.20764852 0.6882663 0.7356024 0.8832794 1.2073243
0.7202974 0.19268006 0.6832513 2.4237988

z f4 [1, 100]
00000000: ad48 5a3f 8c5d 683e 701d 663d 5103 753f
00000010: 958a 7f3f 450e 4b3f 8836 b43e ac21 cd3e
00000020: 9c07 183f c0f6 f33e a96e 573f 10d5 a13d
00000030: c172 5b3f 4c4f 403f df38 243f ccfe 113f
00000040: 64e4 7a3e 3485 553f 31ce 7f3f f259 ac3e
00000050: 30fa 173f d02a d53d 50c1 243f 2e37 b23e
00000060: f89e e23e efa6 253f b42d 073e 5c8f 6d3e
00000070: 9c9c ae3e 0021 5b3f ff08 3a3f 0048 f839
00000080: 5630 9c3e d4e6 aa3e 8e2b 8a3e 6c2e 603e
00000090: 3ea3 9f3e 3a12 8b3e 9288 3d3f 28f9 ce3e
000000a0: 1893 d83d ecef 413f 6c6c 153f 6682 2d3f
000000b0: 4976 353f aaac 093f 8700 583f e3fe 233f
000000c0: 1c13 4d3f 3c92 203f b00e a23d 8cdb 423e
000000d0: 48c5 273f 32f2 933e 2698 353f e31f 513f
000000e0: e0fc 423d a239 943e 48d2 8b3e 20fc 673d
000000f0: 88c9 4a3f 8027 883b f603 073f 2c50 1f3e
00000100: dd55 3a3f cc16 453e 7431 213f 65d3 483f
00000110: d89e 273e 9c4f de3e d3f9 673f 0424 793f
00000120: 003c b53c 2383 7b3f 99ab 203f af5f 723f
00000130: 8070 7f3f 98a7 403f 7023 803e 4beb 3b3f
00000140: 1442 113f 3884 853d f96d 213f ca10 fc3e
00000150: 7f06 453f 2ecc 603f c878 753e 3082 3a3e
00000160: 2e7d eb3e 6cbf 363f 4fa7 193f 6f20 743f
00000170: afc4 3b3f c02f 4f3c f035 a13e 1a4c c13e
00000180: ad80 713f 79e4 263f bd9c 203f 24f8 3b3f
0.85267144 0.22691935 0.056180418 0.95708185 0.99820834 0.7931865 0.35197854 0.40064752
0.5938661 0.47649193 0.8415323 0.079019666 0.85721976 0.75121 0.6414928 0.57029414
0.24501187 0.83406377 0.99924 0.33662373 0.5936613 0.104085565 0.6435747 0.34807724
0.4426191 0.64707845 0.13201028 0.23199219 0.34103858 0.8559723 0.72669977 0.0004735589
0.30505627 0.33379233 0.26986355 0.21892709 0.3117923 0.27162343 0.74036515 0.40424466
0.10574931 0.75756717 0.58368564 0.677771 0.70883614 0.5377909 0.84375805 0.640608
0.80107284 0.62723136 0.07912958 0.19029063 0.655354 0.28895718 0.70935285 0.8168928
0.04760444 0.2895022 0.2730887 0.05663693 0.7921376 0.0041550994 0.5274042 0.15557927
0.72787267 0.19246978 0.62966084 0.7844756 0.16369188 0.43420112 0.90615577 0.9732058
0.022123337 0.98246974 0.6276184 0.9467725 0.99781036 0.7525573 0.25027037 0.73405904
0.5674145 0.06519359 0.6305843 0.4923156 0.7696304 0.87811553 0.23971856 0.18213725
0.45993942 0.71385837 0.6002092 0.9536199 0.7334699 0.012645662 0.31486464 0.37753373
0.9433697 0.6519237 0.62739164 0.7342551
