checkpoints/single-phase/123bus/safe-ddpg copy 2/value_net_checkpoint_a4.pth (torch, 44119 bytes, 5 tensors)

linear1.weight f4 [100, 2]
000000 fc 1c dc 3e 12 73 1c bf 92 f3 60 3e f4 dc 33 bf
       0.42990863 -0.61113083 0.21967915 -0.7025902
000010 8a a1 ad be 61 c3 f9 bd 9d 43 ab 3e f4 8a b8 3e
       -0.33912307 -0.12195469 0.33450022 0.36043513
000020 62 d5 61 be 2a cb 9b bf 4b a1 6b 3e 77 67 75 bf
       -0.22054055 -1.2171376 0.23010747 -0.95861
000030 0e 90 c4 be c7 d3 63 bf 15 7d 46 3f f8 01 7f bf
       -0.38391155 -0.8899502 0.7753461 -0.9961238
000040 52 84 cb 3d 19 f5 57 bf 9f 62 2b bf 1d 70 a2 3f
       0.099373475 -0.84358364 -0.6694736 1.2690464
000050 f8 2a 2c bf 4f f5 7e 3f a7 56 61 be 77 9d 13 3d
       -0.67253065 0.9959306 -0.22005711 0.036038842
000060 ae 1a e1 3e 17 96 21 3f 8f c3 32 3f 44 cf 73 3e
       0.43965667 0.63119644 0.6982965 0.23809534
000070 db 2e bc be 24 4e 70 bf 85 a6 de be 9f a5 9b 3f
       -0.36754498 -0.93869233 -0.4348642 1.2159919
000080 76 86 f7 3e 6e 57 3f bf f9 a5 ee be 8f 4b 7c 3f
       0.48344773 -0.7474278 -0.46611002 0.98552793
000090 33 fd ba be ae 8b 74 3f 62 a3 c7 3d 74 3e 50 3e
       -0.365213 0.95525634 0.0974796 0.20336324
0000a0 d8 ae 06 3f c9 a9 6f bf 12 4a b0 3e ee ba 35 bf
       0.5261054 -0.93618447 0.3443151 -0.7098836
0000b0 d1 c1 d0 3c 2b 96 c4 3e 4c 3d 96 be dc 56 96 3f
       0.025483044 0.3839582 -0.2934364 1.1745257
0000c0 88 93 8c 3e 27 5b 68 bf 3d 57 48 3f 8f a1 87 be
       0.27456307 -0.9076409 0.78258115 -0.26490447
0000d0 0f 52 7f 3e 91 c0 91 3e 75 f4 dc 3d dc ea 82 3e
       0.24933647 0.2846723 0.10788814 0.25569808
0000e0 5d 50 bd 3e c4 e3 5f 3f 81 68 ab be bb 2d 95 bd
       0.36975375 0.8745692 -0.33478168 -0.07284113
0000f0 5c f4 04 3f c9 b7 5e 3f d3 11 c2 3e da ff a7 3e
       0.5193536 0.86999184 0.37904224 0.32812387
000100 90 e4 c6 be f0 15 ec be eb b4 32 3f a9 50 8d bf
       -0.38846254 -0.46110487 0.6980731 -1.104024
000110 50 74 1f bf aa 0e 15 be 7e be cc bd d7 32 58 3f
       -0.62286854 -0.14556375 -0.09997271 0.84452575
000120 8f d5 5d 3f 0d 3c 65 3c 7a 3d 24 3f 44 05 49 3f
       0.8665399 0.013991368 0.64156306 0.7852366
000130 02 8e 0c 3d 57 4d 78 be e6 d3 24 bf 32 30 17 bd
       0.034315117 -0.24248253 -0.6438583 -0.036911197
000140 1a ef d3 be 6d e1 1a 3e 34 b4 f7 3d ef 43 80 3f
       -0.41393358 0.15125056 0.12094918 1.0020732
000150 85 da 75 3f fd 73 63 3f e9 e6 e0 bd 93 83 a2 3f
       0.9603656 0.8884886 -0.109815426 1.2696403
000160 7f c7 3d 3f ac ac 8c bf 0a 2b 1b bd 54 c8 4f 3f
       0.7413253 -1.0990195 -0.037882842 0.8116505
000170 b4 fc 8c 3e 6a bd 7b bf 43 b1 5f be ea 95 c6 3f
       0.27536547 -0.983359 -0.21844964 1.55145
000180 9c 23 e4 bd f2 80 a7 bf 6d a1 44 bf f9 d4 55 3f
       -0.111396044 -1.3086226 -0.76808816 0.83528095
000190 9a ad 01 bf 3c d6 86 3f 93 44 27 bf 29 3e a6 be
       -0.5065552 1.0534129 -0.6533901 -0.324693
0001a0 82 e6 3e 3f c8 f6 c7 3e aa ff 87 bd 85 4c 4a bf
       0.74570477 0.39055467 -0.06640561 -0.7902301
0001b0 89 c4 e7 bd 62 42 6f 3d ba d6 ce be 72 2e 88 3f
       -0.11316783 0.058412917 -0.40398198 1.0639174
0001c0 f7 d5 f2 be 4a c1 8a 3d 6d aa 5e 3e 1a 52 79 bd
       -0.47428867 0.06775148 0.217447 -0.060869314
0001d0 12 68 3d bf cf cc 8b 3f aa f5 fe bd c1 51 95 bf
       -0.73986924 1.0921878 -0.124492005 -1.1665574
0001e0 72 1b ff 3d 48 a9 9f bf c0 fb dc 3e 7f c9 52 bf
       0.12456407 -1.2473536 0.4316082 -0.8233871
0001f0 af a4 67 3f 3f 7e 2c 3f dd 4c 79 3f 8d 63 2b 3f
       0.9048566 0.67380136 0.9738291 0.6694878
000200 f3 be a3 3e da bd 39 3e c8 db 68 3e 7e 5f 64 3f
       0.3198162 0.18138829 0.2274009 0.8920821
000210 f3 68 dd bd f0 54 ac bf 19 8d 2f 3f 4e 80 6c bf
       -0.10811033 -1.3463421 0.6857467 -0.9238328
000220 04 90 ae 3e 55 37 9f be ba ec 43 3f b7 3c 50 bf
       0.3409425 -0.31096902 0.7653309 -0.81342643
000230 19 fb d7 bd e2 64 b1 bf ff b0 e9 3e 1f 3e 3e bf
       -0.1054594 -1.3858912 0.4564285 -0.7431354
000240 83 ba d6 3c ef 66 3f 3f bf a5 0a 3e d2 de 87 bf
       0.026211983 0.7476644 0.1353979 -1.0614874
000250 47 5b a7 be 1b c1 31 be 90 d7 1d be 49 6d 62 bf
       -0.32686827 -0.1735882 -0.15414262 -0.88448006
000260 c4 37 62 bd 8c 7c 3b bf 22 89 c1 3e 2a db 4f bf
       -0.055228963 -0.7323692 0.37799937 -0.8119379
000270 22 da 00 3f 37 8e e8 be 4d c1 6f 3d 72 28 88 bf
       0.50332844 -0.45421 0.058533955 -1.0637343
000280 0f 43 0f be e1 38 f2 be 44 1c 8c bc b9 cf 32 3f
       -0.13990425 -0.4730902 -0.017103322 0.6984821
000290 b3 2b 8b 3d fa f0 60 bf 1c 1d 46 3f 71 74 07 bf
       0.06795444 -0.878677 0.7738817 -0.5291205
0002a0 eb 16 be 3e 4f f6 10 3f fc 60 b6 3e 88 99 88 bf
       0.3712686 0.5662584 0.35620868 -1.0671854
0002b0 2e f9 d5 3e ad ae 26 3d 4b 7a 3b 3e dc 3a 3b 3f
       0.41791672 0.040693928 0.1830837 0.7313669
0002c0 d0 11 4d 3f 77 b0 3a 3f 11 b6 51 3f 25 be 45 3f
       0.80105305 0.72925514 0.81918436 0.7724326
0002d0 33 03 a8 3d 36 f8 81 bf cb 70 16 3f f6 74 6b bf
       0.08203735 -1.0153873 0.5876586 -0.91975343
0002e0 0c 90 89 3e c9 1c 65 3e dc d4 16 bf fc ca 0b be
       0.26867712 0.22374262 -0.5891855 -0.13651651
0002f0 bc 98 12 3f 95 11 3c 3f 66 85 2a 3e b7 31 35 3f
       0.57264304 0.7346433 0.1665245 0.70778984
000300 e7 3a 13 bd 46 48 98 bf a0 9e ce 3e ed 61 8e 3f
       -0.035944846 -1.1897056 0.40355396 1.1123635
000310 e2 0f 26 3e 0c 6e 41 3c 85 19 92 3e 7b 63 6d 3f
       0.16216996 0.011806022 0.28535095 0.9272992

linear1.bias f4 [100]
000000 0a 1b bf be 04 65 85 be 0d 85 eb bd 55 ac 24 3f
       -0.37325317 -0.2605363 -0.11499987 0.6432546
000010 96 74 68 3e c3 03 ff bd 4e cd 05 3f 28 d1 1d bf
       0.22700724 -0.12451889 0.52266395 -0.6164727
000020 0b 17 72 3e 88 b6 50 3f b5 2f 49 3f 0d d7 41 be
       0.23641603 0.8152852 0.7858842 -0.18929692
000030 2a 74 ed 3a 99 d3 1e 3f aa bd e2 3e 8f fe 0e 3f
       0.0018116285 0.6204162 0.44285327 0.55857176
000040 17 89 cf be 4e 6a 10 3f 54 89 e8 3e 03 f4 c0 3e
       -0.4053428 0.5641221 0.45417273 0.37686166
000050 dd 3e c9 be 20 8d 8f be 77 07 34 3f e8 72 c9 3e
       -0.39305773 -0.28037357 0.7032389 0.3934548
000060 d7 5d 92 3d 5b 37 15 bd 0d e7 64 3e fb d0 15 3f
       0.07146805 -0.036429744 0.22353764 0.58522004
000070 5c 2a 7c 3d fb 25 7d 3d e7 ab 9e bd 82 29 25 3f
       0.061563835 0.0618038 -0.077476315 0.6451646
000080 b1 a0 32 bf 49 c3 8b be 93 1c 27 bf 7b 1c 4b 3d
       -0.69776446 -0.27297428 -0.65277976 0.049587708
000090 a7 0c 82 3e b7 4e 72 be c8 64 38 3f fb f6 82 3d
       0.25400278 -0.2366284 0.7202878 0.06394764
0000a0 be 26 87 3f 25 29 df bd c0 10 dc be d5 bb e9 3c
       1.0558698 -0.108965196 -0.4298153 0.028531948
0000b0 8b ea 9e be 88 44 ab bb 4f dc 11 be f8 18 bc 3d
       -0.31038317 -0.0052266754 -0.14244197 0.0918445
0000c0 b4 2d b8 3d 09 75 5e 3f 09 a3 1d 3f a0 ff 23 bf
       0.08993092 0.8689733 0.61576897 -0.6406193
0000d0 d2 87 9d bd 88 12 fa 3d d2 40 20 bf cf e0 01 3f
       -0.07691921 0.12210566 -0.6259891 0.50733656
0000e0 aa a0 cb bd 56 13 c7 be 4e 3d 5e 3f e5 a0 c5 3e
       -0.099427536 -0.3888194 0.86812294 0.38599315
0000f0 97 c0 db 3e cd 09 b1 be d1 2f 38 3e b1 46 97 3e
       0.42920372 -0.3457779 0.1798699 0.2954612
000100 16 26 83 3d 7d 25 82 be 07 31 ac 3d e2 f1 11 bf
       0.06403749 -0.25419226 0.08407789 -0.5700971
000110 0b 6b 21 3f da f5 29 bf 82 c7 a1 3d 3e aa c3 be
       0.6305396 -0.66390765 0.07899381 -0.38215822
000120 e5 a1 1c 3f b8 12 36 be fe 6d b6 be 29 73 0d 3f
       0.6118453 -0.17780578 -0.35630792 0.55253845
000130 13 fb 6a 3d 1d 87 98 be e5 74 52 3d a2 4b d5 3d
       0.05736835 -0.29790583 0.05138101 0.104148164
000140 74 4d 4d 3f 9e ed fd 3e 12 c6 92 3c 2c b9 34 bf
       0.8019631 0.4959535 0.017916713 -0.7059505
000150 a5 ea e6 3e 77 ed 68 be c1 f5 22 bd 22 a2 1a 3e
       0.45100895 -0.22746836 -0.03978515 0.15100911
000160 38 67 13 3f 6b f7 b7 3d 1e 22 05 3e a4 cc ea be
       0.57579374 0.08982738 0.13001296 -0.45859253
000170 4f 87 d5 3e 50 a7 f1 be ea 7a 63 be f0 35 c1 3e
       0.41704795 -0.47197962 -0.22214857 0.37736464
000180 4f 69 94 3e e7 a5 c0 be a5 80 93 be de 5d 42 3e
       0.28986594 -0.37626573 -0.28809085 0.1898112

linear2.weight f4 [100, 100]
000000 ca fd b4 3e e7 64 15 bf 33 78 68 bd 02 64 7c 3d
       0.35349876 -0.5835709 -0.056755256 0.061618812
000010 95 60 21 bf cd 80 7a 3e 2e be 4b bd 1f e0 c9 3e
       -0.63038 0.24463196 -0.049741916 0.39428803
000020 91 a7 fb 3d 3e 10 20 bf 8f 7e 2f bf 00 06 af 3b
       0.1228782 -0.62524784 -0.6855249 0.0053412914
000030 47 42 b4 3e 62 07 84 3d 73 c7 4d bf 2e 1c 0d bf
       0.35206816 0.06446721 -0.8038246 -0.55121124
000040 e2 9f 86 3e eb 0e 3f bf c6 6f 4c bf b7 9b c3 3c
       0.26293856 -0.7463214 -0.7985805 0.023877962
000050 52 0e c5 3e 67 06 a0 3e c8 82 46 3d 2b 52 1d bf
       0.38487488 0.31254885 0.048464566 -0.61453503
000060 76 0f f8 3d ab 9f 9b 3d fe 02 f8 3d 51 3a e4 3d
       0.12112324 0.075988136 0.12109946 0.111439355
000070 8d 0b 6c 3e ca 92 bc 3d aa cd 84 3e a8 ea 13 3e
       0.23051281 0.09207685 0.2593816 0.14444983
000080 96 99 a8 bc e1 43 5b 3e fb fe 9a bd 0d ed 65 3f
       -0.020581048 0.21412612 -0.07568165 0.89814836
000090 e0 17 e9 3d 2c 4f 01 3f ba 14 e9 3c 70 f3 76 3d
       0.11381507 0.5051143 0.028452266 0.060290754
0000a0 3b d6 80 be 3c 7c f5 be 72 16 05 3f 6a 44 74 3f
       -0.25163445 -0.47946346 0.51987374 0.9541689
0000b0 4a e7 84 3e 2e 31 2c 3f f3 8a 4f 3e 33 04 82 3f
       0.2595771 0.6726254 0.20267849 1.0157531
0000c0 ff b2 13 bf 12 f6 67 bf 5f 2e 41 bf 33 32 de bc
       -0.57695 -0.9060985 -0.7546138 -0.027123546
0000d0 63 1d 97 3e 1e a1 82 3c ed 26 44 3d 48 4b 3c bf
       0.29514608 0.015945967 0.047888685 -0.7355237
0000e0 38 0b 8f bd 4c 25 f1 3d d9 79 2e bf f5 e5 f9 3d
       -0.06984562 0.11774692 -0.68154675 0.12202064
0000f0 ff 79 37 3e 25 4d d0 3e 28 17 46 3e 51 8e 90 3e
       0.17917632 0.40683857 0.19344771 0.2823358
000100 ae db 7d 3e df 3e b8 be c6 b2 f3 be 2a 97 bf 3e
       0.24790832 -0.35985467 -0.4759733 0.37420017
000110 54 69 86 3d 67 1c ad 3e 21 3f 3c bf 1c 5c b7 3e
       0.065630585 0.33810732 -0.7353383 0.3581246
000120 6c 88 22 3c 42 43 ad be 50 1d 23 3d 31 f0 f9 3b
       0.009920221 -0.33840376 0.039822876 0.00762751
000130 2f 5b 22 bf de 3a 68 3e 8a 7b 25 3e 21 0f 85 3e
       -0.63420385 0.22678706 0.16160408 0.25988105
000140 2f 17 26 bc 48 3d 09 3e c0 33 92 3e 23 5e 2a 3f
       -0.010137363 0.13402283 0.28555107 0.6654989
000150 c2 5f 9e 3d 64 eb 28 3e 83 8a 35 3e 95 94 23 3e
       0.07733108 0.16496044 0.1772862 0.15974648
000160 df f3 0c 3e ea 5f bc 3e 0a d2 79 3d 55 e3 be 3e
       0.13764904 0.36791927 0.060991324 0.37282816
000170 0e 0a 15 3e 67 2a f6 ba 8a 44 e5 3e 22 be eb 3d
       0.14554617 -0.0018780947 0.44778854 0.11510874
000180 71 01 e3 3d 0f 14 76 3f 3e e9 43 bd dc 35 18 3e
       0.11084259 0.96124357 -0.04782986 0.14864296
000190 92 cc 06 3f 61 c6 1d bf 0a 80 aa 3d 27 0b 66 3e
       0.526559 -0.6163083 0.08325203 0.22465192
0001a0 cb 0f 1c bf 4a 85 83 3e c7 35 c5 bc 5a 28 c7 3e
       -0.609616 0.2568763 -0.024073495 0.38897973
0001b0 7d b8 4b 3e 1e 68 34 bf 07 ee 55 bf 90 6a 4a 3d
       0.19894595 -0.7047137 -0.83566326 0.049418032
0001c0 c9 53 a1 3e 55 96 4f 3e 9b b3 33 bf cb cf 22 bf
       0.31509236 0.20272191 -0.7019593 -0.63598317
0001d0 fb 07 bb 3e 92 c9 29 bf 1d 85 32 bf 2b 96 0b 3d
       0.36529526 -0.66323197 -0.69734365 0.03407876
0001e0 a7 d2 c1 3e f7 a9 e1 3e d1 13 86 3d d1 5a 37 bf
       0.37856027 0.44074985 0.065467484 -0.7162295
0001f0 e2 0f 08 3e ff bd d1 3d 34 6a 91 3e 50 93 20 3e
       0.13287309 0.10241317 0.2840134 0.15681195
000200 91 88 1e 3e b3 95 03 3d 85 ed 96 3e 75 65 8e 3d
       0.15481783 0.032125186 0.29478088 0.06952945
000210 40 cb 0e 3e ce 14 94 3e 95 82 c0 bd 0c df 39 3f
       0.13944721 0.28922123 -0.093999065 0.7260597
000220 16 08 4c 3e 5b 96 d7 3e c6 80 be 3c 0a 60 4f bd
       0.1992496 0.421069 0.023254763 -0.0506287
000230 83 8b 29 be 2e 7d fd be 71 22 1a 3f e5 5b 81 3f
       -0.16557126 -0.49509567 0.60208803 1.0106169
000240 86 32 96 3e 4d 37 31 3f 78 c8 47 3e c3 f0 85 3f
       0.2933542 0.6922501 0.19510067 1.04641
000250 14 f3 20 bf 1e 3e 69 bf e5 56 60 bf 93 62 0f bd
       -0.6287091 -0.9111041 -0.8763259 -0.035006117
000260 19 b0 af 3e ee c6 46 3d 88 0d c6 bd 71 1f 42 bf
       0.3431404 0.048529558 -0.0967055 -0.75829226
000270 ff b6 ab 3d 52 09 e2 3d 5a 9c 48 bf 46 d1 d5 3d
       0.08384513 0.11036934 -0.78363574 0.10440306
000280 82 70 bf 3d 72 78 d1 3e 4f 69 7c 3e 47 50 a6 3e
       0.09347631 0.40912205 0.24649547 0.32483122
000290 70 80 64 3e dd f0 ab be 33 1f 1e bf 81 66 95 3e
       0.2231462 -0.33582202 -0.61766356 0.29179767
0002a0 e0 a9 26 3e f6 91 ba 3e 96 03 3f bf f0 7d e6 3e
       0.1627574 0.36439484 -0.74614847 0.45017958
0002b0 4f c3 0e 3e 15 19 db be 6a dc 20 bd e3 09 8c bd
       0.13941692 -0.42792574 -0.039272703 -0.06837823
0002c0 56 4f 34 bf 23 90 a3 3e 41 05 7d 3e f3 d6 66 3e
       -0.7043356 0.31945905 0.24709035 0.22542934
0002d0 d8 dd 2d bd c9 8d 73 3e 79 a3 95 3e 1a 80 03 3f
       -0.042447895 0.23784555 0.29226282 0.5136734
0002e0 81 8e 0a 3e 13 ff 6c 3c 4c 03 46 3e 82 01 96 3e
       0.13530923 0.014465111 0.19337195 0.29298025
0002f0 e8 dd 98 3e 17 73 9e 3e c7 e7 2d 3e c2 0b 9e 3e
       0.298568 0.30947182 0.16982947 0.30868345
000300 09 1e 50 3e 9d 82 20 bd a7 59 dc 3e b7 b3 35 3e
       0.20323958 -0.039187063 0.4303715 0.17744337
000310 ff 1e eb 3d 46 79 8b 3f 70 e8 cd 3c d1 b9 15 3d
       0.114805214 1.0896385 0.025135249 0.03655416
000320 8d 22 a5 3e 50 e1 29 bf d0 b7 37 bd 0e bd 23 3e
       0.32252923 -0.66359425 -0.04485303 0.15990087
000330 7b ac 1a bf 44 18 73 3e 00 23 2c 3d 88 5e ba 3e
       -0.60419434 0.23739725 0.042025566 0.36400247
000340 57 14 e5 3d 12 07 25 bf c9 1a 28 bf 2a d3 0d bd
       0.1118552 -0.64463913 -0.6566587 -0.03462521
000350 2e ea b7 3e 49 c5 0a 3d 5c ca 4c bf d8 d0 2b bf
       0.35920852 0.033879552 -0.79996276 -0.67115545
000360 26 9e a4 3e 3c 66 33 bf 65 fc 36 bf 79 c3 83 3c
       0.32151908 -0.7007787 -0.71478873 0.01608442
000370 f9 8b 58 3e f5 e5 db 3e d7 81 f3 3d c6 2c 17 bf
       0.21147145 0.4294888 0.11889999 -0.59052694
000380 ec 93 11 3e f6 27 e2 3d 04 83 f6 3d 27 fb d5 3b
       0.14216584 0.11042778 0.12036708 0.006530184
000390 57 a4 8d 3e 27 68 2d bd 79 9c b2 3e a5 14 e7 3d
       0.27664444 -0.042335656 0.34885004 0.112832345
0003a0 f4 d6 07 3c 15 e6 3c 3e a3 68 2e bd 18 db 3f 3f
       0.008290995 0.18447144 -0.042580258 0.74943686
0003b0 f6 be 1d 3e 73 ae cd 3e 58 96 31 ba a2 20 88 bd
       0.15404877 0.40172157 -0.0006774417 -0.06646849
0003c0 99 e3 65 be 23 54 05 bf 7e d2 0d 3f b4 cc 82 3f
       -0.22450103 -0.5208151 0.5539931 1.021872
0003d0 78 c8 95 3e 01 65 3e 3f 48 00 5f 3e 6e f8 81 3f
       0.29254508 0.7437287 0.21777451 1.015394
0003e0 1b 10 20 bf 76 15 66 bf c3 38 30 bf 12 b7 82 3d
       -0.62524575 -0.89876497 -0.6883661 0.06382574
0003f0 7d 0e c1 3e 1c 8d a0 3d 00 01 f4 3c a2 50 18 bf
       0.37706366 0.078394145 0.029785633 -0.59498036

linear2.bias f4 [100]
000000 a6 f0 ef bd 78 eb 2f bd b4 9e 6b bd 7d 4d db bd
       -0.11715822 -0.04294917 -0.057524398 -0.10708139
000010 9d 13 6a bd 4a 04 25 38 e4 90 24 3d 91 fb a9 bb
       -0.05714761 3.934306e-05 0.04017724 -0.0051874598
000020 86 66 17 bd c3 69 58 bd 22 96 cb 3c ea c8 14 3d
       -0.03696301 -0.052835237 0.024851862 0.03632442
000030 6b 87 34 3d fb 1d 0b bd 9c c7 ec bc 74 76 26 3d
       0.044074457 -0.03396414 -0.028903775 0.04064031
000040 3f c4 b9 bb 1c 6d 9d 3c 93 22 42 bd a5 65 3d 3d
       -0.0056691463 0.019217066 -0.047396254 0.046239514
000050 36 47 af 3e 9d 25 51 bd ee f1 ca 3a b7 3a 17 3d
       0.34234017 -0.05106126 0.0015483478 0.03692123
000060 b2 23 b6 bc 76 22 2b bd 96 0e 46 3d 06 0a 11 3d
       -0.022233818 -0.04178091 0.048353754 0.03540995
000070 57 b2 c9 bd 40 76 30 3c 24 3f 28 bd 97 9e 18 3d
       -0.09848469 0.0107703805 -0.04107584 0.037260618
000080 58 21 29 3d 1c f5 95 bc 09 b8 65 3d 01 fe ab bd
       0.041291565 -0.018305354 0.056083713 -0.08398057
000090 f7 75 82 bd ae 87 4c 3d da 93 04 3b 88 53 cd bd
       -0.06370156 0.04993408 0.0020229728 -0.10025698
0000a0 27 78 17 bc 83 82 1c bd 19 f2 98 bd be da 43 3d
       -0.009244955 -0.038210403 -0.074680515 0.04781603
0000b0 da d2 5a 3d 46 a7 69 3d 00 f7 06 3b e5 19 9e bd
       0.05342374 0.05704429 0.0020594 -0.07719783
0000c0 d0 80 9d bd ff 27 55 bd 8e 55 b6 3d fc a0 37 3c
       -0.07690585 -0.052040096 0.08903037 0.011207815
0000d0 06 a0 57 3d f0 e4 72 bd a3 38 7d 3d 18 26 9f bd
       0.052642845 -0.059300363 0.06182159 -0.07770938
0000e0 63 68 e3 bd 1b e5 c5 3d 12 24 88 bd 1a fa de 3c
       -0.111038946 0.09662839 -0.06647505 0.027218867
0000f0 eb fc 8a bd 03 ef c5 3c 7e 47 c2 3c 80 4f 01 3a
       -0.067865215 0.024161821 0.02371573 0.0004932806
000100 57 9b 1f 3d 37 ec 02 3d 1a 6b 8c 3d a7 bc 3b bd
       0.038966503 0.031963553 0.068563655 -0.04583421
000110 21 3b 17 3d ef 7e dd 3c 6b f6 9f bd 2b 74 c0 bd
       0.036921624 0.027038066 -0.078106724 -0.09397157
000120 c0 72 71 3d 4d 40 94 bc 27 7b 72 bd 8b 31 05 3d
       0.058947325 -0.018097067 -0.05919948 0.03251795
000130 30 3c 14 bd 38 70 70 3b 6a df de 3c a7 b0 f0 bc
       -0.03619021 0.0036687981 0.027206142 -0.02938111
000140 82 89 ab bc 86 fa ab bd c1 04 87 bd ad fd a3 bd
       -0.020939592 -0.08397393 -0.065927036 -0.08007369
000150 05 3f c0 bd b2 27 c1 bd 89 d0 66 3c 1f 42 de bd
       -0.0938702 -0.094313994 0.014087805 -0.10852455
000160 38 9e 73 bd 7b f2 16 3d aa 94 54 bd e2 98 59 bd
       -0.05947706 0.03685234 -0.05189959 -0.053124316
000170 20 6d dd 3e c0 32 9a bd a1 66 7d bc a5 82 aa 3d
       0.43247318 -0.07529211 -0.015466363 0.083257
000180 47 b5 fb bc a9 c7 4b 3d 7b 39 62 bc 11 aa 2f 3c
       -0.030726088 0.049750958 -0.01380765 0.010721699

linear3.weight f4 [1, 100]
000000 f1 06 05 bf ef d0 13 bf 9b 37 0d bf d8 5b 08 bf
       -0.51963717 -0.5774068 -0.5516297 -0.5326514
000010 da 87 fe be a6 f5 15 bf d4 17 03 bf b7 13 fd be
       -0.49713022 -0.58577955 -0.51208234 -0.49429104
000020 78 ba 1a bf d7 47 09 bf f5 18 06 bf ed 90 0b bf
       -0.6044078 -0.53625244 -0.5238183 -0.54518014
000030 06 4a 05 bf 24 54 0e bf df 7d 09 bf 51 28 f4 be
       -0.52066076 -0.5559714 -0.5370769 -0.4768701
000040 e1 9f 03 bf 89 5c 0c bf 7d a6 0b bf ef 1e 3a bf
       -0.5141583 -0.548287 -0.54550916 -0.7270345
000050 8f ae 8e 3f 95 1c 0c bf 10 ff 09 bf 36 fd 07 bf
       1.1147021 -0.5473111 -0.5390482 -0.53120744
000060 f0 3f 07 bf f7 9b 0b bf 01 b6 09 bf d9 b1 fb be
       -0.52831936 -0.5453486 -0.5379334 -0.49159124
000070 6f b3 5c 3a ff 1a dc ba 10 d8 0d bf 21 30 fd b6
       0.00084190717 -0.0016792713 -0.5540781 -7.5455905e-06
000080 ff 2e 37 bf 71 db 0b bf d0 63 0e bf 46 be 32 bf
       -0.71556085 -0.54631716 -0.5562105 -0.69821584
000090 54 b7 9d 3b 6a 7c 0f bf a3 22 08 bf 3f b3 3f bf
       0.004813114 -0.56049216 -0.5317785 -0.7488288
0000a0 01 2b 08 bf 90 01 0e bf 5e b8 0d bf 34 4c 50 ba
       -0.5319062 -0.55471134 -0.55359447 -0.00079459255
0000b0 f0 ea 1c 3f ab 16 08 bf e3 57 16 bb e6 fd 6d ba
       0.61295986 -0.5315959 -0.0022940568 -0.00090786663
0000c0 47 d5 10 bf b1 bb ef b9 eb 0b 3e 3f fc 37 96 3b
       -0.56575435 -0.00045725473 0.74236935 0.0045843106
0000d0 30 c2 00 bf 53 36 13 bf a6 dd 74 ba c7 f7 6d b9
       -0.50296307 -0.5750477 -0.00093408895 -0.00022694386
0000e0 af 45 11 bf c0 a1 a0 ba d8 bc 03 bf a5 9c 38 3b
       -0.56746954 -0.0012255237 -0.5146003 0.002816954
0000f0 f4 2b 0b bf f0 ae fd be af 63 13 bf 30 7c 0f bf
       -0.5436394 -0.4954753 -0.5757398 -0.5604887
000100 01 fd 03 bf 0b 95 fd be b7 b3 00 3b 11 7f 53 3a
       -0.5155793 -0.49527773 0.0019638368 0.00080679456
000110 37 3c 07 bf 9a 92 09 bf 73 6f 11 bf cd a5 44 ba
       -0.52826256 -0.5373932 -0.56810683 -0.0007501513
000120 78 2f 9a 3a e1 b8 f4 ba f9 60 fd be 7b c3 03 bf
       0.0011763414 -0.0018670821 -0.49488047 -0.51470155
000130 59 ea fc be a7 9f 03 bf 46 bb 04 bf 9e 1f 23 b9
       -0.49397543 -0.51415485 -0.51848257 -0.0001555667
000140 d4 5a 05 bf f7 1d 51 bb a9 44 0d bf 5c 20 14 bf
       -0.5209172 -0.003190873 -0.5518289 -0.57861876
000150 5c 76 06 bf 16 51 0c bf ab 98 10 bf ae c1 09 bf
       -0.5252435 -0.5481123 -0.5648295 -0.53811157
000160 9d 66 0a bf f9 97 0d bf 96 23 08 bf ed d2 02 bf
       -0.54062825 -0.55310017 -0.531793 -0.511031
000170 ae 03 89 3f 55 ef 0d bf d7 07 35 bf 97 6c 5a 3b
       1.0704248 -0.55443317 -0.7071509 0.0033328885
000180 e2 b6 ef 3a 81 40 0b bf b3 90 13 bf 13 fa 0f bf
       0.0018288756 -0.543953 -0.5764267 -0.5624096
