checkpoints/single-phase/13bus/safe-ddpg/no_gradient_policy_net_checkpoint_a1.pth (torch, 3103 bytes, 4 tensors)

b f4 [100]
00000000: 95b0 d7b8 18b8 d7b8 3d76 d9b8 86d1 d8b8
00000010: c914 d8b8 85f3 d8b8 8419 d8b8 c785 dbb8
00000020: f1cb d9b8 109f dab8 a025 d8b8 32ec d8b8
00000030: cae3 dbb8 d11d d8b8 8052 dcb8 dadf d8b8
00000040: 291e d9b8 d751 d9b8 a4aa dab8 36af d7b8
00000050: e7c2 d7b8 41b5 d7b8 3fb6 d7b8 7b5c dab8
00000060: 9e65 dab8 c6e0 0c3e 0300 0080 0c00 0080
00000070: 0c00 0080 0300 0080 0500 0080 1300 0080
00000080: 0300 0080 0700 0080 0300 0080 0400 0080
00000090: 0800 0080 0300 0080 0400 0080 0300 0080
000000a0: 0700 0080 0300 0080 0400 0080 0300 0080
000000b0: 0400 0080 0300 0080 0300 0080 0300 0080
000000c0: 0d00 0080 0300 0080 0400 0080 0900 0080
000000d0: 0500 0080 0400 0080 0500 0080 0300 0080
000000e0: 0600 0080 0300 0080 0300 0080 0600 0080
000000f0: 1e5f c33c 7d03 0080 5200 0080 5100 0080
00000100: 4f00 0080 2201 0080 b200 0080 6900 0080
00000110: 3b01 0080 5200 0080 da00 0080 6900 0080
00000120: f9e5 5f3c 461e 0080 b34a 7e3b a062 ba3a
00000130: 2e30 833a 918b 343a fd61 a93a f810 763a
00000140: ad26 013a 7e57 0439 bb0b da39 62fb 343a
00000150: a53d 663a 8cfa 4d3a 9dd9 ee39 fe6d 0e3a
00000160: 8c36 f838 a18b b33a b1de 5339 1bcd 733a
00000170: 2160 fa3a a5c8 483a 6467 3a3a 7537 cb3a
00000180: 55ca 223a 4dc2 cc3a ca25 fb39 ab4e 8d3a
-0.0001028489 -0.00010286289 -0.0001036939 -0.000103387094 -0.00010303554 -0.00010345042 -0.00010304435 -0.00010467652
-0.000103853534 -0.00010424678 -0.00010306691 -0.000103436774 -0.00010485163 -0.00010305236 -0.00010505784 -0.00010341378
-0.00010352984 -0.0001036261 -0.00010426834 -0.000102846345 -0.00010288302 -0.0001028576 -0.00010285945 -0.00010412276
-0.00010413978 0.1375762 -4e-45 -1.7e-44 -1.7e-44 -4e-45 -7e-45 -2.7e-44
-4e-45 -1e-44 -4e-45 -6e-45 -1.1e-44 -4e-45 -6e-45 -4e-45
-1e-44 -4e-45 -6e-45 -4e-45 -6e-45 -4e-45 -4e-45 -4e-45
-1.8e-44 -4e-45 -6e-45 -1.3e-44 -7e-45 -6e-45 -7e-45 -4e-45
-8e-45 -4e-45 -4e-45 -8e-45 0.023849066 -1.251e-42 -1.15e-43 -1.14e-43
-1.11e-43 -4.06e-43 -2.5e-43 -1.47e-43 -4.41e-43 -1.15e-43 -3.05e-43 -1.47e-43
0.01366567 -1.086e-41 0.0038801848 0.0014220066 0.0010008866 0.0006887252 0.001292288 0.0009386684
0.00049267226 0.00012621094 0.0004158894 0.0006903914 0.00087829895 0.0007857464 0.00045557032 0.000543326
0.00011835722 0.0013698229 0.00020205487 0.00093002775 0.0019102135 0.0007659293 0.00071107433 0.0015504198
0.00062099594 0.0015621871 0.00047902606 0.0010780891

c f4 [100]
00000000: 9ebb e937 aaa6 513b 3da9 e23a 1ffd f73a
00000010: 813f 0a3b 6b02 5e3b 500e 4a3b 4ef1 e53a
00000020: a3ca 4d3b ca09 5e3b b8a6 693b a2de 743b
00000030: 7d71 4a3b 649c 433a 8575 ba39 4118 5b3a
00000040: 0593 0c3b bb5f 023b 571d 9f3a 43b2 ff3a
00000050: c32d 9b3a 4b92 4c3b 03c2 113b d10f 9e3a
00000060: deea 2d3a 7595 323b 3700 3d3b 018b 7d3a
00000070: 710b 463a af04 783b 5984 513a 52de 143b
00000080: 1a2a 603b c7e0 613b 75e3 713b 7ee8 a13a
00000090: 8156 8239 3039 683a 7d3f d53a c91b 5c38
000000a0: 8fbb 6d3b f2f7 5e3b b28e 783b b540 333b
000000b0: 77a5 f73a c74f 9739 babc b93a 3352 7a3b
000000c0: b760 1b3a c775 c83a 7ea2 eb3a 95d5 cd3a
000000d0: 7b52 2c3b 2725 7b3b 6750 a63a 1588 d23a
000000e0: 63d1 4f3b f08b 033b d636 9439 c31e 0c3b
000000f0: 5a2c c43a 4bf2 623a 2053 e93a c6fb aa3a
00000100: d8fc 403a 8f72 c339 f133 a73a d3b8 073b
00000110: 3db4 e33a 4afa 0e39 2241 923a d76f bf3a
00000120: 1b30 e23a a00e 833a eb8a da3a b6f0 463b
00000130: 9248 7a3b f34e 1f3b eb22 743b 6305 633b
00000140: c149 343b bce1 0f3b b845 793b a8c0 c33a
00000150: 41b0 013b 73a9 403a ec8d 623b 7ac9 e639
00000160: 6d7d 0a3b 548a 9d3a c081 b23a cf18 3c3b
00000170: af5d 183a 9ae0 403b 6dbd 173b 4d4f d63a
00000180: 525a 793b 8725 113a 1ac2 fd3a c598 2f3b
2.786313e-05 0.0031990209 0.0017292869 0.001892004 0.002109498 0.0033875953 0.0030831285 0.0017543228
0.0031401298 0.0033880346 0.003565235 0.0037364145 0.0030890398 0.00074619637 0.00035564243 0.0008357801
0.0021449935 0.0019893486 0.0012139481 0.0019508082 0.00118392 0.0031215127 0.0022240884 0.0012059157
0.0006634424 0.0027249728 0.002883924 0.0009671897 0.00075548055 0.0037844589 0.00079924386 0.002271552
0.0034204782 0.0034466253 0.0036909257 0.0012352613 0.00024859983 0.0008858619 0.0016269531 5.2477964e-05
0.0036275124 0.0034022299 0.003792685 0.00273518 0.0018893917 0.00028860403 0.0014170625 0.0038195967
0.00059271924 0.001529389 0.0017977504 0.0015703911 0.002629428 0.0038321705 0.0012688757 0.0016062284
0.0031710498 0.0020072423 0.00028269616 0.002138064 0.0014966831 0.000865732 0.0017801262 0.0013045005
0.00073618954 0.0003727865 0.0012756569 0.002070953 0.0017372441 0.00013635415 0.0011158327 0.0014605474
0.0017256768 0.0009998865 0.0016673481 0.0030355877 0.0038190228 0.0024308532 0.0037252258 0.0034640662
0.002750978 0.0021954617 0.003803594 0.0014934735 0.0019788893 0.00073494687 0.0034569455 0.0004401913
0.0021131888 0.0012019374 0.0013618991 0.002870131 0.00058123 0.0029430748 0.0023153678 0.0016350538
0.003804822 0.0005536903 0.0019360215 0.0026793939

q f4 [1, 100]
00000000: 2f24 7a3d 6929 da3d d4ff 263f f4b2 073f
00000010: bfbd a43e 4fe5 0e3f 6065 a83e 6bbc 693f
00000020: 7585 343f 44b2 503f 9e56 b13e a563 0d3f
00000030: c3b1 723f a89e ab3e 6481 7c3f 3bc9 0a3f
00000040: a650 173f 0fc3 203f 7c12 523f 8594 433d
00000050: cdde 183e 4aca bc3d 4e76 c73d 3377 483f
00000060: 2da0 493f 63de 0f40 8da2 763c 6590 5f3f
00000070: cf23 5f3f 83ca 373e ca79 0d3f 64ce 6e3f
00000080: 99ff 973e bf48 3b3f 0ed1 213b 167f ef3e
00000090: a356 473f 1e71 853e 9fd7 d43e e83e ee3c
000000a0: 1839 3d3f e5f7 883e e77e 0b3f a6db 5c3d
000000b0: aa42 ff3e a563 1c3e 156b 8c3c 6dad 6a3d
000000c0: 04f4 613f c246 553d 6f54 f23e 2bf5 4e3f
000000d0: b95c 173f 9ab8 b43e 5055 1b3f f4f1 033e
000000e0: d33d 383f bc01 263c 154f 6a3c 992c 3a3f
000000f0: a652 883f 9ac9 793f 3b30 673e 0063 4e3e
00000100: b4b3 c93d 3923 5c3f 06bc 3f3f 376d f93e
00000110: 517b 5f3f e74d 1c3e bd92 4d3f 8fb1 f93e
00000120: 7c81 833f be90 cb3e 82ef 183f 24ab 0d3f
00000130: 44b7 6b3e b4a2 623f d019 343e e048 0a3d
00000140: a2f8 5f3f cd24 3e3f 4001 673f b4f8 9d3e
00000150: e4ab 283e edfa 1c3f 1228 873e b3ce 4c3f
00000160: ecfe 0b3f eab5 f33e 0de8 3e3f d10c 543f
00000170: 1e18 563f b86c fc3e 8e91 be3e 608a 1e3e
00000180: 4fa6 223f 09f2 1c3f 1f98 423f 153e 493f
0.061069664 0.106524296 0.6523411 0.53007436 0.32176015 0.5581865 0.32889843 0.9130313
0.7051614 0.8152201 0.34636396 0.5523017 0.9480249 0.33519483 0.98634934 0.54213303
0.59107435 0.62797636 0.82059455 0.04774906 0.14928742 0.09218271 0.09739362 0.78306884
0.78760034 2.2479484 0.015053404 0.87329704 0.87164015 0.17948346 0.5526396 0.9328368
0.29687193 0.73157877 0.0024691257 0.46776646 0.7786657 0.26062864 0.41570756 0.02908273
0.73915243 0.2675163 0.5449051 0.05392041 0.49855548 0.15272386 0.017140904 0.057294298
0.88262963 0.052069433 0.47330043 0.80842847 0.5912586 0.3529709 0.6067705 0.12885267
0.71969336 0.010132249 0.014301081 0.727243 1.0650222 0.97573245 0.22576992 0.20154953
0.09848729 0.85991246 0.74896276 0.48716137 0.8729754 0.15264092 0.8030203 0.4876828
1.027389 0.39758867 0.5974046 0.55339265 0.23019129 0.88529515 0.17587972 0.033760905
0.8748876 0.74274904 0.9023628 0.30853808 0.16471821 0.6132038 0.2639776 0.800029
0.54685855 0.47599727 0.7457283 0.82832056 0.8363055 0.49301696 0.37220424 0.15482473
0.63535017 0.61306816 0.7601337 0.78610355

z f4 [1, 100]
00000000: 10ee 2f3d d43a 183f eb78 7f3f 2ec1 8f3e
00000010: 9c3e 833e b0e5 083d 815a 233f 6515 543f
00000020: 046f c53e 3260 553f 2f3b 713f 263b f03e
00000030: 8013 713d f882 5a3e 5013 5e3e 20b9 f33c
00000040: 64dd ad3e bd9c 2f3f 5e0d 8a3e 089d b23e
00000050: ac35 253e a0a6 ad3d ad95 333f 19a1 3f3f
00000060: b410 0c3f a72c 563f a6dc d63e 8808 c53d
00000070: 7803 8c3e be35 4b3f 2550 553f f692 c23e
00000080: 4cff 4e3f c1f0 143f b4ab 3f3e 84eb 733f
00000090: f472 113f d101 293f 2002 c73c 6ce5 ba3e
000000a0: 1255 8a3e 8c8b 753f e952 343f 1053 f33d
000000b0: 3a6e 763f 2a56 553f 9196 313f d1ec 6b3f
000000c0: b8b2 2f3e 15a2 2d3f 602c be3d 3eba 9e3e
000000d0: 0804 dd3e e8f1 353f c986 303f c0bd 573d
000000e0: c294 833e d0df 4b3d 08de 873e e71b 4e3f
000000f0: d8c9 183f 0a69 283f 5aeb f03e ed9d 443f
00000100: f833 9d3d 2174 2a3f 9eec 003f a0b6 063e
00000110: 8635 733f f2bb c83e 2003 6c3f 98e0 423f
00000120: 9aaf d43e e840 7a3e bfa8 4e3f 5f2e 623f
00000130: d16c 573f 795d 263f 8ce6 523f 427e 613f
00000140: 98c9 de3e acd2 bc3e 0019 523c 7ac7 0a3f
00000150: 34f9 573e 07f9 123f 54f6 033e 67b3 2a3f
00000160: be37 aa3e 6b10 153f 3199 103f caf0 6d3f
00000170: fc75 f33e 7458 563e 37b9 453f f2c5 903e
00000180: 6e50 093f 5c87 433e 34b6 473e 5c62 393f
0.042951643 0.59464765 0.9979388 0.28077072 0.25633705 0.033422172 0.63809973 0.82845145
0.3856126 0.8334991 0.9423093 0.46920127 0.058856487 0.21339023 0.21687055 0.02975136
0.3395797 0.6859854 0.26963323 0.3488543 0.16133755 0.08479047 0.7015026 0.7485519
0.54712987 0.83661884 0.41965216 0.09620768 0.27346396 0.7937888 0.83325416 0.38002747
0.808583 0.5817986 0.18717843 0.95281243 0.5681603 0.66018397 0.024293005 0.3650316
0.27018028 0.95916057 0.7043901 0.11881077 0.9626194 0.833346 0.6937037 0.9215823
0.1715802 0.6782544 0.092858076 0.31001467 0.43167138 0.71072245 0.68955666 0.052671194
0.2569943 0.04977399 0.26536584 0.80511326 0.5968299 0.65785277 0.4705456 0.76803476
0.07675928 0.6658345 0.5036105 0.13155603 0.95003545 0.3920589 0.9219227 0.7612395
0.41540223 0.24438822 0.80726236 0.88352007 0.84150416 0.6498638 0.82383037 0.8808328
0.4351318 0.3687948 0.012823343 0.5421063 0.21091157 0.57411236 0.12886935 0.66679996
0.33245653 0.58228177 0.5648375 0.9294554 0.47550952 0.2093218 0.7723574 0.2827602
0.5363835 0.19094604 0.19503099 0.7241571
