checkpoints/single-phase/13bus/safe-ddpg/safe-flow_policy_net_checkpoint_a0.pth (torch, 3103 bytes, 4 tensors)

b f4 [100]
000000 22 5b bf b8 39 35 dd b8 34 34 8d b8 0e d4 ee b8
       -9.1245645e-05 -0.00010548015 -6.7331275e-05 -0.000113882226
000010 c7 ca 88 b8 5a f3 ee b8 05 0a d2 b8 a5 21 f0 b8
       -6.5227556e-05 -0.00011394052 -0.000100154466 -0.000114503586
000020 18 72 9c b8 4b 50 e8 b8 c1 5a c9 39 68 c5 05 b9
       -7.459911e-05 -0.00011077578 0.00038405324 -0.00012757408
000030 a8 2a ff b8 6b 5e ef b8 d2 e3 ae b7 8e d1 05 b9
       -0.00012167293 -0.00011413995 -2.0848503e-05 -0.00012761934
000040 ec fc bf b8 0e 67 03 b9 d1 4d 01 b9 d8 d9 05 b9
       -9.1547e-05 -0.00012531524 -0.00012331388 -0.00012765022
000050 2e 80 05 b9 13 ec 9f b8 82 e0 05 b9 a2 a8 f3 b7
       -0.00012731619 -7.625683e-05 -0.00012767504 -2.9046383e-05
000060 bc a2 bb 37 06 00 06 b9 c8 8d 8a 38 98 1c 03 b9
       2.2367916e-05 -0.00012779245 6.6067616e-05 -0.00012503786
000070 4d 00 d3 b8 7f 44 a6 39 74 23 e5 b7 9f de 09 b9
       -0.0001006132 0.0003171302 -2.7315436e-05 -0.00013148271
000080 18 b4 f2 b8 a1 17 e6 b8 d2 8d 0b b9 ef d8 14 3c
       -0.00011573004 -0.00010971656 -0.00013308905 0.009084924
000090 4b 57 2c b9 ed a0 31 b9 ec dc 21 b9 8d 58 06 b9
       -0.00016435717 -0.00016939985 -0.00015436456 -0.00012812224
0000a0 20 00 f6 b8 cc 20 e9 b8 49 82 c9 b7 86 1f 0f b8
       -0.000117302174 -0.00011116415 -2.4021736e-05 -3.4123215e-05
0000b0 ae 89 2e 3c 20 42 5d b8 39 ce 0d 38 b5 d8 92 38
       0.010652943 -5.275209e-05 3.380908e-05 7.002187e-05
0000c0 4d 1a d0 37 d3 c7 53 b7 da fd 53 38 57 d8 18 38
       2.480778e-05 -1.2623105e-05 5.0542738e-05 3.6441106e-05
0000d0 66 56 ac 37 a4 56 f8 37 43 bc 94 3d f7 9a 0f 3c
       2.054423e-05 2.9604249e-05 0.072624706 0.008764974
0000e0 9a 46 96 3b 94 cf 2a 39 3a af 23 3b 85 3d f4 3a
       0.004586053 0.00016289792 0.002497627 0.0018634057
0000f0 f4 05 85 39 4d 60 4e 39 03 76 5a 3a a8 85 47 3a
       0.00025372172 0.00019681566 0.0008333625 0.0007611164
000100 da 26 ee 3a 8b b3 4c 38 c0 12 73 3a 72 43 c2 3a
       0.0018169538 4.8804603e-05 0.00092725083 0.0014821126
000110 45 19 18 39 92 f7 e6 3a c1 c1 ae 39 02 58 8c 39
       0.00014505263 0.0017621389 0.00033332224 0.00026768452
000120 b5 3f 97 3a bf e6 b8 3a ce 52 0e 3a 09 90 b7 3a
       0.0011539372 0.0014106854 0.0005429209 0.0014004718
000130 7b d5 c8 3a b7 6f e5 3a b7 37 ae 39 5b b7 ed 3a
       0.0015322411 0.0017504607 0.00033229377 0.0018136309
000140 4e 78 3c 3a 21 c3 dd 3a bd 9a cd 3a bb c5 c8 3a
       0.00071895577 0.0016919115 0.0015686374 0.0015317717
000150 11 e8 9d 39 d1 bd 93 3a fe e4 7c 3a 9b 86 bf 3a
       0.00030118276 0.001127178 0.00096471596 0.0014612259
000160 76 b0 b2 3a f6 d9 bd 3a a2 1d a8 39 4e d3 fc 39
       0.0013632912 0.0014484513 0.00032065535 0.0004822262
000170 70 66 12 3a 71 86 be 3a 8e 8b 8c 3a 09 3a 91 39
       0.00055847224 0.0014535916 0.0010722743 0.00027699795
000180 56 66 e2 3a 8c 00 96 3a f2 aa 84 39 d4 40 b7 39
       0.001727293 0.0011444255 0.00025304366 0.0003495278

c f4 [100]
000000 df 1c 78 3a 28 f0 36 38 b6 21 6f 3a 9d 19 16 3a
       0.00094647513 4.3615844e-05 0.000912215 0.00057258626
000010 a5 1f df 38 e9 32 97 3a 9f 40 eb 3a 62 c1 22 3a
       0.00010639363 0.0011535558 0.0017948336 0.0006208626
000020 93 fb ee 3a 9d 38 24 3b 6b aa 2d 3b 3e 6b be 3a
       0.0018232934 0.0025058158 0.0026499282 0.001452781
000030 36 4f 3b 3a 4f de cd 3a 60 8f f5 3a 9b 2f 04 3b
       0.0007145287 0.0015706512 0.0018734746 0.0020169977
000040 7f 25 90 39 c7 e6 13 3b 72 96 a8 3a ba 14 33 3a
       0.00027493757 0.0022567974 0.0012862219 0.00068313966
000050 2c b0 db 3a 96 fc c1 3a 99 9e 46 3a 7b c2 c7 3a
       0.0016760877 0.0014800008 0.00075767335 0.0015240455
000060 0e ce 1a 3b c8 20 d6 39 d4 ac d1 3a fc ac f9 3a
       0.0023621353 0.00040841685 0.0015996941 0.0019048746
000070 5f 17 1a 3b 67 a8 23 3b c7 de f8 3a ff 76 27 3b
       0.0023512465 0.0024972202 0.0018987291 0.0025553105
000080 26 bc f8 3a 15 dc e8 3a 72 31 23 3b a6 e4 fa 3a
       0.0018976971 0.0017765785 0.0024901298 0.0019141629
000090 87 49 7a 3a 09 aa c5 3a 2a 67 1e 3b 0c db 19 3b
       0.00095476996 0.0015080582 0.0024170377 0.002347651
0000a0 4a aa 95 3a 05 c3 0a 3b 90 20 b0 3a e1 74 54 3a
       0.0011418548 0.002117337 0.0013437439 0.00081045745
0000b0 91 6c 0e 3b ae 00 ef 3a df 4b 3b 3a 5e ae e7 3a
       0.002173219 0.0018234455 0.00071447896 0.0017675867
0000c0 7b bb b3 3a ef 8c 02 3a f3 95 a5 3a 96 15 03 3b
       0.001371249 0.0004980107 0.0012633189 0.002000188
0000d0 7b 19 29 3b 85 d2 b6 3a 94 68 5d 3a b3 50 9b 3a
       0.002580254 0.0013948238 0.00084460643 0.0011849612
0000e0 58 42 70 39 11 c8 ea 3a af 41 19 3b 4a a0 bd 3a
       0.00022912899 0.0017912408 0.0023385098 0.0014467326
0000f0 ae b1 22 3b 50 a2 b6 3a ac 0d 17 3b e8 47 14 3b
       0.0024825144 0.0013933871 0.002304892 0.0022625867
000100 70 b1 20 3b 4d 53 d6 3a 4a 36 82 39 57 e5 02 3b
       0.0024519823 0.001635173 0.0002483598 0.0019973123
000110 21 69 9f 39 74 81 d4 3a 37 30 d8 3a 76 7d a8 37
       0.0003040517 0.0016212896 0.0016493861 2.0085583e-05
000120 7d d4 fc 3a 5c 99 79 38 83 8a 29 3b 5f 90 e5 3a
       0.0019289401 5.9509053e-05 0.0025869913 0.0017514339
000130 2f cc 07 3b 2b 03 a1 3a 46 65 93 38 52 49 94 39
       0.0020721068 0.0012284269 7.02837e-05 0.00028283388
000140 6a f2 09 3b 9c 88 08 3a 9a f2 89 3a 13 e9 28 3b
       0.002104903 0.00052083447 0.0010524571 0.0025773689
000150 d7 5f 1d 3b fb 1f e0 3a 59 02 96 3a e9 c5 26 3b
       0.0024013424 0.0017099375 0.0011444791 0.0025447553
000160 1b 00 7c 3a 28 5a 1f 3b aa c9 f8 3a d3 ed f1 3a
       0.0009613053 0.0024315212 0.0018980999 0.0018457718
000170 e8 de 94 3a 7d 63 e6 3a 67 58 34 3a 6a 78 0f 3b
       0.0011357935 0.0017577257 0.0006879628 0.002189184
000180 dc 80 e2 39 e0 ba cf 38 9b c9 c6 3a 3a 97 11 3b
       0.00043202087 9.905337e-05 0.0015166284 0.0022215382

q f4 [1, 100]
000000 68 6c d3 3e 3a d8 06 3f 99 70 9f 3e 8f 7c 47 3f
       0.41293645 0.52673686 0.31140593 0.77924436
000010 1f b1 9b 3e 83 1e 49 3f 48 02 f2 3e 67 ca 60 3f
       0.3040857 0.7856218 0.47267365 0.8780884
000020 c7 fc ac 3e 78 93 1f 3f 7f 92 1c 39 51 2f 67 3f
       0.33786604 0.62334394 0.00014931893 0.90306574
000030 37 b3 1d 3f 57 3d 05 3f d1 ee 0a 3e 85 4c 65 3f
       0.61601585 0.5204672 0.13567664 0.89569885
000040 93 23 c8 3e f6 55 36 3f 62 51 26 3f 63 e4 66 3f
       0.3908964 0.71224916 0.6496793 0.9019224
000050 b4 1f 59 3f 79 7e ab 3e 7b 3e 68 3f 8c 61 32 3e
       0.84814 0.33494928 0.9072034 0.17420024
000060 ae 3f c0 3d e2 95 64 3f 95 79 72 3d 0b 1a 31 3f
       0.09387146 0.89291203 0.05919798 0.69180363
000070 0b 53 dd 3e 11 a3 96 3b c4 a5 2c 3e 8b 27 36 3f
       0.4322742 0.0045970757 0.1686011 0.7115409
000080 59 a5 00 3f b0 af ee 3e 28 37 48 3f 2d 37 2b 8c
       0.502523 0.46618414 0.7820916 -1.3189965e-31
000090 47 cb 4b 3f 80 d2 6f 3f 7d 74 2f 3f d4 15 0c 3f
       0.7960705 0.9368057 0.6853712 0.5472081
0000a0 bf fa 01 3f d0 6c f9 3e 22 8b 3a 3e 3f 0e 6e 3e
       0.50773233 0.4871583 0.18217137 0.23247622
0000b0 e2 a1 86 1e 9f f0 81 3f bb 4c e5 3e 7b fb fc 3d
       1.4254755e-20 1.0151557 0.44785103 0.123526536
0000c0 b5 46 13 3f 75 01 4f 3f 59 33 8f 3e 37 a1 0f 3f
       0.57529765 0.808616 0.27968863 0.5610537
0000d0 2f 0c 3a 3f 62 52 ca 3e f6 0e 90 3f 8d 9c 87 3e
       0.7267484 0.39515978 1.1254566 0.26486626
0000e0 e1 5c c4 3e 84 1b 66 3f 51 47 0f 3f 88 1b 7e 3f
       0.3835211 0.89885736 0.55968195 0.9926076
0000f0 9c 9d 56 3f 7c 1b 01 3f ea 2e c1 3e 01 9d 31 3f
       0.8383424 0.5043256 0.37731105 0.69380194
000100 72 13 9e 3e 0c 94 06 3e 72 a2 b8 3e 90 3a 4e 3e
       0.3087421 0.13142413 0.36061436 0.20139527
000110 32 5f 4c 3f 9e 53 b2 3e 30 d8 8a 3d fb 3e 74 3f
       0.79832757 0.3482942 0.06779516 0.954086
000120 ea a4 8d 3e 0d 84 08 3f 20 98 77 3d 60 22 4b 3f
       0.27664882 0.53326494 0.060447812 0.7934933
000130 a5 07 00 3f 04 be 6b 3e 36 f6 bc 3e cc 23 a7 3e
       0.50011665 0.23021704 0.36906594 0.32644498
000140 60 50 6a 3e 3a 06 9a 3e f0 5b 94 3d ba 59 e8 3e
       0.22882223 0.30082875 0.07244098 0.45380956
000150 c4 93 3f 3f 20 06 cc 3e 10 67 a1 3d 10 50 8b 3e
       0.7483485 0.39848423 0.07880986 0.2720952
000160 9e bb a3 3e 0c 80 c3 3e f2 98 df 3e a6 d7 e4 3e
       0.31979078 0.3818363 0.43671376 0.44695777
000170 be 9d 5c 3f 80 70 af 3e c0 67 c9 3d 89 e8 5c 3f
       0.86178195 0.34265518 0.09834242 0.8629232
000180 82 29 1b 3f 43 ab 12 3f a0 b6 73 3f b0 13 c0 3e
       0.6061021 0.57292575 0.9520054 0.3751502

z f4 [1, 100]
000000 40 bd 76 3e 60 74 1d 3e f4 87 3d 3e 2b e8 5d 3f
       0.2409563 0.15376425 0.18508893 0.86682385
000010 a2 03 3a 3f 48 e9 b5 3d c5 c3 7c 3f 46 c8 ee 3e
       0.72661793 0.088823855 0.9873622 0.46637172
000020 17 4b 5a 3f a5 42 39 3f 7c d6 d1 3e 0f 33 6f 3f
       0.8527083 0.72367316 0.4098395 0.93437284
000030 e2 ec d0 3e c8 62 ba 3e 2b c1 37 3f 56 12 76 3f
       0.40805727 0.3640349 0.71779126 0.9612173
000040 08 47 5d 3f 40 59 21 3f 39 8e 40 3f 6c 4e e4 3e
       0.8643651 0.6302681 0.75217015 0.4459108
000050 aa 83 f1 3e 98 b9 02 3e a2 e3 ee 3e 6c d8 76 3f
       0.47170764 0.12766111 0.46658045 0.96423984
000060 f7 98 27 3f f6 66 8b 3e 74 98 5c 3e f9 dd 17 3f
       0.6546778 0.2722699 0.21542531 0.5932308
000070 6e ab 2d 3f a3 88 59 3f f2 ed 44 3f 96 51 2e 3f
       0.67839706 0.84974116 0.76925576 0.6809324
000080 e2 1b a8 3e a0 73 fc 3c d5 ca 2e 3f fa 1f f4 3e
       0.32833773 0.030816853 0.6827825 0.47680646
000090 a4 78 33 3e 9a 66 5d 3f de 6f b9 3e 20 45 03 3f
       0.1752649 0.8648468 0.3621816 0.5127735
0000a0 91 c9 34 3f 20 37 62 3d f8 c5 01 3e f5 3f 02 3f
       0.70620066 0.055228353 0.12673175 0.5087884
0000b0 d8 a4 6c 3e ed ff 4f 3f 98 f6 1d 3f 4f b8 11 3f
       0.23109758 0.81249887 0.617044 0.5692186
0000c0 9c 72 0c 3f d6 d4 7b 3f b2 82 93 3e 0c bd ea 3e
       0.5486238 0.98371637 0.2881065 0.45847356
0000d0 26 1c 22 3f c3 44 3d 3f 3a 8b 43 3f c0 3b c0 3e
       0.633242 0.7393305 0.7638432 0.37545586
0000e0 df 03 08 3f 2a 62 2a 3f 00 f0 aa 3e 72 0e e9 3e
       0.53130907 0.66556036 0.3338623 0.45518833
0000f0 c4 56 9c 3e 30 c4 cf 3e de d5 4a 3f a0 ff ed 3d
       0.30534947 0.40579367 0.79232585 0.11621022
000100 10 cc 17 3e a5 d8 75 3f a8 27 51 3f af 80 3b 3f
       0.14823937 0.960337 0.81701136 0.7324323
000110 ba e1 b8 3e 70 0e 23 3d 66 16 a7 3e a8 a6 ea 3d
       0.36109716 0.03980869 0.32634276 0.114575684
000120 d8 3c a7 3d fc f3 69 3f 95 ab 10 3f f8 e3 bf 3d
       0.08165902 0.91387916 0.56511813 0.093696535
000130 de 1d 01 3f 17 c0 37 3f b5 bf 3d 3f d2 64 1b 3f
       0.504362 0.7177748 0.74120647 0.60700715
000140 5f e4 11 3f b8 5f 05 3e c4 33 62 3f 4e ac c6 3e
       0.5698909 0.13024795 0.8836024 0.38803333
000150 49 b6 35 3f 2c 7f 01 3e 92 58 20 3f 01 4e 77 3f
       0.7098127 0.12646168 0.6263515 0.966034
000160 70 cc 01 3f a7 c9 3f 3f 23 53 60 3f da a4 3a 3f
       0.5070257 0.7491707 0.87626857 0.72907794
000170 a6 c6 aa 3e 52 14 66 3f 38 5c 5b 3f 84 dc 08 3e
       0.33354682 0.89874756 0.8568759 0.1336537
000180 88 90 8e 3e 90 fc 7f 3d 2b bd 6b 3f d4 e4 6c 3e
       0.27844644 0.06249672 0.9208552 0.23134166
