checkpoints/three-phase/13bus3p/ddpg copy/policy_net_checkpoint_a10.pth (torch, 45271 bytes, 6 tensors)

linear1.weight f4 [100, 3]
00000000: 1884 fabe 4eb7 fabe 0d4d 0dbf bcd7 56be
00000010: 3003 c93e ccc8 cabe 64e2 66bc df5d c43d
00000020: d4e1 67be b29c 9fbe 5536 283f a6e9 a83e
00000030: 1c1d bb3e d520 103f 8554 c23e e166 4dbe
00000040: 827d e03e f9ac e03c 98f4 2cbe d33e 9c3c
00000050: 3768 c1be 6238 02bf 1b0c babe 17e8 123f
00000060: f218 5a3e b827 e2be fa12 0cbf c79f 5c3e
00000070: 0f16 9d3e a67a 80be 19a6 723e 44d7 f13e
00000080: 05c8 0d3d 6641 8fbd a896 f43e 8710 0dbf
00000090: 1744 973c a5e4 d5bd e09e 8d3e 5126 0bbf
000000a0: 39c7 18be 9829 0a3e e410 5dbb 99ba 253f
000000b0: b66f 89be 76c5 0bbe dba1 d63e 8095 aabe
000000c0: 4268 913e 234c 863d bc0b 01bf 06c3 ecbe
000000d0: 88e3 4abe 8e6f 89be 99eb ccbd 9c19 e4be
000000e0: 2734 d9be 9406 cd3e 6443 6ebe 7697 d03d
000000f0: 4e1c a9bd d8f2 06bd f537 11be 1c20 dbbe
00000100: 1669 d83e cc9b b43c ef34 243d c274 ba3e
00000110: bdda 8b3d e661 5e3d 167d 7cbd 1e8e 7cbe
00000120: 29ad d73e 18dd b43e 9aa0 ca3e 62dd 87bd
00000130: 063e 5cbe 2267 9dbe 7fcb 8abe f96c 033f
00000140: 5ccc 0fbf 126b fe3e 87f2 ebbe 0e52 0fbf
00000150: 0316 b03e 6b9a e7be 6fad 85be 07da b83e
00000160: 015d ac3d 4293 03bf 2c3d f1be 1faf 0abf
00000170: 1205 b23e ec55 adbe e91b 133e 5bf5 693d
00000180: 9454 0bbf cebb c4be 9eed 9b3e b02b 883c
00000190: 4d2d 94be ddd4 98bd a5c1 61bd 80b2 9dbe
000001a0: 0e73 043c 7c10 0fbf 15c5 93be 8719 86be
000001b0: 24f1 3fbc 5c24 f9be 571c 233f 22d6 90be
000001c0: 71fe 193f 1af0 053f 4bdb 103f 07f7 74be
000001d0: 222a b2be 43d9 efbe f9ec b9be 4739 593e
000001e0: 0921 7f3d 0f96 4ebe d5f8 0abf ec0f 8b3e
000001f0: 2a5e b4ba b238 d5be c14c 0abf f92f d63e
00000200: 4933 25be aa4e 02bf 07e2 1a3d e940 3e3e
00000210: cac4 d0be f57f c13e acb6 b5be 71a1 b8be
00000220: f03c 153f 2da3 e33e 6c84 363d 1cc2 963e
00000230: d9f5 dbbe 8cfd d43e 4c86 c5be f003 f03e
00000240: e5e3 653e c2ed e93e 86b8 debe 47f3 eb3e
00000250: e233 9bbe 1dc0 0a3f 9b1f 403e 975f 943e
00000260: 70d2 1a3f 4203 bf3e 260e 553e af15 043f
00000270: a877 5d3e 98ca af3d 010a 363e fce9 053f
00000280: ae9b 143e e475 853e 6911 833e 2372 633e
00000290: 401e 633e 3eb1 2dbe 4226 f03e b67f abbc
000002a0: fba0 ba3e e785 e03e 5c0c 1abe 2e30 d93e
000002b0: ef0b 49bd 4a8e 023f 0a4a 82be a53a e0be
000002c0: 0df4 5bbe 258a b53e 8048 3cbe 5940 6fbe
000002d0: 964d 373e e14b 0dbf cd04 19be e455 053f
000002e0: e5b5 9abe 40c3 78be aaf2 da3e 92b5 08bf
000002f0: b05f 043f 426f 02be 0f6e d33e d8f4 9c3e
00000300: 7895 0e3f 5f8c 193f 92e2 f33b 966f a63e
00000310: f5be 4dbe 8a68 693e 469b 8ebe 14ef e53e
00000320: 9754 d4be 082f 41be defa 89bd 6cb7 b83e
00000330: 3a26 06bf f5fd c6bd 391e 9cbe 9a94 97bd
00000340: d754 79be a1c9 8a3e 2192 a9be 4f9e 6fbd
00000350: bb88 13bf ca05 b4be 33ff 5b3e 0cda bcbd
00000360: edb5 cf3c 3f2b 0abf 5dc6 e03e d61f 293f
00000370: eb34 44be 37b6 8c3d 757d 033f 7f61 763c
00000380: e206 0cbf ffe7 febe 401e 063f 9814 3c3e
00000390: 4828 59be d79a 0c3f 5d86 6abd 73d7 a73e
000003a0: 2688 8cbe ec28 c93d 572f 13be 7444 82be
000003b0: 5e16 d1be d3ab febe d101 103e 81dd 0bbf
000003c0: 5eaf c8be 96c6 debe 3a75 6f3e cfd2 9ebd
000003d0: 2092 fcbe 3ad8 03bf ba7e 96bd 1861 d5be
000003e0: 5cd6 d6be cd44 ecbc 6b64 db3d 894f 513e
000003f0: 5713 f1be 5f17 1fbe 79b2 afbe 05d5 1d3f
-0.48928905 -0.48967975 -0.55195695 -0.20980734 0.39260244 -0.3960632 -0.014092062 0.09588217
-0.2264474 -0.31174237 0.65707904 0.3299076 0.36545646 0.563001 0.37955108 -0.20058776
0.43845755 0.02742623 -0.1689018 0.019072926 -0.37774822 -0.50867283 -0.3633736 0.5738539
0.21298578 -0.44170928 -0.54716456 0.21545325 0.30680892 -0.25093573 0.23696174 0.47234547
0.03461458 -0.06994896 0.47771192 -0.55103344 0.018465085 -0.10444001 0.27660275 -0.5435534
-0.14919747 0.1349243 -0.0033731991 0.6473785 -0.2684304 -0.13649544 0.4192036 -0.33317184
0.28399855 0.06557491 -0.5040853 -0.4624254 -0.19813359 -0.26842922 -0.10005874 -0.44550788
-0.42422602 0.4004408 -0.23267895 0.10185139 -0.08257352 -0.032946438 -0.14181502 -0.42797935
0.42267674 0.022046946 0.040089544 0.36417204 0.068288304 0.054292582 -0.06164273 -0.24663588
0.42124298 0.3532493 0.39575654 -0.06634022 -0.21508035 -0.30742747 -0.2710838 0.51338154
-0.561712 0.49691063 -0.4608347 -0.5598458 0.34391794 -0.45235 -0.26108882 0.36103842
0.084161766 -0.5139657 -0.47116983 -0.54173464 0.34769493 -0.33854616 0.14366116 0.057118755
-0.5442593 -0.38424534 0.30454725 0.016622394 -0.28940812 -0.074624754 -0.055116314 -0.30800247
0.008084072 -0.5588453 -0.288613 -0.2619135 -0.011715207 -0.48660553 0.6371512 -0.2828837
0.6015387 0.5231949 0.56584615 -0.23922358 -0.3479777 -0.46845445 -0.36313608 0.21213256
0.062287364 -0.2017443 -0.5428594 0.27160585 -0.0013760973 -0.41644818 -0.5402337 0.41833475
-0.16132845 -0.5090128 0.037813213 0.18579449 -0.40775138 0.37792936 -0.3549093 -0.3606067
0.5829611 0.4446043 0.04455988 0.2944497 -0.42961004 0.4159969 -0.38579023 0.46878004
0.22450216 0.45689207 -0.43500155 0.46084043 -0.3031302 0.5419939 0.18762057 0.2897918
0.6047735 0.37307173 0.20806178 0.51595587 0.21627676 0.085835636 0.17777254 0.52310157
0.14512512 0.26066506 0.2559922 0.22211508 0.22179508 -0.16962144 0.46904188 -0.02093492
0.36450943 0.4385216 -0.15043777 0.4241957 -0.049083646 0.50998366 -0.25447112 -0.43794742
-0.21479817 0.35456958 -0.18387032 -0.2336439 0.1790069 -0.5519391 -0.14943238 0.52084184
-0.302169 -0.24293232 0.42763263 -0.53402054 0.5170851 -0.12737754 0.41294906 0.3065555
0.5569682 0.59979814 0.007442781 0.32507008 -0.20092376 0.22793785 -0.2785284 0.44908965
-0.41470787 -0.18865597 -0.06737302 0.3607744 -0.5240208 -0.09716407 -0.30491808 -0.074013904
-0.2434877 0.27106956 -0.331193 -0.058500584 -0.5763051 -0.35160667 0.2148407 -0.09221277
0.025355304 -0.5397224 0.4390134 0.660642 -0.19160812 0.06870692 0.5136331 0.015037893
-0.54698 -0.49786374 0.5238991 0.18367231 -0.21206772 0.54923767 -0.057257045 0.32781562
-0.27447623 0.09822258 -0.14373527 -0.2544285 -0.40837377 -0.49740466 0.14063193 -0.54634863
-0.39196295 -0.43510884 0.23384562 -0.07755052 -0.49330235 -0.5150181 -0.0734839 -0.4167564
-0.41960418 -0.0288414 0.107125126 0.20440497 -0.47085068 -0.15536259 -0.3431585 0.61653167

linear1.bias f4 [100]
00000000: c815 1e3e 845c fa3e 49cd 9a3e 3628 bebe
00000010: 8295 82be cb2c fe3e 3f81 d93c 9c6d 35be
00000020: a072 7fbe 3e10 19be 8d3a 183f 65e6 b5be
00000030: f463 cc3e 2dfa d0be 792e a3be 1e19 e5bd
00000040: 2873 913e c948 d03e 8940 b0bd e654 fe3e
00000050: 0c83 e43e 9546 d9be 0089 f53e 1cc9 a43e
00000060: d494 0fbf 0d5c e33e 224b 543c edad e4be
00000070: 5d8e a43d cd30 77be 6dd5 38be 1057 513e
00000080: bb2a e0be d07d 9f3d 6334 273f dad9 c03e
00000090: ddfe 2e3e 7814 55be f6a1 253e f11e ca3e
000000a0: 5e35 633d b093 c0be 5925 c0be c2ff 0f3f
000000b0: 9cb4 b9bd e151 0cbe 3e63 a53e 72d4 a93e
000000c0: 2e75 7e3e 7e12 e2be 02ca 8c3c 7e7b 87be
000000d0: c531 fdbd fbd6 043e 90c3 4a3e 4530 bdb9
000000e0: 8772 0a3f 487c 713e 3e18 0e3e e544 a6be
000000f0: 557b f8be 50a1 2dbe b473 34be 36ae e6be
00000100: e5fd 13bf 6b61 5abe dff7 a0be 84b8 fdbe
00000110: da17 bebe 86f5 f73e 907c 7abe 1248 023f
00000120: d23a 953e aaf5 b5be 257f 99be 5416 e7be
00000130: 3e96 f8be eecd e43e 15f4 20be 61b5 1abe
00000140: d722 cc3e 028f 0c3f 1c74 ecbe e818 08bf
00000150: bfbc f7be b401 f4be 9250 2f3e d64d 8f3e
00000160: b4a4 0b3f 2329 b63e b8b2 b2be 48ca 41be
00000170: ddaf bfbe 5f17 b8be 90a5 efbe 8ad5 173f
00000180: 185a 323e 048e e73d 5e05 a33e 553e 0cbf
0.15437996 0.4889871 0.30234745 -0.37140054 -0.2550469 0.4964355 0.026550887 -0.17717594
-0.2494607 -0.14947602 0.5946434 -0.3552734 0.39920008 -0.4081587 -0.31871393 -0.11186431
0.2840817 0.4068053 -0.08606059 0.49674147 0.4463123 -0.42436662 0.47956085 0.32184684
-0.5608647 0.44406167 0.012957366 -0.44663945 0.08034966 -0.2413971 -0.18050165 0.20443368
-0.437826 0.07787669 0.6531431 0.37666208 0.1708941 -0.2080859 0.16175064 0.3947673
0.055470817 -0.37612677 -0.37528494 0.5624963 -0.09067652 -0.1370311 0.32302278 0.33169895
0.24849388 -0.44154733 0.017186169 -0.26461405 -0.123630084 0.12972634 0.19801164 -0.00036084853
0.54081005 0.23582566 0.13876435 -0.32474437 -0.48531595 -0.16956067 -0.17622262 -0.45054787
-0.5780929 -0.21326225 -0.3143911 -0.49554837 -0.37127572 0.48429507 -0.2446158 0.5089122
0.2914644 -0.3553899 -0.29979816 -0.45134223 -0.48552126 0.44688362 -0.1571811 -0.15108253
0.3987033 0.5490571 -0.46182334 -0.53163004 -0.4838619 -0.4765755 0.17120579 0.27989072
0.5454819 0.3557826 -0.34901977 -0.1892482 -0.3743886 -0.3595533 -0.46806002 0.5931021
0.1741718 0.11306384 0.31840032 -0.5478261

linear2.weight f4 [100, 100]
00000000: 0042 ce3b 9262 a8bd bda9 06bd 33cb 6f3c
00000010: c7b8 d9bc 00f4 5fbc 0754 fabc e72d 1fbd
00000020: 67d2 93ba 23e4 9f3d e0a9 c53d 5ae1 1f3c
00000030: 0d2d 26bc 7840 c53d 9a90 4cbc 83a4 0d3d
00000040: 572f 0b3d e76a 89bd 033a 1a3d 9a8d 5e3a
00000050: 4dfe 653d 736d 82bd 500d 293d 403a 9a3d
00000060: 0a3e babd 237d b43d 335a a03c ca65 6fbd
00000070: 0db1 d23c 730c 66bc 0094 30bd 8832 a93d
00000080: 80df 663c 6d9b 8dbc 4ad6 4ebd 137b 92bc
00000090: ad57 5b3d 27af 833d d51f 813d 80bd 07bd
000000a0: 1040 2b3d 7aa5 3e3d 4be0 8fbd 9a17 d1bb
000000b0: dde0 893d 9021 633d c761 a13c bdd8 57bd
000000c0: d3d8 2cbd 33b3 eb3c 9aae 85bc e0df 493d
000000d0: c324 4c3d 48af 8d3d 1d47 9dbd ef58 bcbd
000000e0: 5ab2 12bd 5a35 babc 5b26 a33d 6a48 81bd
000000f0: ff0c 9dbd 5256 983d 3374 5d3b 4adf 7f3d
00000100: c091 993c b0c4 80bd 9a9e 1f3c 8003 ac3d
00000110: 0aa2 56bd 1a9f 573d 7bea 9dbd 80a6 35bc
00000120: 9aa7 673d 0718 e93c aff0 c93d fadf 0c3d
00000130: 1a24 363d 1025 55bd b702 83bd 8790 273d
00000140: 4ac9 5ebd 20e4 303d 43c0 653d dacb 333d
00000150: 62a0 913d 6314 3cbd 7a27 7ebd 9381 fe3c
00000160: 4f90 c7bd ea4f aa3d 17c8 ae3d 2097 dcbc
00000170: 8737 5b3d 4b75 bebd 6d51 66bd 5de3 6abd
00000180: d30a b4bd c880 cabd cf42 ae3d 10f8 75bd
00000190: 42ec c43d a20a 2c3d 39f5 983d 1e14 943d
000001a0: bf21 753d bd4a 713a f329 d1bc f709 403d
000001b0: 2fc9 9a3d 7439 d8bc de45 fd3d f2d5 883d
000001c0: 87ef 4cbd 0d7a 1bbd 0055 92be 2d54 2b3d
000001d0: 8588 2f3d 42a9 88bd ca42 29bd 833a ac3d
000001e0: eeac adbc 0002 35bb 9362 0dbd ca65 163e
000001f0: 813b a3bd 3af9 88bc aa3b 2cbd c76f 91bc
00000200: 27fd 28bd 8022 8fbb aacf 6abd 436a 42bd
00000210: cdfc 89bc 237a c83d e4c2 3ebc ad65 483d
00000220: e1ac 363d 2255 72bc b0b7 84bb 4d55 bb3b
00000230: cd53 1a3d 7316 06bc 1dd0 55bd 99ce c53d
00000240: 6afa ab3d 53ac babc 0923 7cbd 9fc1 883d
00000250: 0637 7e3d 80b2 d8bd 63f7 f43c d583 f6bd
00000260: fd24 5dbd 4682 a8bd 3db9 8cbd 990f e13d
00000270: f3f6 9c3d 868b 773b 4a7f ca3d 271b a83c
00000280: 1ab2 653c 2776 293d 6b4b cabd ff18 98bd
00000290: 50ac 95bc f73b 02be 7763 513d 5320 56bd
000002a0: a78c b83d a2e7 053e 102d 4b3d c360 1c3d
000002b0: 236b d23b eb03 f5bd 2d1d 8c3d b7d5 cabd
000002c0: 3b53 b53d fa0a ae3c 60eb 22bd 87cb 143d
000002d0: b359 8c3d 33ab ea3b af38 a53d 40c3 38bd
000002e0: efb3 bb3d bc42 a2bd e73b 99bc 0d4e a53d
000002f0: 6aaf 2e3d 2564 033e 9a1c 18bd f888 91bd
00000300: 9275 11be 6771 cc3d f717 853d 1067 df3d
00000310: e7d7 043c d807 483d dbb3 c73d 18c6 f5bd
00000320: 2a5f 3d3d baa5 eb3c 73ff 643d 3760 44bd
00000330: 609d 62bd 707e 9ebd c3fb 9bbd 27ff 2f3d
00000340: 9a36 56bc 57ba 303d 1859 ac3d 7da3 053d
00000350: abb9 843d 3736 6ebd 7399 ed3c 4077 5b3c
00000360: adfe 913c 3ab0 e43c b32e 993d 98db c8bd
00000370: 50bf 8cbd cde1 bf3d e78c 96bc 7dc7 c0bd
00000380: 0dfd 643c fad0 b8bd a7f7 4abc e041 603d
00000390: f788 973d cfaf 9a3d f7b4 1a3d cda6 343c
000003a0: 0043 bfbd 9ab7 903d e38a 32bd 2079 bf3c
000003b0: 2d08 cebc 23d4 1abd a5a9 b2bd 625f bd3d
000003c0: a068 8fbd d3bd fbbc 0d94 14bc 80df 96bc
000003d0: 1722 533d 02b4 8e3d ada1 893c 2585 a93d
000003e0: 636b 003d 4241 913d 7771 793d bb6c 98bd
000003f0: cd7b 0c3b 37ae 85bd 926f cb3d d5a1 9ebd
0.006294489 -0.08221926 -0.03287672 0.014635849 -0.026577367 -0.013669014 -0.030557645 -0.038862135
-0.0011277915 0.078071855 0.09651542 0.009758318 -0.010142577 0.09631437 -0.012485648 0.03458072
0.033980694 -0.06709843 0.03765298 0.0008489728 0.056150723 -0.06368532 0.04127246 0.075306416
-0.09093864 0.088129304 0.01957426 -0.058446683 0.02571919 -0.014041054 -0.043109894 0.08261591
0.0140913725 -0.017286027 -0.05049733 -0.017880952 0.05355041 0.06429892 0.063048996 -0.033139706
0.04180914 0.04654453 -0.07025202 -0.0063809874 0.067323424 0.05545193 0.019699944 -0.052696932
-0.042198967 0.028771972 -0.016318608 0.04928577 0.049839746 0.06918198 -0.076795794 -0.0919665
-0.03581462 -0.022730518 0.079663 -0.0631264 -0.076684944 0.07438339 0.0033791184 0.062468804
0.018746257 -0.06287515 0.009742403 0.08399105 -0.052400626 0.052641965 -0.07710739 -0.01108706
0.05655632 0.02845384 0.0986036 0.03439329 0.044468023 -0.0520373 -0.06397002 0.040909316
-0.054391183 0.043186307 0.05609156 0.04389558 0.07110669 -0.04591788 -0.062049367 0.031067645
-0.097443216 0.08316024 0.08534258 -0.02692753 0.053519752 -0.092997156 -0.056229997 -0.057345737
-0.08791127 -0.09887844 0.085088365 -0.060051024 0.09615375 0.042002328 0.074686475 0.072303995
0.059846636 0.0009204557 -0.025532698 0.046884503 0.07557904 -0.026394583 0.12366842 0.06681432
-0.05003312 -0.037958194 -0.28580475 0.041828323 0.042854805 -0.06672908 -0.04132346 0.08409598
-0.021200623 -0.00276196 -0.034517836 0.14687267 -0.07970334 -0.016720403 -0.042049088 -0.017753495
-0.04125705 -0.0043681264 -0.05732695 -0.04746462 -0.016844178 0.09788921 -0.011643145 0.04892509
0.044598464 -0.014790805 -0.0040502176 0.0057169558 0.037677575 -0.008184063 -0.052200425 0.09658546
0.08397372 -0.022787249 -0.06155685 0.06677555 0.062064193 -0.10580921 0.02990312 -0.12036864
-0.053990353 -0.08227973 -0.06871269 0.10989303 0.07664289 0.0037772371 0.0988756 0.02052076
0.0140195135 0.041372444 -0.09877666 -0.074266426 -0.018270642 -0.12718187 0.051120248 -0.05227692
0.09011202 0.13076642 0.04960352 0.038178217 0.006421463 -0.11963638 0.06841502 -0.09904044
0.088537656 0.021245468 -0.039775252 0.03632691 0.06853046 0.007161522 0.08067452 -0.04510808
0.09165179 -0.07922885 -0.018705321 0.08071528 0.042647757 0.12831171 -0.03713665 -0.07106203
-0.14205006 0.09982567 0.064987116 0.109083295 0.008108116 0.048835605 0.097511016 -0.12000674
0.046233334 0.028765548 0.055907678 -0.04794332 -0.055325866 -0.0773896 -0.07616379 0.04296794
-0.013074541 0.043146458 0.08415431 0.032626618 0.06480726 -0.058157172 0.029003834 0.013395131
0.017821634 0.027916063 0.0747961 -0.09807509 -0.068724275 0.0936924 -0.018377734 -0.09413049
0.013976348 -0.09024234 -0.0123881465 0.054750323 0.07399171 0.07553064 0.037770238 0.0110260965
-0.09338951 0.07066269 -0.043589484 0.023373187 -0.025150383 -0.037799966 -0.087237634 0.092467085
-0.070023775 -0.030730164 -0.009068501 -0.01841712 0.051546182 0.069679275 0.016800726 0.082773484
0.031352412 0.07092525 0.060899224 -0.07442614 0.0021436096 -0.065273695 0.0993339 -0.07745711

linear2.bias f4 [100]
00000000: b5bc b4bd 3d79 bd3d 6770 02bb 9810 c33d
00000010: d383 f9bc 9ba6 703c 1eaf 323d b4d6 a53d
00000020: 28d3 b7bc cade e3bd 4079 63bd 8014 54bd
00000030: d8d5 8e3d a8cf 063d a421 0a3e e6a9 563d
00000040: 3b9b 1bbc 85ba db3d ffcc ee3d 238a bd3d
00000050: 2831 a93d 7ad8 a0bd 083d 933d 05b9 ca3c
00000060: 4ffa b43d cf31 e33d 7f6c cc3d bc7a c7bd
00000070: 7dd3 13bd 025c 8dbd 605d 6b3d c5e3 6c3d
00000080: bd4d 3a3d 0ac4 833d c5d6 733d 5537 99bd
00000090: dd78 5e3a a187 c5bd 4a96 453d a432 6c3d
000000a0: 1533 abbd 33de 133b d084 bb3d 9571 b93d
000000b0: 5389 f33c 35ee 55bd 9329 aabd e617 8f3b
000000c0: 551c 043e 0e8c 8cbd f18f bbbd 93e3 1a3e
000000d0: 0848 8bbc 37a9 aa3d 0773 d03c d886 f33d
000000e0: 990e fc3d 93c8 33bd e7e6 533c 3a3f 4d3d
000000f0: eadd 6c3d c809 bfbd a054 a63d fd72 c53d
00000100: 5b4b bcbd 8975 bcbc cd68 d9bb 51a6 eabc
00000110: 0016 43bb e0a9 ef3d 0078 323b 2456 7d3b
00000120: 9cf2 45bc 47b3 c4bc 49c6 05be 9859 803d
00000130: d811 a43d d172 043e 61ec 1abe 82e7 4ebd
00000140: 7ccf 273e 4641 813d 22d0 ca3d 6d2b 473d
00000150: 31e1 17bd dc42 47bd 85e2 33bb 7d3e be3d
00000160: 135f b43d 07f9 12bd bece 3a3d 3ac7 23be
00000170: 7948 08be 1903 763d b6e2 8a3d f94a c8bd
00000180: 338d b13c 038f 4bbd 0315 883d bdba 18bd
-0.088250555 0.0925164 -0.0019903423 0.095246494 -0.030458366 0.014688159 0.043624036 0.08097592
-0.022439554 -0.11126478 -0.055535555 -0.051777363 0.06974381 0.03291288 0.13489395 0.05240812
-0.009497459 0.10728935 0.11660194 0.09254863 0.08261329 -0.0785379 0.07189375 0.024746427
0.08836805 0.110934846 0.099816315 -0.097402066 -0.036090363 -0.06902315 0.057462096 0.057834405
0.045484293 0.06433876 0.059530992 -0.07481257 0.0008486638 -0.0964501 0.04823903 0.057665482
-0.083593525 0.002256286 0.09156191 0.09054867 0.029728567 -0.052229125 -0.08308711 0.0043668626
0.12901433 -0.06862651 -0.09158314 0.15125875 -0.01700212 0.083330564 0.025445474 0.11890954
0.12307472 -0.043892454 0.012933469 0.050109126 0.05782882 -0.093280375 0.0812161 0.09641073
-0.091940604 -0.023005264 -0.0066348077 -0.028643759 -0.0029767752 0.11702323 0.002723217 0.003865608
-0.012081768 -0.024011267 -0.13063921 0.06267089 0.08011216 0.12934424 -0.15129234 -0.05051375
0.16387743 0.06311278 0.099029794 0.0486254 -0.037079994 -0.048647746 -0.0027448249 0.092892624
0.088071965 -0.035882022 0.04560732 -0.15993968 -0.13308896 0.060061548 0.06781523 -0.09779925
0.021673774 -0.049696933 0.06644633 -0.037287463

linear3.weight f4 [3, 100]
00000000: 7d2a b5ba 5e08 85bd f80e 8c3a 36d6 edba
00000010: f4b9 f9ba a39b 8e3d 7a61 dabd b052 6dbd
00000020: eadf b43d 0181 95bd c353 d2b9 4373 183d
00000030: 5dff f8ba 58f2 ccbd 806e f43b 9ce2 9abc
00000040: d871 203c 9daa 6a3c 879c a5bd 2303 e6b9
00000050: 443d 89b9 c74f 3f3e 08da 3e3b 7bc9 833c
00000060: cbf7 fabd 7ced 97bd 9f13 92bd 55c7 093c
00000070: f372 3bbb d4eb 773d 5a7a 2a3b ad0d d2bd
00000080: 3118 cc3d c4e4 dcbc 251e eabc 7164 2fbc
00000090: 2921 8c3d 20b8 153d 40d6 f63a 0d63 dfbc
000000a0: 6c1b 2fbb 8b8c 493a 1d04 7d3a 7782 f3bd
000000b0: b281 953d 5623 b4bc 4446 633a 2f05 0b3c
000000c0: d1b9 3abd f82b d83d 191a 50bd 35e4 d73c
000000d0: 51eb 2abe 8d18 6e3d 4fd1 b9bc 8e21 e7bd
000000e0: b145 46bd 5639 213b 6f02 5038 dc1b 44bb
000000f0: c4cb daba 1982 803a 6cb6 26bb da5a 6bbd
00000100: 3d94 ed3a 28e5 d0bc 29b7 21bb a819 13be
00000110: 700e 32bb 1e50 90bd db42 aa3a df84 f43d
00000120: 7901 5cbd 3d46 9cba 49d3 be3c 8477 4f3d
00000130: 523c 92b9 2f8d 30bd 91d4 833d ca3b 213d
00000140: fbc6 63bd 36d2 90bd 3378 e5bc f2e2 493a
00000150: 2237 423d db75 c13c 3f55 84ba b440 923d
00000160: d8ac 3cbd f892 ec3a 10c7 b9bd c8b0 d83d
00000170: f913 5b3d 4f13 523d f33a 58bd 83dd 283d
00000180: 7fc1 9a3a f08b 54b9 d95a 96ba fc99 58bd
00000190: 45a4 b43a 0846 0abd d5d1 22bb c37b 093b
000001a0: 4f5b c9ba 0ff4 dc3c 880d 66bd 8a77 eebc
000001b0: 091d f73c 9d1a 813d 0e08 e9ba ef02 7cbd
000001c0: a3d1 1abb d996 313d 3d7c 79bd 9b03 90bd
000001d0: 126f 523d 947a 17bd c1b5 0b3d 2a73 de3a
000001e0: ee12 12bb 0960 8c3d f83f 11bb efcc f73c
000001f0: 8086 c8bd 802e f9bc b04b a3bd b667 143d
00000200: febf 7e3a fa2b 0ebd 97ef 333b 654b 503d
00000210: 4142 15bd 0beb 46bc df26 3d3c 7199 733d
00000220: 3723 723d 2021 273d 9f3e ad3a b891 a8bc
00000230: f0ff 1cba ddcc bdba 0ebd 053a d6b4 23bc
00000240: 37e5 aa3b b748 603d 3619 0d3b fa1b 8ebc
00000250: bbd3 a9bc 6f0b 633d cc0a 243d 1498 16bd
00000260: ca64 b6bd dc47 78bd 0649 afbc 38b9 aabc
00000270: 3002 a0ba e5e8 1fbb db4d 96b9 b505 af3a
00000280: 6d9b 413b c9a2 003a aaf7 0b3b de22 99bd
00000290: 874f 06ba 80a2 213d 78de 963a 47a1 b53d
000002a0: 37e9 4db9 59a6 8bbd 374f 803a ece3 9fbd
000002b0: d661 893b fba8 eeba 1677 803d 9246 513c
000002c0: 847e b8bd a69c b3bd 0b00 6a3d 2ea9 77bd
000002d0: e72c acbd d8c7 3b3c fd41 f43c 7f7e 183b
000002e0: 5f0a 9e3d ef7d 2a3c 0764 203a 0fe4 8abd
000002f0: 19ea 6ebd 770a f6ba 18d1 0a3d ffac a23d
00000300: 5fca 9b3c b6ba 89bd f44b 6cbd b840 b63d
00000310: 0739 8f3a ef00 3e3b b41b 033a debe 84bd
00000320: b529 9dba 6514 04bd 3e97 f83a 87ac 8cba
00000330: 30e4 133b 5212 c43b 0928 cf3c 6a67 a8bc
00000340: 093a 5fbb c3eb 753d 236c 5d3a e1d2 c03d
00000350: 01be 3bbb b091 5f3d 2317 6dbd 586e ff3d
00000360: ed8f 5dbd fe8c 24bd aff8 95bc 5c81 37ba
00000370: 23c2 32bb 7402 32be 2572 46b9 3ecb 9a3d
00000380: 7e73 f3bd 4c53 9dbc 4196 43bd 95ef 0d3d
00000390: 1996 b43a 5375 723d 5ace 8aba 7cda 6d3d
000003a0: 410c 55bd 3ea0 893d 3556 2bbd bb14 903d
000003b0: 1bd1 8c3c 0cb7 483d 84cf d2ba 7fd6 54bd
000003c0: e837 a639 a45c 64ba 0cf4 f83a 3f0a 4a3d
000003d0: e9e6 c039 454e a5bd d790 003b a162 993d
000003e0: 5ad8 4abd 3da2 26bc 3b07 563d 7d31 a5bd
000003f0: b4bc 463e 32bc 94bd 4c2a 713d cb05 ca3b
-0.0013821867 -0.064957365 0.0010685613 -0.0018145505 -0.0019052611 0.06963279 -0.106631234 -0.057940185
0.08831771 -0.07299996 -0.0004011673 0.037219297 -0.0018997003 -0.10007161 0.0074594617 -0.018906884
0.009792767 0.014322904 -0.08086496 -0.00043871356 -0.00026176323 0.18682776 0.0029121656 0.016087284
-0.12254294 -0.074183434 -0.07132649 0.008409341 -0.002860245 0.060527638 0.0026012869 -0.10256515
0.09965552 -0.026964553 -0.028578827 -0.010705099 0.06842262 0.03655255 0.0018832162 -0.02726891
-0.0026719226 0.0007688484 0.0009651797 -0.118901186 0.07300128 -0.021989506 0.0008669833 0.008485123
-0.045587365 0.105552614 -0.05080614 0.026353935 -0.16691329 0.058128882 -0.022682814 -0.11285697
-0.048406307 0.0024600825 4.959333e-05 -0.0029923832 -0.0016692807 0.0009804397 -0.0025438322 -0.05745969
0.0018125843 -0.025499895 -0.0024675822 -0.14365256 -0.002716925 -0.07046531 0.0012989895 0.11939406
-0.053712342 -0.0011922788 0.023294108 0.05065109 -0.00027892232 -0.043103393 0.06437028 0.03936366
-0.055609684 -0.070713446 -0.028011417 0.0007701359 0.04741586 0.023615768 -0.0010096206 0.071412474
-0.046063274 0.0018049171 -0.09071171 0.10580593 0.053485844 0.051287945 -0.052790593 0.041226875
0.0011806934 -0.00020270026 -0.0011471167 -0.052881226 0.0013781866 -0.033758193 -0.0024844308 0.0020978309
-0.0015362295 0.026971845 -0.05616525 -0.029109735 0.030165212 0.06303904 -0.001777889 -0.061526235
-0.0023623488 0.04335675 -0.0609095 -0.07031938 0.051375456 -0.036982134 0.03410888 0.0016971577
-0.0022289115 0.06854255 -0.0022163372 0.030249087 -0.09791279 -0.03041768 -0.079734206 0.03623172
0.000971794 -0.034709908 0.002745604 0.05085315 -0.036440138 -0.012141 0.011544912 0.059472505
0.059115615 0.040803075 0.0013217515 -0.020577297 -0.00059890654 -0.001448061 0.00051017187 -0.009991845
0.005215313 0.054756846 0.002152992 -0.017347325 -0.020730844 0.055430826 0.04004936 -0.036766127
-0.08905943 -0.060615405 -0.021397125 -0.020840272 -0.0012207683 -0.002440029 -0.00028668236 0.0013353141
0.0029542104 0.00049070694 0.0021357336 -0.074773535 -0.0005123545 0.039461613 0.0011510393 0.08868652
-0.00019637203 -0.06818838 0.0009789233 -0.078071445 0.004192571 -0.0018208319 0.06272714 0.012773173
-0.09008506 -0.08770113 0.057128947 -0.060464077 -0.08407002 0.011461221 0.029816622 0.0023268757
0.07716822 0.0104060015 0.0006118421 -0.0678178 -0.05832872 -0.0018771429 0.033890814 0.07943153
0.019017396 -0.067250654 -0.057689622 0.08899063 0.001092703 0.0028992256 0.00050013815 -0.064817175
-0.0011990579 -0.032246012 0.0018965972 -0.001073257 0.002256643 0.0059836293 0.025287645 -0.020557124
-0.0034061691 0.060039293 0.00084465946 0.09415222 -0.0028647187 0.054582298 -0.057883393 0.12472218
-0.054092336 -0.040173523 -0.018307058 -0.0007000172 -0.002727636 -0.17383748 -0.00018925274 0.075582966
-0.11887263 -0.019204758 -0.047750715 0.03465231 0.0013777643 0.05919392 -0.0010590062 0.05806969
-0.05201364 0.06720017 -0.04183026 0.07035204 0.017189553 0.049002692 -0.0016083573 -0.051962372
0.0003170364 -0.00087113143 0.001899363 0.049326178 0.00036793135 -0.08071569 0.0019617581 0.07489515
-0.049522735 -0.010170517 0.05225299 -0.0806608 0.19407922 -0.07262458 0.058878228 0.0061652414

linear3.bias f4 [3]
00000000: 928e f3bc a713 49bc 893d 8dbb
-0.029731069 -0.012272752 -0.004310314
