checkpoints/three-phase/13bus3p/ddpg copy/policy_net_checkpoint_a8.pth (torch, 43735 bytes, 5 tensors)

linear1.weight f4 [100, 1]
00000000: 6ac0 e7be f5e5 a33e 9c61 5cbf 30b3 5f3f
00000010: ce0c 96be e863 963e 72d9 2b3f ddec 3f3f
00000020: 3e21 5fbf e0b8 44bd 7c42 f5be 6845 ce3e
00000030: e4c6 e83d 43d9 b53d 4aca 48be 2223 04bc
00000040: 9566 c3bd ecb1 e2be 76e4 2e3f 96f6 f1bd
00000050: aa0a 863f e828 a03e 9f25 c53d 7643 4bbf
00000060: 8e80 2f3f 0070 383d 775e 123f dca5 2cbf
00000070: aebc 49bf b483 61bf 3113 f33e b78a 783f
00000080: 585c 31be c528 153f 0de6 6f3f 3017 a33d
00000090: cc27 d5be 6a47 5fbf 7050 92be 62b9 54bf
000000a0: 7938 efbe 2c25 573f 976c b6bc dcf0 bb3e
000000b0: 7a5e a0be 8275 33bf a000 713f 0ac9 3dbf
000000c0: 64ce 3fbe e243 ef3e 2fad 4a3e 805e e33c
000000d0: 4b84 583f 84fc 5d3f f79c 663e a652 8bbe
000000e0: d434 663f 483f 563e 54c9 2cbf da17 2a3f
000000f0: 8dda 2ebf 40c4 6fbd 173b 4c3f e56f 3e3f
00000100: 3061 c3be 78a4 62be ede4 533f ede6 423f
00000110: 043a c4be a4e4 8ebe 1086 98bd a09d 643f
00000120: a75d 42be 2071 7f3e b31c 7f3f a2f7 f53e
00000130: b2a4 77bf a8f4 6d3f 18f3 9e3e 0b09 913d
00000140: d62d 783e 1e31 733e eb80 c1be 80ce d4bc
00000150: 8ac5 eb3e 3780 f1be a833 e63e 36c8 06bf
00000160: 5281 a23d bf84 753f 6725 d03e e5a1 633f
00000170: bc39 50bf e66f 733d 2af1 be3d 906f 05bf
00000180: 12a5 6ebf 305c dbbe ef91 d03e e4fe febe
-0.45263988 0.3201138 -0.8608644 0.87382793 -0.29306644 0.29373097 0.6712867 0.749708
-0.871601 -0.048027873 -0.47902286 0.40287328 0.113660604 0.0887933 -0.19608417 -0.008065017
-0.0954105 -0.4427637 0.68317354 -0.11814611 1.0472004 0.3128121 0.09626316 -0.7939981
0.68555534 0.045028687 0.5717539 -0.6744058 -0.7880353 -0.8809159 0.4747558 0.9708666
-0.17320383 0.58265334 0.93710405 0.07963407 -0.41631925 -0.87218344 -0.28576994 -0.8309537
-0.46722773 0.84041095 -0.022268577 0.367072 -0.3132208 -0.7010118 0.9414158 -0.74134886
-0.18731076 0.46731478 0.19792627 0.027755022 0.84576863 0.86713433 0.22520815 -0.27211493
0.8992436 0.20922577 -0.674947 0.66442645 -0.6830223 -0.058536768 0.79777664 0.7438949
-0.38160086 -0.22133052 0.8277119 0.76133615 -0.38325512 -0.27908814 -0.074474454 0.89303017
-0.18981038 0.24945498 0.99653167 0.4804049 -0.9673568 0.9295144 0.3104484 0.07081803
0.24236235 0.23749205 -0.3779367 -0.025977373 0.46049148 -0.47168133 0.44961286 -0.5264925
0.07934822 0.9590568 0.40653536 0.88918906 -0.81338096 0.059432887 0.09323342 -0.52123356
-0.9322063 -0.4284377 0.40736338 -0.4980384

linear1.bias f4 [100]
00000000: 84f2 103f c771 7d3f 68a9 a93e 453e a8be
00000010: 3a8d 2a3f 4280 16bf d4b8 ad3e c75b 3bbf
00000020: f04b 36bf 9c41 2ebf f55b 683f 9d3c 9dbe
00000030: d723 9b3e 026f b83e be64 213f f40d d83d
00000040: 1f3a 663e 084f 68bf 6cd8 7bbf 6daf 993e
00000050: 3fee 4dbf de95 55bf 2667 1c3f c6ac 28bf
00000060: 83a4 2c3f b8c2 69bf 9f37 1c3f c8c9 48bf
00000070: 4080 d03c 8009 46bf 72d9 643e 2806 6f3e
00000080: 90df ecbd 0820 aebd 375a 363f 5815 edbe
00000090: 30de 92be 308d ea3d 8031 263c af74 5b3f
000000a0: b647 643f ba07 373f e7ab 173f acb6 2cbf
000000b0: 2f4d 413f 8ac7 623f abc8 913e c497 d33e
000000c0: 4cdc 823f 72b7 43be 713e 9a3e 8009 6dbf
000000d0: 11a1 cd3d b423 373b 2059 253f 4e6a ae3e
000000e0: e0da 24bf 6016 e9bc 3860 2e3f 0af1 05be
000000f0: 68d1 5d3f ec53 b8be 2e0b 23bf c3a1 0abd
00000100: 4a0d 7fbf 6874 6fbe 69d4 d1bc 5900 493f
00000110: c818 653e 5857 fa3e 88b6 8abe a245 a0be
00000120: 12c5 033f be3e 79bf a649 f1be d9ab b9be
00000130: 181e e4be b262 2fbf 04ed 3b3f ccfd 9ebc
00000140: 0c4a 0b3d e182 6fba 75bd f73e fc4d 5bbf
00000150: bd26 113f 30be 6b3f 4296 79bf 0b02 753f
00000160: 9bf7 523f 1478 553e 1b9d 6e3d a74c b53d
00000170: 60ca bfbd 4bd4 043f ff9a 5f3e 44e7 2f3f
00000180: 8ecf 09bf 3864 5abf d9c8 fb3e dfe8 223f
0.5662005 0.99001735 0.3313706 -0.32860008 0.66621745 -0.58789456 0.33930075 -0.73186916
-0.7120962 -0.6806886 0.90765315 -0.30710307 0.3030078 0.36022192 0.63044345 0.10549536
0.22483109 -0.9074559 -0.9837711 0.30016652 -0.8044166 -0.83431804 0.6109489 -0.6588863
0.67438525 -0.9131274 0.6102237 -0.78432894 0.02545178 -0.77358246 0.22348574 0.23342192
-0.11566079 -0.08502203 0.71231407 -0.46305346 -0.2868514 0.11452711 0.010143638 0.8572492
0.8917192 0.71496165 0.5924668 -0.67466235 0.755084 0.8858572 0.2847341 0.41326725
1.0223479 -0.19112948 0.30125764 -0.9259262 0.100404866 0.0027944865 0.6458912 0.3406548
-0.64396477 -0.028453052 0.6811557 -0.1308023 0.86647654 -0.36001527 -0.63688934 -0.033845674
-0.9962965 -0.23384249 -0.02561398 0.78516155 0.22372735 0.48894763 -0.27092385 -0.31303126
0.5147258 -0.9736136 -0.47126502 -0.36263922 -0.4455421 -0.6850997 0.7340853 -0.01940813
0.034006163 -0.0009136629 0.48386732 -0.8566587 0.56699735 0.9208708 -0.974949 0.9570624
0.82409066 0.20846587 0.058255296 0.08852511 -0.09364772 0.51886433 0.2183647 0.6871226
-0.5383233 -0.8530917 0.49176672 0.63636583

linear2.weight f4 [100, 100]
00000000: fb9b 813d 3b9b a33d 63f3 62bd adfb b5bd
00000010: d2dd 803d dfb1 cb3d a727 48bd 20ca aabc
00000020: 7fa9 833d a0fb 6f3d 2757 b2bd 3a62 3abd
00000030: 00c2 a93b f5b0 c9bd 7069 56bd 27f9 82bc
00000040: 0005 c1bc 774d 8abd 9f9e b23d d032 47bd
00000050: 4050 273c eab2 5d3d da38 6d3d baa5 223d
00000060: f508 b4bd dadc 37bd adb6 b5bd 7039 5c3d
00000070: 42f4 97bd 03f5 1abd 1feb 81bd 33d9 7d3d
00000080: ca56 8d3d faa0 ca3c 0af4 6ebd 4d08 99bb
00000090: 5b69 9f3d 9ab0 3fbc 47a8 56bd cd97 a7bc
000000a0: 334b 033b c31d 5d3d c045 adbd f2af 80bd
000000b0: 453a c3bd ba26 8bbc 0d58 44bd 476e adbc
000000c0: 2051 7f3d 7da2 123d 1ff5 963d ed41 9c3d
000000d0: b0ae acbd e09d 873c b86f 8e3d b2c6 88bd
000000e0: e503 923d 6774 b4ba e7ad 9bbc 482f 833d
000000f0: 1a4a d0bc 5337 72bd ca5c 2c3d 4d96 a3bc
00000100: 85ed 963d 7d00 14bd 7292 c2bd 73f6 3ebc
00000110: df7f bc3d b3e3 033c e739 80bd 42d1 9b3d
00000120: 07a6 e03c 6b61 92bd effa be3d 9389 f43c
00000130: a3ef a6bd 1afb 853b bd1d ae3d f323 66bc
00000140: 8771 89bd e784 933b 0a60 69bd 7398 663d
00000150: 535c cfbc a7c0 8d3d 0010 2fbd ed06 123d
00000160: 37db 44bd aa6a 7bbd 678e 4fba 4d3a 443c
00000170: d7fe 3dbd f3cb 343c 1d29 4ebd 6d97 7d3d
00000180: 0056 7dbd e0fa c8bd fa24 cd3c 1716 3abd
00000190: 5370 2ebd 7bc0 b7bd e77e 89bc d212 53bd
000001a0: 3e74 a6bc b214 98bd 8c42 623d 5af7 543f
000001b0: 6749 c13c dffb 973d e816 60bd 0f26 d7bd
000001c0: 0471 2a3d 7bc6 543d 3f02 9fbd 006e a9bc
000001d0: bbab 763d 678d 743c 671f b43d f2ea 0e3d
000001e0: 1542 17bd ab49 86bd 7cc8 eabb 630b 53bd
000001f0: 8d9d 3f3d 7d74 713d 9e1a a13d e588 9ebd
00000200: 5acb 083c 0008 19bb 3ae1 7b3d 28ef 5b3c
00000210: 37c5 2a3d 00b9 0f3d 9e2b 75bd 7378 12bc
00000220: 5a6b 4f3d b315 a93c 33cb 5d3c 6789 07bf
00000230: 9537 1b3c db1f 8a3d cd58 9ebd 9d8f 34bd
00000240: 6166 9d3c 457c 9e3c bd20 ba3c 52f6 a43d
00000250: 53a1 1fbd e574 d13d 600e e43d 5780 9a3d
00000260: 6544 d63d 274b 8f3d 566d 8e3c d11a a53d
00000270: 5784 9cbd ce21 6d3d dfcf 81be 854e e83d
00000280: 9bf6 1bbd 88d3 b93d e76d f63c cd77 d33d
00000290: f371 01bc 6718 d43a 1d0f bf3d e65d 6fbd
000002a0: d329 2fbd 3606 fbbc eabb 923d cb0f d2bc
000002b0: a4f7 52bb bdf7 843d 7684 f43a c513 b1bd
000002c0: 950b aabd 3d24 6ebd 7d4c 8ebd 0e1e bebc
000002d0: ae76 48bd a811 21bd 15f9 f23d 973d 9a3d
000002e0: 32a1 e83d 0721 873d 1a88 27bc 4811 24bd
000002f0: e94b 7dbd 673e ce3c e3c1 b43d 0711 e03d
00000300: 1f3b cc3d 5544 19bd db50 d33b 4c4d 10bd
00000310: da64 64bd c8ba 97bd c9f1 bb3d 39e4 65bc
00000320: cf97 4bbd ef52 5abd 1305 bb3c 2ee1 5cbb
00000330: 5802 5a3d 7b3c c6bd c9a9 593c 50c3 313f
00000340: a7d5 dcbc 8029 a23d 41c8 eebc 4afd 3ebd
00000350: bb34 c3bd bca8 edbc 2e70 1dbd 0b73 cd3c
00000360: 5ead dc3c bdcd abbd b068 8c3d 5fe6 a83d
00000370: 1b6d 61bd 78b3 b03d 3672 863d fa7f fe3c
00000380: 6c60 96bd d5af 88bd deb2 98bc 5b04 c03d
00000390: 70de 2f3d 9d43 bfbd e041 5dbd 0708 a53d
000003a0: 6af8 7f3d 4e94 35bc ff7e 6f3d c0ce 2bbc
000003b0: 05b7 bc3d 9fc0 b93d 778d ae3d 96ae 11bf
000003c0: 6bf3 b03d d866 613d 273e 003c dda2 5bbd
000003d0: 97be 74bd 436f fd3d 0860 8abd 5229 8abd
000003e0: f189 d3bd e38d 49bd 8dd7 dc3d 0dd2 5b3c
000003f0: 000e 6f3d ade8 e33b f479 33bd 0e76 003e
0.06328579 0.07988592 -0.055407893 -0.08885894 0.06292309 0.099460356 -0.04886594 -0.020848334
0.06428813 0.058589578 -0.08708029 -0.045503832 0.0051805973 -0.09848205 -0.052346647 -0.015987946
-0.023561954 -0.067530565 0.08721661 -0.048632443 0.010212004 0.054125704 0.057915546 0.03970883
-0.08790771 -0.044888355 -0.08872733 0.053765714 -0.07419635 -0.037831318 -0.06343674 0.061974715
0.06901319 0.024734963 -0.058338203 -0.004670179 0.07783767 -0.01169982 -0.052406576 -0.020458126
0.0020033836 0.05398346 -0.084605694 -0.06283559 -0.095325984 -0.01698624 -0.047935534 -0.021170748
0.062333226 0.035799492 0.07370972 0.07629762 -0.084317565 0.016554773 0.069549024 -0.06678523
0.07129649 -0.0013767601 -0.019003822 0.064055026 -0.02542596 -0.059134793 0.042080678 -0.01996913
0.07369522 -0.03613328 -0.095005885 -0.011655438 0.09204077 0.008049893 -0.06261044 0.07608272
0.027422918 -0.07147487 0.093252055 0.029850757 -0.08151176 0.0040887715 0.08501766 -0.014046657
-0.06711107 0.004501927 -0.056976356 0.05629773 -0.025312578 0.06921511 -0.04273987 0.035651136
-0.048060622 -0.06138102 -0.0007917643 0.011976791 -0.046385612 0.011034953 -0.050332177 0.06191199
-0.061849594 -0.098134756 0.025042046 -0.045431223 -0.04258759 -0.089722596 -0.016784145 -0.05153162
-0.0203191 -0.07425822 0.055239245 0.8318993 0.023594571 0.074210875 -0.054709345 -0.10505306
0.041611686 0.0519471 -0.077641 -0.020682335 0.06022237 0.014926291 0.08795052 0.03489203
-0.036928255 -0.0655702 -0.007165013 -0.05152453 0.04678111 0.058948983 0.07866405 -0.07740954
0.008349264 -0.0023350716 0.06149409 0.0134237185 0.041691985 0.03508854 -0.05985605 -0.00893985
0.050639488 0.02064023 0.013537216 -0.52944034 0.009473701 0.06744357 -0.07731781 -0.044082273
0.019213857 0.019346366 0.022720689 0.08054794 -0.03897221 0.10227374 0.11135554 0.0754401
0.10462264 0.06996756 0.01738612 0.080617554 -0.07642429 0.057893567 -0.25353906 0.113431014
-0.03807698 0.090735495 0.030081702 0.103255846 -0.007900703 0.0016181589 0.093290545 -0.058439158
-0.042764496 -0.03064261 0.07164748 -0.025642296 -0.0032191062 0.06492565 0.0018655199 -0.08646349
-0.0830299 -0.05814003 -0.06948183 -0.02320769 -0.048941307 -0.03932348 0.11863915 0.075312786
0.113588706 0.06598096 -0.01022532 -0.040055543 -0.06183997 0.02517624 0.088260435 0.10940748
0.09972214 -0.037418682 0.0064488477 -0.035229966 -0.055760242 -0.074086726 0.09176976 -0.014031463
-0.049705323 -0.053301748 0.022829568 -0.0033703553 0.05322489 -0.096795045 0.013285109 0.6943865
-0.026957346 0.07918072 -0.029148223 -0.046628274 -0.09531542 -0.029011123 -0.03843706 0.02507927
0.026938137 -0.08388851 0.06855905 0.08247065 -0.05503569 0.08627981 0.06564753 0.031066883
-0.0734261 -0.06674162 -0.018639978 0.09375831 0.042936742 -0.09339068 -0.0540179 0.08058172
0.062492765 -0.011082722 0.058470722 -0.010486305 0.09214596 0.09069943 0.08523076 -0.5690702
0.08640178 0.05502972 0.007827318 -0.053622115 -0.059752073 0.12374737 -0.06756598 -0.067461625
-0.103290446 -0.04920758 0.107833005 0.013416779 0.05836296 0.0069552273 -0.043817475 0.12545034

linear2.bias f4 [100]
00000000: 9f35 c13d eb1b bbbd 6588 6ebd cdab dc3b
00000010: 078f 003d 2310 bfbc 0a59 7c3d f33c 753c
00000020: 958e a5bd 47f5 853d 71ea e5bb 0123 8ebd
00000030: d322 c7bc dd79 803d e4ee 9a3d 338b cd3a
00000040: 9a45 cc3c a062 78bd 9ad3 a8ba aa24 6fbd
00000050: 3322 1b3c a34e 4dbd ffcd 91bd 3369 fc3c
00000060: 89ac 05bd f304 4d3d 5d91 19bb 576f 9dbc
00000070: 7aa9 ccbd be5c f4bc 5c14 673c 451d a93d
00000080: aa52 ac3d 672a a1bd 258b 93bd de58 b83d
00000090: da68 99bd c0e7 90bc c5ea 973c cd32 dd3b
000000a0: bbe7 0cbc 3307 ef3a 4ad4 0c3d 9a07 a03c
000000b0: 1951 1b3d 108b 5e3d 83b9 3d3d 9701 2abd
000000c0: 304d 34bd 337f a13d 63b6 81bd c93d 6b3d
000000d0: cae9 813d 0217 e2bd 755c cbbd 841c dc3d
000000e0: 7080 61bd 7f63 a7bd 87fa d23d 5246 8d3d
000000f0: f7c2 e1bb b440 1e3c 3c28 cd3d b33b 5ebc
00000100: 643f c33c 7e81 8cbc ff29 80bd 3b12 c4bd
00000110: efd1 c7b7 021a 483d 27b6 37bd f0c2 733d
00000120: 3c88 cb3c 53c0 943d 14ba d8bc 4144 d8bd
00000130: 1da1 163d c49e d8ba ea87 79bd 6fef 97bc
00000140: 11b3 d9bd 7119 c73c 9afe 243d 151e 9abd
00000150: caf2 483d 11a7 883d 302b fcbc 0e08 dc3c
00000160: a7dd 34bc dc3a c23c b3d1 4ebd f3b5 75bd
00000170: dc12 ef3d 7831 aabd 60e6 dfbc f4c8 4bbd
00000180: ea37 043d 00f0 243b 66e1 00bd 02b0 98bd
0.094340555 -0.09136184 -0.058235545 0.0067343474 0.0313864 -0.023323124 0.06160835 0.014968145
-0.08083836 0.065409236 -0.007016473 -0.0694027 -0.024308598 0.062732436 0.07565096 0.0015681743
0.024935532 -0.06064093 -0.0012880445 -0.058384575 0.009468603 -0.050123822 -0.07119369 0.030811882
-0.032635245 0.050053548 -0.002343259 -0.01921813 -0.099932626 -0.02982938 0.014103975 0.08257536
0.084142044 -0.07869416 -0.07204274 0.09001325 -0.07490702 -0.017688632 0.018544564 0.0067504407
-0.008600171 0.0018236398 0.034382142 0.019534875 0.037919138 0.05433184 0.046319496 -0.041505422
-0.044018924 0.078855895 -0.06333616 0.05743197 0.0634342 -0.11039545 -0.09929744 0.107476264
-0.05505413 -0.08173274 0.103016905 0.06898178 -0.0068896967 0.009658981 0.1001744 -0.013564038
0.023833938 -0.01715159 -0.0625801 -0.0957379 -2.3820407e-05 0.048852928 -0.04485145 0.05951208
0.024845235 0.072632454 -0.026455916 -0.105598934 0.036774743 -0.0016526808 -0.060920633 -0.018546788
-0.10629857 0.024304124 0.04028187 -0.07525269 0.049059667 0.066724904 -0.030782312 0.02685931
-0.011039174 0.023709707 -0.050492954 -0.059987973 0.11673519 -0.08310217 -0.027331531 -0.04975219
0.032279886 0.0025167465 -0.031464957 -0.07455446

linear3.weight f4 [1, 100]
00000000: f81d 123b 0df5 833d 9b1c 783d 668c df3a
00000010: 28bd 333b cf08 dbbd 01ac 233b f90b 11bb
00000020: 007c ce3a 2b47 883a 0440 d6bd be74 95bd
00000030: 9e90 393a 160b 20bb 1808 fe3d 7d4f 01b9
00000040: 926b f3ba e10b 2e3b d5e0 6739 79a3 f1ba
00000050: 4bb8 82ba 1ca8 b43a abf5 d13a 35b2 a939
00000060: a35e 9bbd f9ea adb9 209a 343d ccf4 d5bd
00000070: ab71 8fba 3c91 8ebd 2075 303d e682 793a
00000080: 21d7 d43a 2cc2 c03a 68c8 aa3a 1743 8bbd
00000090: 2be3 35b9 2b85 29bb f99c 9b3d 5bf7 013b
000000a0: e986 8e3d af6d 83ba 2030 8c3a d122 f2b9
000000b0: d2ce 4b3d eca4 45ba 729d 81bd 61ad f83a
000000c0: 4dfd abbd 1534 ccbd ee6a 20ba 48f3 163d
000000d0: d887 833a 8e67 553d 7e14 703d 9ee7 ddbd
000000e0: b47e 02be 5ffd 20bb fe9b 28be e0b3 8dbd
000000f0: 2cc2 6d3d 0137 90bd d8d8 36bd e986 1fbb
00000100: e7b3 ccbd b214 88bd e13e 93b9 26d4 8dba
00000110: 340d 823d 2e7e 90bd d514 49ba 1c41 06bb
00000120: 3e39 80bd 35a5 4b3d 5988 b53d f0f5 f03c
00000130: a4e3 2c3b 41c8 8b3d 02d6 e73a e20b a4bd
00000140: 3d00 6f3d 121a b33d ba21 91bd efb6 5f3d
00000150: 4de7 f3ba 3d4a 503d cece 65bd 28ac acbd
00000160: 9279 be39 6af2 543d 60fd 6b3a a0e3 41ba
00000170: 34fc 9ebd ff3b 0a3b 4cbf ceb9 098f 473d
00000180: e5ff 303d 7f74 f63a 6c16 03ba 0e1f 1fbb
0.0022295695 0.06443224 0.060574155 0.0017055392 0.0027425978 -0.106950395 0.0024974348 -0.002213238
0.0015753508 0.0010397186 -0.10461429 -0.072976574 0.00070787396 -0.002442067 0.124038875 -0.0001233201
-0.0018571487 0.0026557373 0.00022113633 -0.001843556 -0.0009973136 0.0013783011 0.0016018649 0.00032366966
-0.0758641 -0.000331722 0.044092298 -0.10447082 -0.001094391 -0.06961295 0.04308045 0.00095181016
0.001623843 0.0014706305 0.0013029696 -0.06799906 -0.00017346132 -0.0025866728 0.075982995 0.0019831273
0.06959326 -0.0010027195 0.0010695495 -0.00046183777 0.049757786 -0.0007539529 -0.063288584 0.0018972569
-0.08397923 -0.09970871 -0.00061194494 0.036853105 0.0010034991 0.05210071 0.058613293 -0.10835193
-0.12743646 -0.0024565083 -0.16465756 -0.06919074 0.058046505 -0.07041741 -0.044640392 -0.0024341887
-0.09995251 -0.06644572 -0.00028084873 -0.0010820671 0.063501745 -0.07055317 -0.0007670646 -0.0020485586
-0.06260918 0.0497181 0.08863897 0.029414147 0.0026380802 0.06825305 0.0017687681 -0.08010079
0.058349837 0.08745207 -0.07086511 0.05461782 -0.0018608362 0.05085205 -0.056105427 -0.08431274
0.000363302 0.051988997 0.00090022944 -0.00073962845 -0.07762948 0.002109289 -0.0003943391 0.048720393
0.04321279 0.0018803029 -0.00050005945 -0.0024279985
