checkpoints/three-phase/13bus3p/ddpg copy/policy_net_checkpoint_a9.pth (torch, 45271 bytes, 6 tensors)

linear1.weight f4 [100, 3]
00000000: 44a3 0abf 5f47 93be fa28 db3e 231d 663e
00000010: 6078 2c3e 695a af3e 6819 b5be 3a42 cdbe
00000020: 0615 6cbe 5176 db3e 9a58 17be 7691 c03e
00000030: b697 283e 73a5 e4be 284a d03d f1f6 02bf
00000040: e5e5 30be 6c12 00bd 3b3c 7f3e 6960 c0bd
00000050: b052 383e a73a 69bd 1e5a f43e df86 e8be
00000060: d9d6 a6be 5016 283e c974 a23e 30df 88be
00000070: 1394 00bf e4b0 94be 087f d33e 18bb 0cbf
00000080: 9efe edbc 978b 7abe be83 bdbe e9a9 fcbe
00000090: 81c1 68be f2e2 12bf 8822 b0be c144 c13e
000000a0: 1503 45be 6577 373e 2b32 aebd 2dda 403e
000000b0: 95f4 1f3f 6964 d3bc a8e9 df3e 5648 d93e
000000c0: 1b76 e6be 7931 a73e c54d f1bd 22a1 b83e
000000d0: 2fde 653e 71d4 d53e 153a 073f 934c f5be
000000e0: 8094 dabc 5658 0d3f 34cb 1abf b507 4c3e
000000f0: a60d 113f 7fdf d9be 7b92 d03e 252d 0c3f
00000100: 2275 153f ffc5 993e d9c8 1abe ee4e 77be
00000110: 12eb 793d e4e4 893e c909 52bc 72de d0be
00000120: 31b5 5ebe 1a15 c6bb 0ed7 a53e 90f7 1f3f
00000130: 605b ccbe e0b7 2e3d 6c54 a6bc ba95 223d
00000140: ab63 cb3e d199 f23e a0c5 d33e 5794 bdbe
00000150: 50df b43e fe6b 813e 3066 9a3e 72fb f33d
00000160: 75ea a0be 1244 12be 5edf 10bf dbac 233f
00000170: 742d 993e fafb 043e 9c84 8c3e e380 4abd
00000180: 38ad 42be 4c8c 7fbe 6070 bdbd 75c5 04bf
00000190: a2e5 9bbe 867e b7be f243 94bd fc98 6abe
000001a0: fda0 f9be 6e4e c63e 44ba fd3e e317 6fbe
000001b0: 764d b7be ff48 453e 9bf0 84be 0876 c9be
000001c0: bffd 7ebe 6db6 083f 47f5 ec3e 3cc4 cbbd
000001d0: 0f7c e93e 709b 223c 9b30 213f 4c08 a1be
000001e0: 193d 5a3d 3ab3 003e 6b87 083f 7ca7 e4be
000001f0: 7dea 8f3e dd06 fdbe 9227 9f3d 6d12 c3be
00000200: 1fa2 08bf a74e 87be 6b19 cb3e 800d 553d
00000210: 0777 1e3f 1c23 25bf e5ce a73e c2f4 e3be
00000220: 796e d33e 87b3 ccbe 0e3f c9be 3618 dfbc
00000230: 8249 ebbd 3e7e 223f 8df8 3e3e bbf5 bfbd
00000240: 9b5d a53e dd9d 013d aaaf 9cbe 8fe5 8a3e
00000250: e11a a93e c1cf fabe 011e bfbe 8d86 f0bc
00000260: 6ba3 0ebf 7291 e0be 4f0c 7f3e 27d1 d3bd
00000270: d3b2 d33d 82fc c73e 1ec1 13bf 708a 80be
00000280: a1bf cebe 8816 09bf 35d5 dc3d 89de fe3d
00000290: 68a1 19bf fee4 08bf 817d ffbe f92c fe3e
000002a0: ce2f b7be 3288 b83e 04b7 5e3c 2e57 4c3e
000002b0: c796 643c 55c1 e5be f2ea d2be 9a75 40be
000002c0: f095 ac3e 195a 07be 3ffd 7c3d 28ba 123e
000002d0: df95 5d3e 7337 ba3d 8786 183e c7bf 9f3d
000002e0: f857 c3be 18ee 58be f99f 0fbb 9bdc cebe
000002f0: 8760 66be f259 0dbf dadc ae3d 4d28 2c3e
00000300: 5f51 de3e 0b63 753e 4260 0b3f d8b8 70be
00000310: 67aa 273f 7c45 e9be 36b2 5a3e e814 a7bd
00000320: 673e a23e 5f77 b63e 317a ef3d 1f68 fbbd
00000330: da8b d43e f3d4 09bf 3b08 d13e d569 adbe
00000340: 0446 c1bd b94c acbe 731e 12bf caf5 d93e
00000350: 3fd8 3ebd bc69 d43b dff3 ebbe 81ff 3c3e
00000360: 49e3 0abf 5c82 4ebe e163 f93e fa15 13bf
00000370: e776 b53c 1654 a63d e1a3 90be 5142 233f
00000380: 28ee 063e 459d c13e 4aa7 fcbe 5f72 54be
00000390: c636 e13c e2b3 643e 87e4 ebbe bd10 0f3e
000003a0: 7920 a23e c29c 01bf e935 fe3d a86d a9bd
000003b0: 4e6c fbbd 89bf fcbd 4a69 113e 1071 5a3d
000003c0: 0e67 56be a366 8e3e 0efe 72be a3b5 6bbe
000003d0: 2f53 553e a7f4 16bc b948 5bbe c011 d3be
000003e0: 1f8c 203e 325a 1abe f9fd 10bf b375 8a3c
000003f0: 3812 143c 2797 00bf 5cf4 d0be ca25 5c3e
-0.54155374 -0.2876539 0.428047 0.22472052 0.16842794 0.34248665 -0.35370946 -0.4008959
-0.23054895 0.42863706 -0.14779893 0.37610978 0.16464123 -0.44657478 0.10170394 -0.5115805
-0.17275198 -0.03126757 0.2492532 -0.09393389 0.18000293 -0.0569407 0.47725004 -0.45415398
-0.3258579 0.16414762 0.31729725 -0.2673278 -0.50225943 -0.29041207 0.41307855 -0.5497298
-0.029052075 -0.24467312 -0.37014574 -0.4934838 -0.22730066 -0.5737754 -0.34401345 0.37747768
-0.19239457 0.17916639 -0.085056625 0.18833227 0.6248258 -0.025804715 0.43732953 0.42438
-0.45011982 0.32654932 -0.117824115 0.36060435 0.22448038 0.41763642 0.52823 -0.47909984
-0.026682138 0.55212915 -0.60466313 0.19924815 0.5666145 -0.42553326 0.40736756 0.54756385
0.58381855 0.30033872 -0.1511568 -0.24151203 0.061015196 0.26932442 -0.012819716 -0.40794712
-0.21748807 -0.006044996 0.32390636 0.62487125 -0.39913464 0.042655826 -0.020303927 0.03969357
0.39724478 0.47382978 0.41361713 -0.37027237 0.35326624 0.25277704 0.30156088 0.11913194
-0.31428877 -0.1428378 -0.5659083 0.6393563 0.2991749 0.12986746 0.27444923 -0.049439322
-0.1901139 -0.24955863 -0.092499495 -0.51863796 -0.30448633 -0.35838717 -0.07239522 -0.22909921
-0.48755637 0.38731712 0.49556172 -0.23348956 -0.35801286 0.19266127 -0.25964817 -0.39347863
-0.24901484 0.5340336 0.46280882 -0.09949538 0.45602462 0.0099247545 0.6296479 -0.31451643
0.053280924 0.1256837 0.5333163 -0.4465903 0.28108588 -0.494193 0.07771219 -0.38099995
-0.5337238 -0.26427194 0.3966783 0.052014828 0.6190037 -0.645067 0.32775036 -0.44522673
0.4129522 -0.39980718 -0.3930592 -0.027233224 -0.1148863 0.6347388 0.18649502 -0.09373041
0.32297978 0.03164469 -0.3060277 0.27128264 0.3302832 -0.4898663 -0.3732758 -0.029361034
-0.55718106 -0.43860966 0.24907039 -0.10342627 0.103368424 0.39059836 -0.5771655 -0.2510562
-0.40380576 -0.53550005 0.107828535 0.12444789 -0.6001191 -0.53474414 -0.4990044 0.49643686
-0.3577866 0.3604141 0.013593439 0.19955131 0.013951964 -0.44874063 -0.41194874 -0.18794861
0.33708143 -0.13217963 0.06176495 0.14328825 0.21639203 0.09092607 0.14895068 0.078002505
-0.38153052 -0.21184576 -0.002191542 -0.40402684 -0.2249776 -0.5521537 0.08538218 0.16812249
0.43421456 0.23963563 0.5444375 -0.23508012 0.6549439 -0.45560825 0.21357045 -0.081582844
0.31688234 0.35637948 0.11693228 -0.12275719 0.41512948 -0.5384056 0.40826592 -0.33869806
-0.094371825 -0.33652285 -0.5707771 0.42570335 -0.046592947 0.006482331 -0.46084496 0.18456842
-0.5425306 -0.20166916 0.48709014 -0.5745541 0.022151424 0.08121507 -0.2825003 0.63773066
0.13176787 0.378153 -0.4934638 -0.20746754 0.027491938 0.22334245 -0.4607279 0.13971229
0.316654 -0.5062982 0.12412626 -0.082728684 -0.12276517 -0.1234122 0.14200321 0.05333048
-0.2093775 0.2781268 -0.23729727 -0.23018508 0.20832513 -0.009213603 -0.2141446 -0.4122448
0.15678452 -0.1507347 -0.5663753 0.016901826 0.009037547 -0.5023064 -0.4081143 0.2149879

linear1.bias f4 [100]
00000000: d9de d5bc 199f 74be 6b9a 10be 71b1 9dbe
00000010: 4723 853e 6035 543e cde1 263f c10e 5b3e
00000020: 67df e8be 56f2 42be 7e18 ccbe 5de6 653d
00000030: 1e1e 05be 15a5 c8bd 22b6 2c3e b503 e4bd
00000040: 4943 39be 1881 96be 0e11 6dbe 7542 e13d
00000050: f60e e2bd 829e e53e a7c9 86be df77 bbbe
00000060: de94 093f ad51 d5bd 32d1 a2be 1a21 d4be
00000070: 4f43 ab3e aa29 04bd 2411 44be 78b0 a63e
00000080: 7c97 9d3e 5669 d23d 9c88 733e 3059 243e
00000090: df66 423d bf15 ebbe 5caa e9be 07fd 143f
000000a0: 7ab5 263f 7f95 fabd de51 8bbe 9e72 143f
000000b0: 9eca 89bc 2482 fb3e 78f7 f1be 4494 cabd
000000c0: 51b9 f93d 8e04 bcbe 0f56 62be f2f4 633e
000000d0: c0ad f4be 0531 48be 18fa 0d3f 4eda c33e
000000e0: a8c4 b53d de96 313a d486 a93e 5ef5 013f
000000f0: 23f2 f23e aee5 02be df5c 013f cb34 313d
00000100: 26bd 12bf efc8 093e fae7 97be e205 05bf
00000110: 5543 393e 6819 e9bd 976d 05bf 5265 76be
00000120: f29b babd 0a5c d33d 6fa4 91bd 494f c33e
00000130: ae27 50be cb4a 0bbf 50ee 3fbd 0583 44be
00000140: ef54 073f 4f2d c4be 855b 23be 1b53 103f
00000150: 7b2a 3dbe 39ee 0b3e 89fa 4d3c 2278 12bf
00000160: c7b0 ccbe 8e38 ce3e 4511 9dbd 0ee1 ddbd
00000170: b956 ea3d bc2a b53d f0fd aa3e 177a 133f
00000180: 1ab3 7b3e ee81 a3bd 0531 32be 8060 29bd
-0.026107239 -0.23888816 -0.14121406 -0.3079944 0.26003477 0.20723486 0.65188295 0.21392347
-0.45482942 -0.19037756 -0.39862436 0.056127895 -0.1299977 -0.09797112 0.16866353 -0.111335196
-0.18092074 -0.29395366 -0.23151037 0.10999004 -0.1103801 0.44847494 -0.26325724 -0.36614892
0.5374278 -0.10415969 -0.31800228 -0.41431504 0.3344979 -0.032266296 -0.19147164 0.3255651
0.30779636 0.102739975 0.23782581 0.16049647 0.047461387 -0.45915028 -0.45637786 0.5819859
0.6512066 -0.12235545 -0.27210897 0.5798739 -0.016820248 0.49122727 -0.47259116 -0.09891561
0.121935494 -0.36722225 -0.22103141 0.22261408 -0.4778881 -0.1954995 0.5545974 0.3825249
0.088754 0.0006774495 0.33110678 0.50765026 0.4745036 -0.12782928 0.50532335 0.043263238
-0.5731987 0.13455556 -0.29669172 -0.519621 0.18092091 -0.11381799 -0.52120346 -0.24062088
-0.091117755 0.103202894 -0.07111441 0.38146427 -0.20327637 -0.54411 -0.046858132 -0.19190605
0.52863973 -0.38315818 -0.1595288 0.5637681 -0.18473236 0.13665093 0.012571939 -0.5721456
-0.3997862 0.40277523 -0.076693095 -0.108339414 0.11442322 0.088460416 0.33396864 0.5760817
0.2458004 -0.079837665 -0.17401512 -0.041351795

linear2.weight f4 [100, 100]
00000000: 6da6 70bd 6745 1bbb 73c0 2a3d fa86 3abd
00000010: 4706 f93c 00a6 9e3b 4dc3 9ebc a729 03bd
00000020: b3cf c1bd 7367 323c 75e9 88bd 33a5 c4bc
00000030: c5be bb3d 80d0 a33c a7c7 5d3c eded 26bd
00000040: cdce 623b ca1f 6b3d e7a4 4e3d 8b06 ae3d
00000050: a0a6 423d 40b8 4cbd 7d38 7bbd 2027 633d
00000060: 0000 debc 7aa1 683d 1a2f d43b 7075 09bd
00000070: 9dc6 0dbd fdea 29bd a305 cabd 621c c6bd
00000080: e518 aabd 7310 f33c 5a1f f73c 22e0 813d
00000090: 8531 a33d 902c b53d 8a37 57bd ea9b 02bd
000000a0: 0d64 43bc fac5 913d 93fa 143d cda0 a53b
000000b0: aa8c 2e3d f324 d03c 6742 8e3c a2a6 92bd
000000c0: 771f 743d 67d1 47bb 4deb abbb 2371 683d
000000d0: 7a5c 173d 7d1c c6bd 4a0d 6dbd d3f6 ea3c
000000e0: ed28 84bd 005b 25bd 709b 15bd a009 a13c
000000f0: 5ff9 80bd fbda af3d b34f 873c 97a0 89bd
00000100: c324 743d f51a 8dbd f0cd 5ebd 25b8 84bd
00000110: 6a12 aa3d d3bf 8bbd a086 8d3d 0767 833c
00000120: f31d cb3c 9fc2 933d 0dbe 29bd 522e 863d
00000130: 3ad4 c2bd ad92 b4bd 0a8a 62bd 9a69 4e39
00000140: df3a aebd 85b0 c33d 9ab2 9d3c cdd4 0aba
00000150: 1a43 21bd 1398 48bd b353 0c3d fdf4 673d
00000160: 2311 003d 578b 253d f712 9b3d 4dfe 6b3d
00000170: e712 3c3c 4037 d03c 6089 a5bd edc6 043d
00000180: 9ae2 7e3b 409b 7e3d bd1e bd3d 5af9 7f3c
00000190: 50e0 2a3d a5b1 f43c 132e 593d ecf2 0b3e
000001a0: 545e d63d 471e 8b3d 9eb4 2dbd 6c6c 2ebd
000001b0: b3c7 683d 95e0 c13d cd33 6abd 2fb6 bcbd
000001c0: 67ed 29bc 7247 8a3c e8c0 84bd f564 87bd
000001d0: 0777 debc 7d8e 033e cdb2 233b bbed 433e
000001e0: 7edf 033e cbaa 49bd 35d9 b23d 925d 9ebd
000001f0: fdb3 2cbd a721 483e 4c25 233d a32e d4bc
00000200: 8843 7d3d cdf5 38bd 2500 42be c8f6 493d
00000210: 5d1d 6abd cd24 babc 12bc c5bd 936c ad3d
00000220: 4bbe b7bd da2b 58bd 0705 313e 89d0 05be
00000230: 4661 a23c 6a67 45bd 427d 86bd 12ec 76bc
00000240: 9267 0e3d 8f03 a93e 6700 be3b c165 203c
00000250: 79fc 813d 6a74 5e3d c274 c03d dd2a bdbd
00000260: 9f35 88bd add7 80bd 07cd b6bd 33e7 0d3d
00000270: d0b6 24be 8012 e73c 3911 8ebd 2180 f8bc
00000280: 7e61 6cbd 4da9 873d d0e8 c73d aa22 073d
00000290: 53f6 733d 38af 11bd 9803 293e f549 933d
000002a0: 5cc3 b03d b0ad 2e3d f8c1 c5bd 90b1 1a3d
000002b0: 274a 19bc 886e c8bd 26a9 8db9 a2c8 a03d
000002c0: 43bd 333d e7ab c13b f320 4bbd 9377 fa3c
000002d0: c944 23bd 9a59 c4b8 32ca 8ebd 5a4f bdbd
000002e0: 63ff 69bd 0ad3 b13a a73d ce3d c25c 8b3d
000002f0: 336b 9db9 7a6a 893d d718 993d bbe6 93bd
00000300: d2a4 8cbd f91b e53c 683b 40bc fcd1 9fbd
00000310: c217 9bbd 62fc a73d e33a b03d c686 633d
00000320: fd52 1c3d 676c 7f3d 233e 04bd 5379 b13c
00000330: 381c b33d 1722 823d 0d4a d33c c2a3 973d
00000340: 2d31 a0bd 1a9f 6a3d f7ea 54bd 0d5a 1e3c
00000350: 9542 a83d 4da0 bd3b f33e f3bc e783 0fbd
00000360: cd68 2d3c 00a3 6f3d 8701 8a3c 07ef 793d
00000370: 9531 a2bd 60ff aabc ed0e 1b3d bdce a5bd
00000380: 7a05 8bbd 4d59 843c 73a1 5bbc 7055 05bd
00000390: da70 553d 7a83 4b3d fa18 f1bc 03e3 a03d
000003a0: 9a37 dc3a 40dd c83d d080 513d 6539 c33d
000003b0: 1af1 583c c0ce d63c 62e8 83bd 8584 c1bd
000003c0: e0be 063d 059e 8ebd bbe0 9fbd da56 b2bd
000003d0: b0e7 36bd 20ad f0bc e757 3d3c 5a8f e83c
000003e0: f3f8 9ebc a369 673d 03db 5ebd 0b5e 993d
000003f0: 8008 f9bb 9a56 9abc 3d94 293d 53cd 393d
-0.058752466 -0.002369249 0.04168744 -0.04553888 0.030398501 0.004841566 -0.019380236 -0.032022145
-0.094634436 0.010888922 -0.066851534 -0.024004554 0.09167246 0.019996881 0.01353637 -0.040754247
0.0034608126 0.057403363 0.050450232 0.08497342 0.047522187 -0.049980402 -0.06133317 0.055457234
-0.02709961 0.05679462 0.0064753415 -0.033559263 -0.03461324 -0.041483868 -0.09864356 -0.09673382
-0.083055295 0.02967093 0.030166317 0.06341578 0.079684295 0.0884639 -0.0525432 -0.031886972
-0.011925709 0.07117839 0.03637178 0.0050545693 0.042614616 0.025408244 0.017365647 -0.07160689
0.05960032 -0.0030489804 -0.005246556 0.05674852 0.036953427 -0.096734025 -0.057874 0.028682148
-0.064531185 -0.040369987 -0.03652519 0.01965791 -0.06297564 0.08586689 0.016517496 -0.06720083
0.05960537 -0.06889907 -0.054395616 -0.06480435 0.083042935 -0.06823697 0.06910443 0.016040338
0.024794554 0.072148554 -0.041441012 0.06551804 -0.09513135 -0.08817039 -0.055307426 0.0001968503
-0.085073225 0.09555153 0.019250203 -0.0005295992 -0.039370634 -0.048973154 0.03425951 0.056630123
0.031266343 0.040416088 0.07571977 0.057615567 0.011479116 0.02541697 -0.08082843 0.032416273
0.003889239 0.062159777 0.092343785 0.015623415 0.041717827 0.029869864 0.053022455 0.13666886
0.104672104 0.06792884 -0.042408578 -0.042583868 0.056831073 0.09466664 -0.057178307 -0.09214436
-0.010371543 0.01687977 -0.064821064 -0.06611053 -0.027156366 0.12847324 0.00249784 0.19133656
0.12878224 -0.049235146 0.08732835 -0.07732691 -0.042163838 0.19544087 0.03983049 -0.025901144
0.06183198 -0.04515629 -0.18945368 0.049307615 -0.05715691 -0.022722626 -0.09655012 0.084679745
-0.089718424 -0.052776195 0.17287074 -0.13067831 0.019821774 -0.048194326 -0.0656686 -0.015070932
0.03476674 0.33010527 0.005798388 0.009789885 0.063469835 0.05431024 0.0939727 -0.09236691
-0.066508524 -0.06291137 -0.089258246 0.034644317 -0.16085362 0.028207064 -0.06936879 -0.030334534
-0.057710163 0.066240884 0.09761202 0.032992043 0.059561085 -0.035567492 0.16505277 0.071918406
0.08631012 0.04264611 -0.09656137 0.037766993 -0.009356058 -0.09786707 -0.0002701964 0.07850768
0.043881666 0.005910385 -0.04959197 0.030574596 -0.03986052 -9.362698e-05 -0.069721594 -0.09243651
-0.05712832 0.0013566923 0.10070353 0.068048015 -0.00030025243 0.06709762 0.07475441 -0.07221743
-0.068673745 0.02796744 -0.011732914 -0.07803723 -0.07572891 0.08202435 0.08604982 0.05554845
0.03816508 0.06235924 -0.03228582 0.021664297 0.08745617 0.06354158 0.025792146 0.07404281
-0.078218795 0.057280637 -0.051981892 0.0096650245 0.082158245 0.0057869316 -0.029693102 -0.0350379
0.0105840685 0.05850506 0.016846431 0.06101897 -0.07919613 -0.020873725 0.03785603 -0.08096073
-0.06788154 0.016155863 -0.013405192 -0.032552183 0.052109577 0.049685933 -0.029430855 0.07855799
0.0016801239 0.09807825 0.051148236 0.095324315 0.013241077 0.026221633 -0.06440808 -0.09449104
0.032896876 -0.069637336 -0.07806536 -0.08707972 -0.04465455 -0.029379427 0.011556602 0.028388668
-0.019405818 0.056497227 -0.054408085 0.074886404 -0.00759989 -0.018840123 0.041401137 0.045361828

linear2.bias f4 [100]
00000000: a05b 973c 9fc6 493d 4092 8dbc 5d7d a43d
00000010: 337b e4bd 45e0 8c3d 1305 4abd 1a1a 3b3c
00000020: 2e0a 5f3d 1b16 c73b dd91 46bc 0af2 e53d
00000030: f4ec c2bc ad25 dcbd 9578 2fbd cde8 873a
00000040: 959e a43b ade0 6fbd 611c 6a3c 9070 ae3d
00000050: b530 903d ed05 ecbd 4d06 e73c 8d88 f13d
00000060: 73c6 d13c 2951 10bd a78d 1c3c f049 9b3d
00000070: 3064 6d3d f34f 123e e944 e4bd d075 01be
00000080: d570 99bd d3fb ce3c e78a 1dbd 808a 043c
00000090: 6334 063d ef48 8b3d e9df 41bc 7cfd b5bd
000000a0: 5238 b4bd c2fc 563b 53ba b3bc af92 ccbd
000000b0: 24f3 cf3d e7ac bd3b 1c66 cbbc d94e 293d
000000c0: 11b8 fd3d 8ff9 a2bd e62b b1bd de31 01bd
000000d0: af47 f3bd ed1d 51bd c017 29bd 3a7d 18bd
000000e0: 4902 9c3d a2b5 0f3e fa34 96bc b391 423c
000000f0: adaf c8bc caaa 89bd cd3d a93d 6cdf d7bc
00000100: f3aa 06be 1ed9 f73d 1a61 06bd f780 20be
00000110: c2e4 3e3c 17e9 bebd a270 b6bd 06b5 06be
00000120: cee1 5ebd 6c4f eb3d ddc9 013d 2093 3a3d
00000130: cda8 2cba a009 81bd 1664 c1bd 7dcb 873d
00000140: 4089 72bd dc3b 9dbd 485a b0bd 2206 093d
00000150: 326d a0bd eeba 89bc 9e16 77bd 13ca 8f3d
00000160: b117 c63d 986b f9bc a24e a63d 07b8 c3bd
00000170: 675a 933c aab1 093d 8128 98bc 337f eaba
00000180: 20f3 3f3d e35a 4fbd 7a8d b5bc 35f9 803d
0.018476307 0.049261685 -0.017281651 0.08031724 -0.11156311 0.068787135 -0.049321245 0.011419797
0.054453067 0.006075633 -0.012119737 0.11227806 -0.023794629 -0.107493736 -0.042839605 0.0010369063
0.0050237873 -0.058563877 0.014288993 0.08517563 0.0704054 -0.11524568 0.028201247 0.11793623
0.025607323 -0.03523365 0.009555257 0.07582462 0.057956874 0.1428831 -0.11145956 -0.12642598
-0.07492224 0.025266564 -0.038462546 0.008089662 0.032764804 0.0680102 -0.0118331695 -0.08886239
-0.08799805 0.0032804464 -0.021939432 -0.09988915 0.10153797 0.005788434 -0.024828963 0.04133496
0.123886235 -0.07957756 -0.08650951 -0.031541698 -0.11878907 -0.05105393 -0.041282415 -0.0372288
0.07617623 0.14034131 -0.018335808 0.011875558 -0.024497831 -0.067220286 0.08263741 -0.026351653
-0.1315115 0.12101959 -0.032807447 -0.15674196 0.01165122 -0.09321802 -0.08908202 -0.13154992
-0.054414563 0.11489758 0.031686652 0.045550466 -0.00065864326 -0.06300664 -0.09442918 0.06630609
-0.059212923 -0.07677433 -0.0861097 0.033453114 -0.07833327 -0.016812768 -0.060324304 0.070209645
0.096724875 -0.030446813 0.08120467 -0.09556585 0.017987443 0.0336167 -0.018574001 -0.0017890692
0.04686272 -0.050623786 -0.022162188 0.062975325

linear3.weight f4 [3, 100]
00000000: 4c3d b4b9 0c94 543d d56c bfba 8c61 7a3b
00000010: 6fb3 3d3d 239b 5537 da8b 03bb b02c 0d3b
00000020: 6ac6 94bd da68 58bd 6de2 543d 7fd1 adbc
00000030: 8952 173e efb6 a03d 60b8 383d b009 89ba
00000040: 2bfa e03d 2108 8338 e363 803d d87e 80ba
00000050: 2636 363b 44da ba3d 437c b13a a618 0ebd
00000060: 14ef bdba de5b 9d3c c88a a5ba 24fa 8dba
00000070: 59d0 f33c 98fe cebc aec7 743d 14a5 653e
00000080: e3b4 073a b623 01ba a1e5 eeba 0001 093b
00000090: accc 25b8 eef2 22ba d46f e73c b7c0 363d
000000a0: 93b0 7cba 3b21 e8bc 9a29 12bb 3b0c 11bb
000000b0: 160d bfbd 7971 f93a 3265 523d a9b4 b8bd
000000c0: a30f dc3c 5a06 7b3a 0fdf 0b3d 05a0 3d3d
000000d0: fa31 d93d b9c7 ca3a 0a57 16bc b39b b4ba
000000e0: 476f 0fbd 64ed d3bd 7e16 dd3a 5768 15bb
000000f0: 8dab 1f3b 4957 35bb ab6a f33a 0875 ac3c
00000100: 86b8 9b3d 56a0 4bbd 3c52 9e3c 10cc 4d3d
00000110: b06e 323d 076f b6ba 83d3 a83a 68e5 273c
00000120: 5871 e9bd 3324 02be 0593 963d b8fa adb9
00000130: 0e86 723a 3f5c 46bc 8d81 a53d 7066 833a
00000140: b633 f237 d969 bf3c 81b8 b93a 9741 dabd
00000150: b253 443a a125 a5bc ad7e ad3d 683f a83c
00000160: 79c0 6f3d 602c 2c3b 224a f73d f282 bab8
00000170: 3133 cc3a ef62 983a 2cdc bbbd 337f 133b
00000180: b25f ee3a 5558 993c bc8d e7ba fe65 12ba
00000190: 0618 ae3a 4c2d 31bd 150b e6ba 2fe3 d3bc
000001a0: a2f8 533d 894c 843a 6d9f 5db9 2960 27b9
000001b0: a7cc f9bd 5319 643d d5a2 103d ca64 8cbd
000001c0: 94d6 b2bd 23f5 71bd bc32 503c ae52 4c3a
000001d0: 6eaf a93d 79a5 da39 dd90 873d 9821 e03a
000001e0: 3cf4 153b d280 9b3d 2036 80ba 642d 8fbd
000001f0: 5abe af3a ccb7 133d da97 14bb f84e 333b
00000200: 1cf2 0b3d 88a5 d8bd e31f da3c 0271 2c3f
00000210: 47ce 2d3b 024b fd3a a073 33ba 1b52 703a
00000220: f8a9 373b 33b1 dcba c560 363c 0377 823d
00000230: d83b c0ba b27b 6f3d 0334 d13a 4089 b03a
00000240: 38ac 3d3d 8540 6bba d99b 09bd e733 7a3d
00000250: b59b aebd 074e 293b 0c68 a4bb 3505 933c
00000260: eabc 4a3c 647b b2b7 0df4 1e3d f3f7 303b
00000270: 5190 1f3d b39a 9fbd 64f0 41bb 16f5 cd3a
00000280: 3963 eeba cec0 083b 8559 b4b9 1b08 003c
00000290: 52d8 4f3d 9e02 c7bc 9787 bebc 3398 593d
000002a0: 38e7 7c3d 3ad2 c93a 1dad 0b3b f569 8d3d
000002b0: e931 a73d 27e1 f53b 9ef1 52bd b6a3 29b9
000002c0: 2af4 e7ba cee5 4e3d 8e75 63bd 08bf a7ba
000002d0: c5ad 41ba e415 173d d78f 4739 068a b2bd
000002e0: 7fee 41bb 474a 4c3d 6271 4e3c a0c6 5c3c
000002f0: 66dc d0bd e4f8 0a3d 3c50 c6bd d3aa e33a
00000300: c3d4 903a 78f2 ac3a 0fa8 863d 821c 2f3b
00000310: e48d d4ba eb06 503c c980 db39 b869 2dbb
00000320: f282 8d39 b7b8 3a3d fc02 1abb d468 373d
00000330: 8654 69bd 6097 0bba fa6b deba 4f3b 193b
00000340: 67b5 a9bd d526 c9bd b6a8 8e3d 7b82 7dbd
00000350: 2c22 b8be 467a c53d 89b3 a03d 5c56 c73a
00000360: 1cf2 2bbe 8f17 063a 3970 a53d 1363 4c39
00000370: e819 faba a903 abbd 8ff0 82ba 6168 2bbd
00000380: c1ec 133b 629d 993d fb5b 143b de04 3ebb
00000390: a44a d8bd e13e 1cbd 6848 14be 5240 fd3e
000003a0: 0b69 e2ba bf6a e63a caa1 3cbb d7eb 8f38
000003b0: e237 f9ba 17aa 28bb b512 583d 00b0 6e3d
000003c0: 7332 b5ba bc78 53bd c201 01bb 8a33 183b
000003d0: ef5b 13bd b671 96b9 c79a a43d 5cba b23d
000003e0: 3b77 f9bd 08eb 3c3b 67e4 093d c8ae 23be
000003f0: 2f22 19be 8d48 b73a 1e06 c73d 5e4d aa3a
-0.00034377945 0.051899 -0.0014604578 0.0038205115 0.0463137 1.273191e-05 -0.0020072372 0.0021541528
-0.07264407 -0.05283437 0.05197375 -0.02121806 0.14777578 0.07847392 0.04509771 -0.0010455158
0.10985216 6.248081e-05 0.06269052 -0.0009803427 0.002780327 0.09123662 0.0013541061 -0.034691475
-0.0014490806 0.019208845 -0.0012629861 -0.0010831994 0.029762434 -0.025267884 0.059760742 0.22426254
0.00051767955 -0.0004926281 -0.0018226394 0.0020905137 -3.952968e-05 -0.0006216009 0.028251566 0.04461738
-0.0009639349 -0.028336158 -0.0022302628 -0.0022132534 -0.09328668 0.001903101 0.05136604 -0.09018833
0.026862925 0.00095758366 0.034148272 0.046295185 0.106052354 0.0015470899 -0.009176025 -0.0013779312
-0.03501823 -0.10348013 0.0016867665 -0.0022797787 0.0024363727 -0.0027670434 0.0018571218 0.021051899
0.076035544 -0.049713455 0.019326322 0.050243437 0.04356259 -0.0013918587 0.0012880418 0.010247566
-0.11398572 -0.12709121 0.073522605 -0.0003318393 0.0009251543 -0.012106954 0.080813505 0.0010025036
2.8872728e-05 0.023365902 0.0014169366 -0.106570415 0.0007489278 -0.020159544 0.08471427 0.020538047
0.058533166 0.0026271567 0.120746866 -8.8935616e-05 0.0015579221 0.0011626164 -0.09172854 0.0022506237
0.0018186478 0.018718878 -0.0017666142 -0.0005584656 0.0013282306 -0.04325609 -0.001755091 -0.025865166
0.051750787 0.001009361 -0.00021135593 -0.00015962184 -0.121972375 0.055688214 0.03531154 -0.068551615
-0.08732334 -0.05907167 0.0127074085 0.00077943027 0.08285414 0.00041703487 0.06619427 0.0017099855
0.002288117 0.0759293 -0.0009781756 -0.069910794 0.001340817 0.036063954 -0.0022673518 0.0027360301
0.03416644 -0.105784476 0.026626533 0.67359936 0.0026520656 0.0019324722 -0.00068455376 0.0009167508
0.0028024893 -0.0016837477 0.01113147 0.06370356 -0.0014666272 0.058467574 0.0015960935 0.0013468638
0.04630682 -0.0008974153 -0.033595894 0.061084654 -0.085257925 0.0025833861 -0.005017286 0.017946819
0.012374142 -2.1276712e-05 0.038806964 0.0027003258 0.03895599 -0.077931784 -0.0029592747 0.00157133
-0.001818753 0.0020866874 -0.00034398973 0.0078144325 0.05074341 -0.02429324 -0.023258014 0.053123664
0.061743945 0.0015397735 0.00213129 0.06904975 0.081638165 0.007503647 -0.051499955 -0.00016178083
-0.0017696668 0.050512128 -0.05553203 -0.0012798021 -0.00073882594 0.03688611 0.00019031703 -0.08717732
-0.0029591618 0.049875524 0.012600275 0.01347509 -0.10198288 0.033928767 -0.09683272 0.0017369635
0.0011049736 0.001319482 0.065750234 0.0026719873 -0.0016216603 0.012696962 0.00041866887 -0.0026460718
0.00026991178 0.045586314 -0.0023500314 0.044777706 -0.056965373 -0.0005324986 -0.0016969435 0.0023381298
-0.08286553 -0.0982186 0.06965773 -0.061892014 -0.3596357 0.096424624 0.078467436 0.0015208232
-0.16791576 0.0005115205 0.080780454 0.00019491864 -0.0019081207 -0.083503075 -0.0009989905 -0.04184759
0.0022571536 0.075007215 0.0022637832 -0.00289946 -0.105611116 -0.038145903 -0.14480746 0.49463135
-0.0017273737 0.001757942 -0.0028782957 6.8627e-05 -0.0019013847 -0.0025736147 0.052752215 0.058273315
-0.0013824239 -0.051628813 -0.0019684886 0.002322408 -0.035976347 -0.0002869495 0.08037334 0.087269515
-0.121809445 0.0028826613 0.033665087 -0.15984643 -0.14954446 0.0013983414 0.09717964 0.0012993028

linear3.bias f4 [3]
00000000: f41e febc 7337 14bd 1a9b 34bc
-0.031020619 -0.036185693 -0.011023307
