checkpoints/three-phase/13bus3p/ddpg copy/value_net_checkpoint_a11.pth (torch, 52134 bytes, 13 tensors)

linear1.weight f4 [100, 4]
0	0x3e223261	0.1583953
1	0xbeb16903	-0.3465043
2	0x3e1904f1	0.14943291
3	0x3e9b30c1	0.30310634
4	0xbec00517	-0.37503883
5	0x3eb1e361	0.3474379
6	0xbea901e6	-0.3300926
7	0xbee3f974	-0.44526255
8	0x3ef58eb2	0.4796043
9	0x3e1895eb	0.14900939
10	0x3d93fa7b	0.0722551
11	0xbd7c4362	-0.0615877
12	0x3f2a4b3f	0.66521066
13	0xbdad9649	-0.0847593
14	0xbca4f34f	-0.02013555
15	0x3c167c6f	0.009184941
16	0xbe8ebcf6	-0.2787854
17	0x3e9154fc	0.2838515
18	0x3ed97b8a	0.42477065
19	0x3e782166	0.2423149
20	0x3e20d1c9	0.15705027
21	0x3f0d76f7	0.5525965
22	0x3df49606	0.11942677
23	0x3ee61380	0.44936752
24	0xbeded3b1	-0.43520883
25	0x3f009cd6	0.5023931
26	0xbeccb5d2	-0.39982468
27	0x3e20217c	0.15637773
28	0xbe67e049	-0.22644152
29	0xbe689482	-0.22712901
30	0x3e074b8d	0.13212414
31	0x3d903b06	0.07042508
32	0x3e36f1c8	0.1786567
33	0x3d8bc1c7	0.068240695
34	0x3dafba80	0.08580494
35	0xbeb92f4a	-0.3616889
36	0xbe946b77	-0.2898824
37	0xbe9092de	-0.2823705
38	0xbecdf33b	-0.40224633
39	0xbd95a392	-0.07306589
40	0xbec27037	-0.37976238
41	0x3e90a8e5	0.28253856
42	0xbedad496	-0.42740315
43	0xbe3d4a98	-0.18485487
44	0x3e064543	0.13112359
45	0xbe7a3754	-0.24435169
46	0x3dab3ee0	0.08361602
47	0xbdb63870	-0.08897483
48	0x3e24f9f4	0.16110975
49	0xbe63837a	-0.22218123
50	0x3e3bc814	0.18338042
51	0xbe98b4c4	-0.29825413
52	0xbc90f566	-0.01769514
53	0xbe9f18e2	-0.31073672
54	0x3ea7a58f	0.327435
55	0x3d50a212	0.050935812
56	0xbeb5b2fb	-0.35488114
57	0xbef991d2	-0.48744065
58	0x3d800ab7	0.06252044
59	0x3ec5e575	0.38651624
60	0xbe9b8788	-0.3037684
61	0xbed9d949	-0.42548588
62	0xbedad431	-0.42740014
63	0x3eb9f767	0.36321566
64	0xbe8f04d4	-0.2793337
65	0x3e566163	0.20935588
66	0x3e0803ef	0.1328275
67	0x3d87dec3	0.06634285
68	0xbed5872a	-0.41704684
69	0xbe2e1d75	-0.17003424
70	0xbe3fb13e	-0.18719956
71	0x3edf332f	0.43593737
72	0xbe28502a	-0.1643683
73	0xbeea6312	-0.4577871
74	0x3e8bc410	0.2729802
75	0xbe5b0b3a	-0.21391001
76	0x3eb29ad4	0.3488375
77	0xbda1d013	-0.07901015
78	0xbd9d485a	-0.076798156
79	0x3e3dae0e	0.18523428
80	0xbda35801	-0.0797577
81	0x3f2200c9	0.6328245
82	0xbd57ec25	-0.05271544
83	0x3d94d5a3	0.072673105
84	0xbec23ce2	-0.37937075
85	0xbf05c11a	-0.52247775
86	0xbe4bab12	-0.19889477
87	0x3ea081f6	0.31349152
88	0xbdc1e02a	-0.09466584
89	0x3d832565	0.06403617
90	0xbea93845	-0.33050743
91	0xbeeed864	-0.46649468
92	0xbec461bc	-0.38355815
93	0x3e861d0c	0.26194036
94	0xbe2c0bd1	-0.16801383
95	0xbe729db6	-0.23692974
96	0x3a9e0cc8	0.0012058252
97	0xbef68bba	-0.48153478
98	0x3eefff1f	0.4687433
99	0x3d8374b3	0.06418743
100	0x3eebb188	0.46033883
101	0xbd5b873e	-0.053595774
102	0x3e4f5bc2	0.20249847
103	0x3e5a55a4	0.21321732
104	0x3e780e3f	0.24224184
105	0x3e8dddb5	0.27708212
106	0x3e157e14	0.14598876
107	0xbee01767	-0.43767855
108	0xbf08257a	-0.53182185
109	0x3d53ef53	0.05174191
110	0x3eb9df3b	0.36303124
111	0x3dc6441c	0.096809596
112	0xbb9f188e	-0.004855222
113	0x3df77582	0.1208296
114	0xbe7f63c2	-0.24940398
115	0x3ed969d0	0.4246354
116	0xbdd8a50b	-0.105783544
117	0x3e1a0717	0.15041767
118	0xbe7dd426	-0.2478796
119	0xbe44e724	-0.19228798
120	0xbea28838	-0.31744552
121	0xbecf50a0	-0.404912
122	0xbe49095a	-0.19632474
123	0xba351f2f	-0.0006909249
124	0xbd4c2219	-0.049837206
125	0x3d60331e	0.05473625
126	0xbeb5aefa	-0.3548506
127	0x3ef428cc	0.47687376
128	0xbe3f3760	-0.18673468
129	0x3eefc9cd	0.4683365
130	0x3ebba4e3	0.36649236
131	0xbeabd0cb	-0.33557734
132	0xbeb4abb1	-0.3528724
133	0xbda57ba7	-0.080802254
134	0x3eabdee3	0.33568487
135	0x3eb97da5	0.36228672
136	0xbe7dd83a	-0.24789515
137	0xbde78288	-0.11304194
138	0xbe59ed5f	-0.21281956
139	0x3e53efef	0.20696996
140	0xbec3d84b	-0.38250956
141	0x3de1940d	0.110145666
142	0xbea638df	-0.32465264
143	0xbedd1696	-0.43181294
144	0x3e6f50ba	0.23370638
145	0x3ee87f5d	0.4540967
146	0xbeb42d57	-0.35190842
147	0x3e024970	0.12723327
148	0xbeafa1f3	-0.34303245
149	0xbe6bb1e6	-0.23017082
150	0x3e1d669d	0.15371175
151	0xbecf9da4	-0.40549958
152	0x3ca287d4	0.019840159
153	0x3e80e6df	0.2517614
154	0x3e34e20c	0.17664355
155	0xbd8f3350	-0.06992209
156	0x3e6b4efb	0.22979347
157	0x3ed9bd91	0.4252744
158	0xbe6d3958	-0.23166406
159	0xbee680bf	-0.450201
160	0xbd768f6f	-0.060195383
161	0x3ea87034	0.32898104
162	0xbe573be7	-0.21018945
163	0x3e94be33	0.2905136
164	0x3e9cf8a5	0.3065845
165	0xbd36623e	-0.044527285
166	0x3ce8e994	0.028431691
167	0x3e00e895	0.12588723
168	0xbecf95db	-0.40544018
169	0xbe513659	-0.20430888
170	0x3eea3fbc	0.4575175
171	0x3d8f0cc3	0.06984856
172	0xbda3a1ad	-0.079898216
173	0xbe850a4f	-0.25984427
174	0x3e1bfd0b	0.15233247
175	0x3eed2544	0.46317494
176	0x3ed21dfd	0.41038504
177	0x3ed95ba0	0.42452717
178	0xbee724bc	-0.45145214
179	0x3ec4e7ec	0.38458192
180	0x3e6a7807	0.2289735
181	0x3e281b76	0.16416726
182	0xbeb1d078	-0.34729362
183	0xbeaf2be1	-0.34213164
184	0xbeeacfdd	-0.45861712
185	0x3eae183e	0.3400287
186	0x3d0067fd	0.03134917
187	0x3d31bef3	0.043394994
188	0x3c5ce871	0.013483153
189	0xbebb92db	-0.3663548
190	0xbef4ad74	-0.47788584
191	0xbf0a26ef	-0.5396566
192	0x3da16d88	0.078822196
193	0x3dc973f1	0.09836567
194	0x3de2c7b1	0.11073244
195	0x3eec3192	0.4613157
196	0x3ebd7364	0.370021
197	0xbea10495	-0.31448808
198	0x3ee2c763	0.44292745
199	0xbdd03df4	-0.101680666
200	0x3efc83fe	0.49319452
201	0xbdee462a	-0.116344765
202	0xbbccf510	-0.0062547997
203	0xbe9b50ae	-0.3033499
204	0x3e7bbf09	0.24584593
205	0xbe862097	-0.2619674
206	0x3e05252c	0.13002461
207	0xbe38d19e	-0.18048713
208	0x3e8ebf6e	0.27880424
209	0x3e94ed6f	0.29087397
210	0xbeb4a9d4	-0.3528582
211	0xbee4f603	-0.44718942
212	0xbe9df010	-0.30847216
213	0x3bcf5d24	0.006328242
214	0x3e85c163	0.26124105
215	0x3efa1981	0.48847583
216	0xbeb5e6c0	-0.3552761
217	0xbdebc5be	-0.11512326
218	0x3ef8cb64	0.48592675
219	0xbeb468ce	-0.3523621
220	0xbe40a739	-0.1881379
221	0x3d58766c	0.05284731
222	0x3da4f325	0.08054189
223	0x3ec6ba3a	0.38813955
224	0xbe9b43f2	-0.30325276
225	0xbead1d0a	-0.33811218
226	0xbdd6274a	-0.104567125
227	0xbeca6d26	-0.395364
228	0xbde0d88e	-0.109788045
229	0xbed5daaf	-0.41768405
230	0x3ed76537	0.42069408
231	0xbe957a6e	-0.2919497
232	0xbef4bf65	-0.47802272
233	0xbe36bbff	-0.17845152
234	0xbea405a4	-0.32035553
235	0x3e12724a	0.1430141
236	0xbeae745c	-0.3407315
237	0xbefe243a	-0.49637014
238	0x3ec8457d	0.39115515
239	0xbd85b90a	-0.06529434
240	0xbea3f5d2	-0.32023484
241	0x3ec86216	0.39137334
242	0xbe753ed9	-0.23949756
243	0x3ea18bf2	0.31552082
244	0xbe977375	-0.29580274
245	0x3e02b7e9	0.12765469
246	0x3e8bc59a	0.27299196
247	0xbea08ef8	-0.31359076
248	0x3db8cbfc	0.09023282
249	0xbe2edfdb	-0.17077582
250	0xbe61ebeb	-0.22062652
251	0xbe48d64d	-0.19613
252	0xbdb639ec	-0.088977665
253	0xbe9124fd	-0.28348532
254	0xbe8f32b3	-0.27968368
255	0x3f0166a4	0.5054724

linear1.bias f4 [100]
0	0x3e366702	0.17812732
1	0x3da0cf56	0.07852046
2	0xbcbb137c	-0.02283644
3	0x3ea5a288	0.32350564
4	0x3eebffc7	0.4609358
5	0x3ea3025b	0.31837735
6	0x3e546cf1	0.20744683
7	0x3dd96203	0.106143974
8	0xbe7ab7c7	-0.24484168
9	0x3ecff35c	0.40615356
10	0x3ec43222	0.38319498
11	0xbcfb369b	-0.030665686
12	0x3bb17681	0.005415738
13	0x3e810c6f	0.252048
14	0x3e3ade5e	0.18248889
15	0xbecd1d47	-0.400614
16	0xbdbaea0b	-0.091266714
17	0xbe0d74fb	-0.13814156
18	0xbeaac3ff	-0.33352658
19	0x3e847054	0.2586695
20	0xb8e79a5f	-0.00011043692
21	0x3eb83532	0.35978085
22	0xbd691123	-0.05690111
23	0x3d1f6e02	0.03892327
24	0x3dea34ba	0.11435838
25	0xbcb2ae46	-0.021811616
26	0xbeb6b1d0	-0.35682535
27	0xbdec74be	-0.11545704
28	0x3c7b1c4d	0.015326572
29	0xbe48d24a	-0.19611469
30	0x3e3b3629	0.18282379
31	0x3eabedd7	0.33579895
32	0xbe5d79aa	-0.21628442
33	0xbe305fce	-0.17224047
34	0x3ec432ae	0.38319916
35	0xbef01af2	-0.46895558
36	0x3d896a05	0.06709675
37	0x3d22028c	0.03955321
38	0xbeb06107	-0.34449026
39	0xbe4301b1	-0.19043614
40	0xbcf167a3	-0.029468363
41	0xbec13e25	-0.37742725
42	0xbd151882	-0.036400326
43	0xbee092b1	-0.43861917
44	0xbec79cdc	-0.38986862
45	0xbeda016a	-0.42579204
46	0xbe8c1d45	-0.2736608
47	0x3e4648ab	0.19363658
48	0xbe34461d	-0.17604871
49	0x3e435b09	0.19077696
50	0xbe8f7315	-0.28017488
51	0xbefd4f89	-0.49474743
52	0x3e83ba21	0.25727943
53	0xbe78ab30	-0.24284053
54	0xbe8f31e9	-0.27967766
55	0x3e3b2ad4	0.18278056
56	0xbe536d57	-0.20647179
57	0x3d0bcfc4	0.034133688
58	0xbebb06e0	-0.36528683
59	0xbeb6c157	-0.35694382
60	0xbec2718b	-0.3797725
61	0x3d2d7630	0.04234904
62	0xbed42201	-0.41432193
63	0xbe8083bb	-0.25100502
64	0xbef87b0c	-0.48531377
65	0xbe04ad7f	-0.12956809
66	0xbe9f6166	-0.31128997
67	0x3ebdd6d9	0.37077978
68	0xbeb56042	-0.35425
69	0xbddb9fa6	-0.1072381
70	0xbe0a2541	-0.13490774
71	0x3ea481f5	0.321304
72	0xbe984be9	-0.29745415
73	0xbee2e55a	-0.44315606
74	0xbe7da05d	-0.24768205
75	0xbea92015	-0.3303229
76	0x3bdf9a6f	0.00682383
77	0xbdb19ae0	-0.08672118
78	0x3cd49abf	0.025952695
79	0xbebc70e1	-0.3680487
80	0xbe9aebd6	-0.30258054
81	0xbd0c9a2d	-0.03432672
82	0x3b5f8e8d	0.0034112066
83	0xbe9b73af	-0.30361697
84	0x3ed6d820	0.41961765
85	0xbe80a729	-0.25127533
86	0x3edacb63	0.42733297
87	0xbd9699ee	-0.073535785
88	0x3e98b266	0.29823607
89	0x3e4acbfd	0.19804378
90	0xbe4c9e65	-0.19982298
91	0x3ed19a9a	0.40938264
92	0xbe42b221	-0.19013263
93	0x3e977400	0.29580688
94	0x3e45961a	0.1929554
95	0xbeba1dd8	-0.36350894
96	0xbebcbf55	-0.36864725
97	0x3eac1906	0.3361284
98	0xbf00d1da	-0.5032021
99	0xbe01efea	-0.12689176

linear2.weight f4 [100, 100]
0	0x3d94f963	0.07274129
1	0xbd0f687a	-0.035011746
2	0xbb50ffad	-0.0031890676
3	0xbde5dfd1	-0.1122433
4	0x3d294d8e	0.041333728
5	0xbc65aaf7	-0.014017812
6	0xbdbb7a57	-0.09154194
7	0x3cef5081	0.029213192
8	0xbda75c7b	-0.08171936
9	0xbd8dc7cf	-0.06922876
10	0x3ded3ad3	0.115834855
11	0xbd6e0452	-0.05810959
12	0x3d914023	0.07092311
13	0xbd86f7f9	-0.06590266
14	0xbc0e5187	-0.00868643
15	0x3d2be97b	0.04197071
16	0xbd3022bf	-0.043001886
17	0x3c0d8b35	0.008639147
18	0xbdb11c99	-0.08648033
19	0xbd9d4cdb	-0.07680675
20	0xbd215305	-0.039385814
21	0xbda7dfa9	-0.08196957
22	0xbcfdef23	-0.030997818
23	0x3d68c597	0.05682906
24	0x3d5cd0fa	0.053910233
25	0xbd787fd9	-0.0606688
26	0x3c1ec012	0.009689348
27	0x3d23a12c	0.039948627
28	0x3be1bd29	0.0068890047
29	0xbd19adfe	-0.037519448
30	0xbd2cebff	-0.04221725
31	0x3da749a3	0.08168342
32	0xbd1ac564	-0.037785903
33	0xbd09d8ce	-0.033654027
34	0xbd7b27ec	-0.06131737
35	0x3cef2962	0.029194538
36	0x3da13a5b	0.078724585
37	0xbce580b2	-0.028015468
38	0xbcbee747	-0.023303641
39	0xba1fb5fc	-0.00060924864
40	0x3dac1c7d	0.08403871
41	0xbcbeb321	-0.023278775
42	0x3e08c2b6	0.13355526
43	0xbd83f1f0	-0.0644263
44	0xbd92b474	-0.07163325
45	0xbc648040	-0.013946593
46	0xbd8764b1	-0.06611002
47	0x3b840020	0.004028335
48	0x3c3495c3	0.011022034
49	0xbd8d9eaa	-0.069150284
50	0xbd57cdb0	-0.052686393
51	0xbd449581	-0.04799414
52	0xbd8fa7ad	-0.070144035
53	0x3d816a09	0.06319053
54	0xbd9c21c1	-0.076236255
55	0x3d54a114	0.05191143
56	0x3cb7d9cd	0.022442723
57	0x3d75bf73	0.059997033
58	0x3dc0b0b8	0.094087064
59	0x3dc39542	0.09549953
60	0x3d92b92a	0.071642235
61	0xbdef6d82	-0.11690809
62	0xbdf2e0af	-0.11859261
63	0x3d5c9294	0.053850725
64	0xbd1ec114	-0.038758352
65	0xbbd89b93	-0.0066103428
66	0x3d3823b1	0.044955913
67	0x3bab653d	0.0052305744
68	0xbd6469d8	-0.055765003
69	0x3d254ea9	0.04035822
70	0xbc9a6ca8	-0.01885064
71	0xbd81e733	-0.06342926
72	0x3df3a717	0.11897104
73	0xbcbcff04	-0.02307082
74	0x3b5ec2d7	0.0033990645
75	0x3db3da7a	0.087819055
76	0xbc638a4c	-0.013887953
77	0x3dadae2b	0.084804855
78	0x3d9bd5f1	0.076091655
79	0x3d8f4696	0.06995885
80	0xbdbaceaf	-0.09121453
81	0x3da6beba	0.08141847
82	0x3d54a292	0.05191285
83	0x3d635567	0.055501368
84	0x3cfbe837	0.030750377
85	0x3d715140	0.058915377
86	0xbd5d3aad	-0.054011036
87	0xbd27a626	-0.040929936
88	0xbdb376f0	-0.0876292
89	0x3d9c5d6d	0.07635007
90	0xbd6a1a13	-0.057153773
91	0xbd6343f1	-0.055484716
92	0x3bfda104	0.007740142
93	0x3be23e86	0.006904426
94	0xbd2e14e2	-0.042500384
95	0x3de1ad54	0.11019388
96	0xbd5e881e	-0.05432903
97	0xbd4f64e4	-0.050633326
98	0xbc5b46f5	-0.013383617
99	0x3db3d841	0.087814815
100	0x3cc9c7f4	0.024631478
101	0x3dd6368c	0.10459623
102	0xbd8dd1ee	-0.069248065
103	0x3dbf0323	0.0932677
104	0xbd4eaaa2	-0.050455697
105	0x39cbbe6f	0.0003886106
106	0x3c24ddf3	0.010062682
107	0x3d62177a	0.05519817
108	0x3d5161cb	0.051118653
109	0x3d947ce3	0.07250383
110	0xbcbe8b36	-0.02325974
111	0x3c7e3f50	0.015518025
112	0x3cbec7a2	0.023288552
113	0xbcc1334a	-0.023584027
114	0x3d8c478b	0.06849583
115	0xbd25433d	-0.040347327
116	0xbb7fc782	-0.0039028828
117	0xbccd6b9c	-0.025075726
118	0xbdf05cfd	-0.11736486
119	0xbc084c93	-0.008319038
120	0xbd14c120	-0.03631699
121	0x3d1b5449	0.037922177
122	0x3c6dc790	0.014512911
123	0x3defd900	0.11711311
124	0x3ddf868d	0.109143354
125	0xbd8fd82b	-0.07023653
126	0xbd9bfa5e	-0.07616113
127	0x3c7ebb54	0.015547592
128	0xbc8be991	-0.017079147
129	0xbd422789	-0.047400985
130	0xbda40919	-0.08009548
131	0x3d020af1	0.031748716
132	0x3d97e7c5	0.074172534
133	0x3d318fb1	0.043349925
134	0xbd6ae6fb	-0.057349186
135	0x3d8c426c	0.068486065
136	0x3dc267ea	0.09492476
137	0xbbd839eb	-0.0065987012
138	0x3cb4a4fe	0.02205133
139	0x3da39deb	0.07989105
140	0x3c6a56be	0.0143029075
141	0x3c0ca9f3	0.008585441
142	0xbdbb98d7	-0.09160011
143	0xbd622f21	-0.055220727
144	0x3ce776cc	0.028254889
145	0x3d7690d9	0.06019673
146	0x3e216c73	0.15764026
147	0x3ce05a2b	0.027386745
148	0xbd0d9603	-0.03456689
149	0xbcb44462	-0.022005264
150	0xbc3c1dc3	-0.011481705
151	0x3e0742bd	0.13209052
152	0xbdaf13cb	-0.08548697
153	0x3c847fd6	0.016174238
154	0x3a8c1a22	0.001068894
155	0xbd2604f3	-0.040532064
156	0x3da79137	0.081819944
157	0xbcbfa29d	-0.02339297
158	0xbdcd4aab	-0.100240074
159	0xbd759896	-0.05995997
160	0xbdbfb3c6	-0.09360461
161	0x3d9e9879	0.077439256
162	0x3d18eb52	0.037333794
163	0xbc940c12	-0.018072162
164	0x3dbadbbd	0.09123943
165	0xbb5e2b01	-0.0033900144
166	0xbc1ca611	-0.009561078
167	0xbd7d02d3	-0.06177027
168	0x38943e76	7.068824e-05
169	0x3d9dd0e5	0.07705859
170	0xbe0643d0	-0.13111806
171	0xbd01a72c	-0.03165357
172	0x3d7d413d	0.061829794
173	0xbc2fdc8c	-0.010733735
174	0x3c9e2ce3	0.019308513
175	0x3d06624c	0.032808587
176	0xbd610fc3	-0.054946672
177	0xbd17c759	-0.037055347
178	0x3c201844	0.00977141
179	0x3b8da8d3	0.004323104
180	0xbd97cb30	-0.07411802
181	0x3d0777ef	0.033073362
182	0x3db41219	0.08792514
183	0xbc305bea	-0.0107641015
184	0xbd709dad	-0.05874412
185	0xbba1d0d2	-0.0049382234
186	0xb9de7c16	-0.0004243559
187	0x3da536f4	0.08067122
188	0xbc9b0373	-0.018922543
189	0xbd9056f2	-0.070478335
190	0x3c8178d1	0.01580468
191	0xbda6c462	-0.08142926
192	0x3e046582	0.12929347
193	0x3db2d0d7	0.08731239
194	0x3d0321fe	0.03201484
195	0xbd66194b	-0.056176465
196	0x3d21bfb8	0.039489478
197	0xbd3f38db	-0.04668508
198	0xbc29649f	-0.010338931
199	0x3b415fb7	0.0029506513
200	0x3b5d10ce	0.003373194
201	0x3d9940a7	0.074830346
202	0x3dfc3496	0.123147175
203	0x3c9c6168	0.019089416
204	0x3d7cfcb3	0.06176443
205	0xbd872d41	-0.066004284
206	0xbb8f4673	-0.004372412
207	0xbdbbd68c	-0.09171781
208	0x3c824e1a	0.015906382
209	0x3d6fce7a	0.05854652
210	0xbd989e60	-0.07452083
211	0xbde03640	-0.10947847
212	0xbd890c0c	-0.06691751
213	0xbc9906cb	-0.018679997
214	0xbdec29af	-0.11531388
215	0x3daecb9c	0.08534929
216	0xbd2e992e	-0.042626552
217	0xbd38b21b	-0.04509173
218	0xbd6331c9	-0.0554674
219	0x3d5b2cd8	0.053509563
220	0x3d0abb89	0.033870254
221	0xbc249907	-0.01004625
222	0xbd26cc81	-0.040722374
223	0xbd6944f3	-0.05695052
224	0x3d97ce3b	0.07412382
225	0x3d52fd6f	0.051511224
226	0x3d846de7	0.06466275
227	0x3d32a7fe	0.04361724
228	0xbd526eb9	-0.051375125
229	0xbcafeb32	-0.021474455
230	0x3c26b07c	0.010173913
231	0xbc3a1360	-0.011357158
232	0x3d5c96ea	0.05385486
233	0xbcd7fd46	-0.026365887
234	0xbce279ca	-0.027645964
235	0xbd848ed2	-0.06472553
236	0x3cde45f0	0.027132958
237	0xbda582c5	-0.08081583
238	0x3d6d0f9f	0.057876226
239	0xb94dface	-0.00019643756
240	0x3d49df37	0.04928514
241	0x3d2dad19	0.042401407
242	0x3c89351d	0.01674896
243	0x3d01b78e	0.031669192
244	0xbd47f49c	-0.048817262
245	0xbccb2a3c	-0.024800412
246	0x3ddb6249	0.10712106
247	0x3cc27db5	0.023741582
248	0x3d09579c	0.033530816
249	0x3de1765a	0.11008902
250	0xbcefa9f0	-0.029255837
251	0x3d9bb78f	0.076033704
252	0xbdb4701b	-0.08810445
253	0xbdfe8918	-0.12428492
254	0x3c9af511	0.018915685
255	0xbd0a1e10	-0.033720076

linear2.bias f4 [100]
0	0x3d667af9	0.05626962
1	0xbda27c56	-0.079338714
2	0x3d4650d0	0.048416913
3	0xbe137d6e	-0.14403316
4	0xbdd55cbf	-0.104180805
5	0x3cd5a381	0.026078941
6	0xbc851202	-0.016243938
7	0xbd82c7fe	-0.06385802
8	0x3d532cbc	0.051556334
9	0xbdeaa3fe	-0.1145706
10	0xbe0e394d	-0.13889046
11	0xbdcbb619	-0.09946842
12	0x3c2351e3	0.009968254
13	0xbdb5dd5c	-0.088801116
14	0xbdf97dee	-0.12182222
15	0x3c8da2b7	0.017289503
16	0xbdb489d9	-0.08815355
17	0xbc588d91	-0.013217346
18	0xbd95824e	-0.07300244
19	0xbdba86f5	-0.09107772
20	0xbdbccb58	-0.09218472
21	0xbd87b2a2	-0.066258684
22	0xbdb3391a	-0.08751126
23	0x38bed655	9.0998285e-05
24	0x3d675e2b	0.05648629
25	0xbd241edf	-0.040068503
26	0xbdea86d7	-0.114515
27	0x3d4d4cea	0.05012218
28	0xbde49c30	-0.11162603
29	0x3d6e5818	0.05818948
30	0x3c1cd35c	0.009571876
31	0x3d8f641e	0.07001518
32	0xbc142bca	-0.009043643
33	0xbda7ee55	-0.08199755
34	0xbdd154a3	-0.10221221
35	0x3d82e27c	0.06390855
36	0xbd828d7c	-0.06374642
37	0x3d921dba	0.07134576
38	0x3c65a405	0.014016156
39	0xbd7f28b2	-0.06229467
40	0x3d81ca60	0.06337428
41	0xbdadd49d	-0.084878184
42	0xbdc81a7f	-0.09770679
43	0xbd825477	-0.06363767
44	0xbd137445	-0.035999555
45	0xbcb401b0	-0.02197346
46	0x3cce2ee5	0.025168845
47	0xbd69b583	-0.05705787
48	0xbda8cae2	-0.08241822
49	0xbdd2478e	-0.10267554
50	0xbd5523d2	-0.052036114
51	0x3d56d99f	0.052453633
52	0xbdac0bf8	-0.0840072
53	0x3c617d4d	0.013762784
54	0x3c282571	0.010262833
55	0xbdb18211	-0.08667386
56	0x3d92082c	0.07130465
57	0x3c119191	0.008884803
58	0xbcd3ebbe	-0.025869247
59	0xbd520885	-0.051277656
60	0xbd88b778	-0.06675619
61	0xbccd136b	-0.025033673
62	0xbcd398c9	-0.02582969
63	0x3d896c16	0.06710069
64	0xbd097cb4	-0.03356619
65	0xbdcd2a15	-0.10017792
66	0x3cf098f2	0.029369805
67	0xbcfea863	-0.031086152
68	0x3d247fbf	0.04016089
69	0xbe0c88ca	-0.13724056
70	0xbc9941fb	-0.01870822
71	0xbe178d27	-0.14799939
72	0x3db105bc	0.08643672
73	0x3dcfa2a2	0.101384416
74	0x3c579bc3	0.013159695
75	0xbdaad930	-0.083422065
76	0x3c86d885	0.016460666
77	0xbdc07969	-0.09398157
78	0xbc8fb039	-0.017540084
79	0xbd81cada	-0.06337519
80	0xbccade34	-0.024764158
81	0xbd6bb262	-0.057543166
82	0xbd7a578d	-0.06111865
83	0xbc58bd7c	-0.01322877
84	0xbdbd81f1	-0.092533
85	0xbe2cec90	-0.16887116
86	0xbd588ab0	-0.052866638
87	0x3dacf231	0.08444632
88	0xbd9dbb90	-0.0770179
89	0xbd1613b3	-0.03663988
90	0xbdf7ace2	-0.12093522
91	0xbdecab20	-0.11556077
92	0xbda71cc0	-0.081597805
93	0xbccfd776	-0.025371294
94	0xbda50b8f	-0.08058845
95	0xbde0b733	-0.109724425
96	0x3dda2d5c	0.10653183
97	0xbe242e3b	-0.1603326
98	0xbd594166	-0.053040884
99	0xbd5c5234	-0.053789333

linear3.weight f4 [1, 100]
0	0xbc582692	-0.01319279
1	0x3befe411	0.007320889
2	0x3cc4b482	0.024011854
3	0xbd09873d	-0.03357624
4	0xbbd58ae5	-0.0065168017
5	0x3c92c148	0.01791443
6	0xbd09e2f7	-0.033663716
7	0xbd0fcfab	-0.035110157
8	0xbc2c93af	-0.010533257
9	0xbcb54c12	-0.022131
10	0xbd00e2ef	-0.03146642
11	0xbcfca7ad	-0.030841673
12	0xbd053c69	-0.032528315
13	0x3c0e4475	0.008683314
14	0xbcdee9e6	-0.02721114
15	0xbb552b76	-0.0032527125
16	0xbccd63f1	-0.02507207
17	0x3c14c2a1	0.009079606
18	0xbc81193d	-0.015759105
19	0xbd378dca	-0.044812955
20	0x3ce51c4f	0.0279676
21	0x3c285d64	0.010276172
22	0x3b95dc08	0.004573349
23	0x3bfca04f	0.00770954
24	0xbbc19bfe	-0.0059084883
25	0x3c7d9eef	0.015479787
26	0xbadb698f	-0.0016739833
27	0xbc1b248a	-0.009469161
28	0x3c1ab664	0.009442899
29	0x3bdfb0c9	0.0068264944
30	0x3c945610	0.018107444
31	0x3be9354b	0.0071169487
32	0xbadc2c50	-0.0016797874
33	0xbc5b78e9	-0.013395526
34	0x3ba7b80d	0.005118376
35	0xbc344d5f	-0.011004775
36	0x3b22dbb6	0.0024850196
37	0x3bbc5700	0.005747676
38	0xbca31316	-0.019906562
39	0xbcb2356f	-0.021753995
40	0xbc4a538c	-0.012349021
41	0x3bf008f7	0.0073252874
42	0xbd155dfb	-0.03646658
43	0x3c2f927e	0.010716079
44	0x3c6bf9e6	0.014402842
45	0xbba35aa2	-0.0049851695
46	0x3b690341	0.0035554918
47	0xbcb5e91a	-0.022205878
48	0x3bf3b619	0.007437479
49	0x3c81b63d	0.015833968
50	0xbce6435b	-0.02810829
51	0xba6ce7d1	-0.0009037229
52	0xbcac920c	-0.021065734
53	0xbc556d44	-0.013026539
54	0x3c9dde85	0.019271145
55	0x3c0742d9	0.008255684
56	0x3c5473be	0.012967048
57	0x3b0cb1cf	0.0021468287
58	0x3d08feff	0.03344631
59	0xba9514d1	-0.0011374002
60	0x3c927b23	0.017880982
61	0xbd37aa36	-0.04484006
62	0x3d106179	0.035249207
63	0xbcc5073c	-0.024051301
64	0xbd57957e	-0.0526328
65	0x3ca11773	0.019664502
66	0x3caf69e3	0.021412795
67	0xbc2ebe0e	-0.01066543
68	0x3c501b4f	0.012701823
69	0xbc476425	-0.012169872
70	0x3cb26947	0.021778716
71	0x3b7d8410	0.0038683452
72	0x3c449147	0.011997527
73	0x3bd23f86	0.006416264
74	0x3b957456	0.0045609875
75	0x3c7e164b	0.015508245
76	0x3c0c5a44	0.008566443
77	0xbccde63a	-0.025134195
78	0x3c6ba963	0.014383647
79	0x3c8c6aca	0.017140765
80	0x3c1f51d1	0.009724096
81	0x3cdbc65e	0.026827987
82	0x3cab2e15	0.020895997
83	0xbb622fb8	-0.0034513306
84	0xbc96ee90	-0.018424302
85	0xbc7332a9	-0.014843621
86	0x3c0c2290	0.008553162
87	0xbbc4de25	-0.006007927
88	0x3bd1dc3d	0.0064044283
89	0x3b953a01	0.0045540337
90	0xbcd86d31	-0.026419254
91	0x3b42f887	0.0029750185
92	0x3c14f41f	0.009091406
93	0x3bb8adf8	0.005635973
94	0x3c4e4009	0.012588509
95	0x3c499cd3	0.012305456
96	0x3accc44a	0.0015622464
97	0x3c6425eb	0.013925056
98	0x3ce70ca8	0.028204277
99	0x3c2016cf	0.009771063

bn1.weight f4 [100]
0	0x3f7758a2	0.9661962
1	0x3f7926b4	0.9732468
2	0x3f93fb00	1.1560974
3	0x3f8c5e79	1.0966331
4	0x3f7dabef	0.99090475
5	0x3f7921fe	0.9731749
6	0x3f8117c6	1.008538
7	0x3f78ea2c	0.9723232
8	0x3f7cc81a	0.9874283
9	0x3f7995f3	0.9749443
10	0x3f81b628	1.0133715
11	0x3f7be5d4	0.98397565
12	0x3f79b430	0.9754057
13	0x3f76bd1b	0.963823
14	0x3f84358f	1.0328845
15	0x3f58e963	0.8473112
16	0x3f7d56c1	0.989605
17	0x3f7ca00c	0.9868171
18	0x3f79cdfe	0.97579944
19	0x3f7c5bf6	0.9857782
20	0x3f87f9ee	1.0623147
21	0x3f80834e	1.0040071
22	0x3f7a2808	0.9771733
23	0x3f788ea7	0.9709267
24	0x3f8007d5	1.000239
25	0x3f7dd51e	0.99153316
26	0x3f75c92e	0.960101
27	0x3f7aced2	0.9797183
28	0x3f7a3362	0.97734654
29	0x3f74b557	0.955892
30	0x3f75a682	0.95957196
31	0x3f7c90d7	0.9865851
32	0x3f8981d3	1.0742744
33	0x3f7af2b0	0.9802656
34	0x3f836cb3	1.0267547
35	0x3f796505	0.9741977
36	0x3f74b1e0	0.95583916
37	0x3f66465f	0.8995113
38	0x3f8655df	1.0494956
39	0x3f78327c	0.96952033
40	0x3f7b2dda	0.9811684
41	0x3f800848	1.0002527
42	0x3f7c0425	0.98443824
43	0x3f7cc488	0.9873738
44	0x3f87b738	1.0602789
45	0x3f77cd61	0.9679776
46	0x3f78474d	0.96983796
47	0x3f75d3e2	0.9602643
48	0x3f7bfcf4	0.9843285
49	0x3f7ea267	0.99466556
50	0x3f7e4ec2	0.99338925
51	0x3f7ef803	0.99597186
52	0x3f7dc3d9	0.99126965
53	0x3f778a65	0.9669555
54	0x3f661b76	0.8988565
55	0x3f795d2c	0.97407794
56	0x3f6ca110	0.9243326
57	0x3f62f954	0.88661695
58	0x3f7e5d18	0.993608
59	0x3f717ca3	0.94330806
60	0x3f7a9178	0.9787822
61	0x3f76948f	0.9632043
62	0x3f6ad56f	0.91731924
63	0x3f810987	1.0081033
64	0x3f84e6dc	1.0382953
65	0x3f8cd2e4	1.1001859
66	0x3f7d4f7a	0.98949397
67	0x3f825ffa	1.018554
68	0x3f662f79	0.8991619
69	0x3f7bf663	0.9842283
70	0x3f85cfad	1.0454003
71	0x3f81cfb1	1.0141507
72	0x3f7827e1	0.9693585
73	0x3f641b88	0.8910451
74	0x3f73c23e	0.95218265
75	0x3f7f06d5	0.996198
76	0x3f78a975	0.9713357
77	0x3f69e3d9	0.9136329
78	0x3f7ac902	0.97962964
79	0x3f7615b1	0.9612685
80	0x3f76a604	0.9634707
81	0x3f6e53a5	0.9309638
82	0x3f7899b4	0.9710953
83	0x3f81f8a7	1.0154008
84	0x3f73027e	0.9492568
85	0x3f8b0f85	1.0864111
86	0x3f80c276	1.0059345
87	0x3f7364aa	0.95075476
88	0x3f7983c0	0.9746666
89	0x3f7a46ac	0.97764087
90	0x3f7f7f0a	0.9980322
91	0x3f7b1b3d	0.9808844
92	0x3f739a16	0.9515699
93	0x3f8e8ee1	1.1137353
94	0x3f7f94c4	0.99836373
95	0x3f73e245	0.95267135
96	0x3f820ffc	1.0161128
97	0x3f7a969f	0.9788608
98	0x3f82065b	1.015819
99	0x3f82ea52	1.0227759

bn1.bias f4 [100]
0	0x3dc3827d	0.09546373
1	0xbd03910c	-0.03212075
2	0x3d7d1fc9	0.06179789
3	0xbd1f4d8a	-0.038892306
4	0x3e3037df	0.17208813
5	0xbdc18639	-0.09449429
6	0x3dd2ac1a	0.10286732
7	0x3e020e07	0.12700664
8	0x3c128ab5	0.008944203
9	0x3cf39dfe	0.029738422
10	0x3e1e737e	0.15473744
11	0x3e193d6e	0.1496484
12	0x3dd95679	0.106121965
13	0x3cb08886	0.021549474
14	0xbca1bf1f	-0.019744454
15	0x3e21f2e2	0.15815309
16	0xbe0568aa	-0.13028207
17	0xbc242efa	-0.010020966
18	0x3e5a4873	0.213167
19	0x3c7d0cb1	0.01544492
20	0x3dbe5ee2	0.09295441
21	0x3d64cbfd	0.0558586
22	0x3d0215cf	0.03175908
23	0x3de2332b	0.11044916
24	0xbcd09e9a	-0.025466252
25	0x3d82c77c	0.06385705
26	0xbd60c6c9	-0.054877076
27	0x3d35e487	0.044407394
28	0x3d632f7a	0.0554652
29	0xbdfd222f	-0.12360036
30	0xbc9d0ffd	-0.019172663
31	0x3d3ad18e	0.045610003
32	0x3c574e95	0.013141294
33	0xbdb67c43	-0.0891042
34	0xbd51580d	-0.051109362
35	0x3ddf4ede	0.109037146
36	0xbdda6fca	-0.10665853
37	0xbc94cbf3	-0.018163657
38	0x3d2723bc	0.040805563
39	0x3b9f0a11	0.004853495
40	0xbd5ebed0	-0.05438119
41	0xbd58382b	-0.05278794
42	0xbda31d01	-0.079645164
43	0x3e228e97	0.15874706
44	0x3c28a378	0.01029288
45	0xbdcec8c1	-0.100968845
46	0xbe212eb5	-0.15740474
47	0xbd9d4e34	-0.07680932
48	0x3d68bd59	0.0568212
49	0xbdd82414	-0.10553756
50	0x3d311d42	0.043240793
51	0xbe5862cd	-0.2113144
52	0x3c3faf2e	0.011699481
53	0xbd994a13	-0.07484832
54	0x3dcc71e6	0.09982662
55	0x3cd7238c	0.026262067
56	0x3d997cd0	0.07494509
57	0x3e0e2a40	0.13883305
58	0x3e1c55d7	0.1526712
59	0x3e3ec800	0.18630981
60	0xbcfebc78	-0.031095728
61	0xbd0d2e3a	-0.034467913
62	0x3d9b543c	0.07584426
63	0x3d262e01	0.040571216
64	0xbcac381a	-0.021022845
65	0x3d4aa856	0.049476944
66	0x3c39656c	0.011315685
67	0xbc95711b	-0.01824241
68	0xbe16d947	-0.14731322
69	0x3c8a4956	0.016880672
70	0x3d29a832	0.04142017
71	0x3d794f45	0.060866613
72	0x3c325946	0.010885542
73	0x3d5c979a	0.053855516
74	0x3cc93ddc	0.02456563
75	0xbc9a1a4d	-0.01881137
76	0x3d5e7bcb	0.054317277
77	0xbe14cc41	-0.14531042
78	0x3ddec452	0.10877289
79	0xbce7d129	-0.028297978
80	0xbd69ed5f	-0.05711114
81	0xbcc7cc42	-0.02438939
82	0x3d9bf7f7	0.07615655
83	0xbbde2588	-0.0067793764
84	0xbd875bc2	-0.06609298
85	0x3ce9532e	0.028482046
86	0xbcef730a	-0.02922966
87	0xbc8b52a8	-0.017007187
88	0x3dcd674a	0.100294665
89	0xbd89f00b	-0.06735238
90	0x3a0f08df	0.0005456339
91	0xbd181b3a	-0.03713534
92	0xbd1a464f	-0.037664708
93	0x3d40da97	0.047083464
94	0x3dc48cc3	0.09597161
95	0xbd60ac7f	-0.054852005
96	0xbd414dd7	-0.047193374
97	0xbd124963	-0.03571452
98	0x3cbc7937	0.023007018
99	0xbd561ba5	-0.052272458

bn1.running_mean f4 [100]
0	0x3f3625ba	0.71151316
1	0x3e227ec9	0.15868677
2	0x3f085522	0.532549
3	0x3f663d92	0.899377
4	0x3f949ddc	1.1610675
5	0x3fee4a83	1.8616489
6	0x3ec16e18	0.37779307
7	0x3dd16d55	0.102259316
8	0x3d822cb5	0.063561834
9	0x3d936cf1	0.07198513
10	0x3e83e955	0.25763956
11	0x00000004	6e-45
12	0x3cb0d840	0.021587491
13	0x3ec52434	0.38504183
14	0x3ee82be0	0.45345974
15	0x3e31ae95	0.17351754
16	0x3e1a43d4	0.15064937
17	0x3ec26612	0.37968498
18	0x00000004	6e-45
19	0x3f4cce6f	0.8000249
20	0x3f1fc6c3	0.6241266
21	0x3e80a173	0.25123176
22	0x3deaf3cc	0.11472282
23	0x3d3ed92d	0.046593834
24	0x3ed21dac	0.41038263
25	0x3f618ab6	0.8810228
26	0x3e04eb86	0.1298047
27	0x3e812bfe	0.25228876
28	0x3f3b836c	0.7324741
29	0x3d0ae792	0.03391225
30	0x3b02d76b	0.0019964825
31	0x3f73a497	0.9517302
32	0x3dbd5e3d	0.0924649
33	0x3f208c80	0.62714386
34	0x3e900d6f	0.2813525
35	0x3b8a7846	0.0042257635
36	0x3f41a4ee	0.7564229
37	0x364792cc	2.9738758e-06
38	0x3d3b9d31	0.045804206
39	0x3e9ed9be	0.310255
40	0x3f1a5caf	0.60297674
41	0x3e44c7c0	0.19216824
42	0x3e95423e	0.291521
43	0x3f166849	0.58752877
44	0x3f5080e1	0.81446654
45	0x3df15d4f	0.11785375
46	0x3c17dc87	0.009268886
47	0x3e009dd5	0.12560208
48	0x3f794b81	0.97380835
49	0x3ef9fb44	0.48824513
50	0x3dc9a82d	0.0984653
51	0x00000004	6e-45
52	0x3f00f804	0.5037844
53	0x3f533358	0.8250022
54	0x3a9d968b	0.0012023015
55	0x3f59acbb	0.8502919
56	0x00000004	6e-45
57	0x3c07b67b	0.008283253
58	0x3d38c94d	0.04511385
59	0x3d067ea3	0.032835614
60	0x3e96efe4	0.29479897
61	0x3c6c588e	0.01442541
62	0x3a0b89c3	0.00053229573
63	0x3ef990e5	0.48743358
64	0x3e5ef5ef	0.21773504
65	0x3e513cc2	0.20433334
66	0x3f0e98b0	0.5570173
67	0x3f45525a	0.77078784
68	0x3d2f1c3b	0.042751532
69	0x3fcefb4d	1.6170441
70	0x3de372c6	0.11105876
71	0x3dcbbb30	0.099478126
72	0x3e46ca69	0.19413151
73	0x3915cc29	0.00014285803
74	0x3d83060a	0.06397636
75	0x3e33ce4e	0.17559168
76	0x3ed251ee	0.41078132
77	0x3b9eeb62	0.004849837
78	0x3d7edcb6	0.062222205
79	0x3f1a0b17	0.6017317
80	0x39f1d49e	0.00046125514
81	0x3cdbe168	0.02684088
82	0x3f360581	0.7110215
83	0x3dfe95a6	0.12430887
84	0x3f06fa3a	0.52725565
85	0x3da14e77	0.07876294
86	0x3f5395d7	0.8265051
87	0x3e7efe45	0.24901684
88	0x3fa470e7	1.2846955
89	0x3e1db331	0.15400387
90	0x3dbfe0d9	0.09369058
91	0x3f3be278	0.7339244
92	0x3d3fc6fd	0.04682063
93	0x3f9b24b4	1.2120576
94	0x3fa76ab6	1.307944
95	0x3e5aac6c	0.21354836
96	0x3d90109b	0.07034417
97	0x3f3f1eb1	0.74656206
98	0x3d1a32d6	0.037646137
99	0x3dd3463f	0.10316133

bn1.running_var f4 [100]
0	0x3f6b4ec0	0.9191704
1	0x3d8d87af	0.06910645
2	0x3cadb9be	0.021206733
3	0x3b818894	0.003953049
4	0x3fd17792	1.6364615
5	0x3ff063d9	1.8780471
6	0x3eac50cb	0.3365539
7	0x3d99631d	0.074896075
8	0x3c5e9ca5	0.013587152
9	0x3cda2f46	0.02663387
10	0x3dcaf1dd	0.09909413
11	0x00000004	6e-45
12	0x3b45ec98	0.0030200835
13	0x3eba130c	0.36342657
14	0x3f529c11	0.8226939
15	0x3eaa5ebd	0.33275405
16	0x3dbde426	0.092720315
17	0x3f2f193f	0.683979
18	0x00000004	6e-45
19	0x3e5e9ebf	0.21740244
20	0x3d02d93a	0.031945445
21	0x3ea9dfd2	0.33178574
22	0x3d408ed3	0.047011208
23	0x3c17b34b	0.009259055
24	0x3f185d88	0.5951772
25	0x3f3b9029	0.73266846
26	0x3d23d55f	0.03999841
27	0x3ebd7885	0.37006012
28	0x3f848223	1.0352215
29	0x3bdaf8a8	0.006682474
30	0x3986b737	0.00025694977
31	0x3faa1e78	1.3290548
32	0x3c8ffeee	0.017577615
33	0x3fb65e7b	1.4247583
34	0x3e7c5926	0.24643382
35	0x3a62b390	0.0008647973
36	0x3eaaa942	0.33332258
37	0x33149b0e	3.4599957e-08
38	0x3c3c6013	0.011497515
39	0x3e356214	0.17713195
40	0x3efc3352	0.49257904
41	0x3ddf3620	0.108989954
42	0x3eedca4f	0.46443412
43	0x3faf1f54	1.3681436
44	0x3f7fcdad	0.9992321
45	0x3d2a9eb8	0.041655272
46	0x3af74e54	0.0018867948
47	0x3d81c62b	0.06336626
48	0x3fde6c62	1.7376826
49	0x3e8ee3f5	0.27908292
50	0x3cbf6e50	0.02336803
51	0x00000004	6e-45
52	0x3eb66de4	0.35630715
53	0x40016071	2.0215113
54	0x3915a659	0.00014271717
55	0x3f9c9160	1.2231865
56	0x00000004	6e-45
57	0x3ac209c5	0.0014803937
58	0x3d0dd6ec	0.034628794
59	0x3cf7f520	0.030268252
60	0x3ed71477	0.420078
61	0x3ae40750	0.0017397199
62	0x380d5112	3.3692522e-05
63	0x3f83082e	1.0236871
64	0x3eadea5a	0.3396786
65	0x3e2939fd	0.16526027
66	0x3f4433be	0.7664145
67	0x3f54ed13	0.83174247
68	0x3d079848	0.03310421
69	0x404c47ea	3.1918893
70	0x3c7fa737	0.015603832
71	0x3d20be88	0.039244205
72	0x3e9c1c7f	0.3049049
73	0x369f45bc	4.7466874e-06
74	0x3d8310a6	0.0639966
75	0x3d7c0e5c	0.06153713
76	0x3e4a61ef	0.19763921
77	0x3a7377e0	0.0009287577
78	0x3c728f61	0.014804692
79	0x3f95b227	1.1694993
80	0x37fec83c	3.0372401e-05
81	0x3bb2ca09	0.0054562134
82	0x3e84ad23	0.25913343
83	0x3d17e1b0	0.037080467
84	0x3e95fd77	0.2929494
85	0x3d2ec568	0.04266873
86	0x3f149447	0.58038753
87	0x3d66e36d	0.056369234
88	0x3e8432e1	0.25820068
89	0x3d6143bc	0.054996237
90	0x3d032260	0.032015204
91	0x3f879de3	1.0595058
92	0x3c37e984	0.011225108
93	0x3c105ea4	0.008811627
94	0x3faf0331	1.3672849
95	0x3e8fcdff	0.2808685
96	0x3d2d6bef	0.04233926
97	0x3eecfa2e	0.46284622
98	0x3c2ca148	0.010536499
99	0x3c21cdfc	0.009875771

bn2.weight f4 [100]
0	0x3f7a3070	0.9773016
1	0x3f79546e	0.97394454
2	0x3f7c30af	0.98511785
3	0x3f844574	1.0333695
4	0x3f816de2	1.0111659
5	0x3f806e79	1.0033714
6	0x3f80ae71	1.0053235
7	0x3f84fb7f	1.038925
8	0x3f7e01b5	0.99221355
9	0x3f79bcd0	0.9755373
10	0x3f80f874	1.0075822
11	0x3f83c573	1.0294632
12	0x3f8625e8	1.0480318
13	0x3f7ebd61	0.9950772
14	0x3f81434c	1.0098662
15	0x3f615287	0.8801655
16	0x3f864291	1.0489064
17	0x3f708f05	0.9396823
18	0x3f8319ed	1.0242287
19	0x3f86288d	1.0481125
20	0x3f829585	1.020188
21	0x3f786df5	0.9704278
22	0x3f6c7ea9	0.9238077
23	0x3f7afca4	0.9804175
24	0x3f61ade7	0.8815598
25	0x3f7ab2e1	0.979292
26	0x3f83c4e1	1.0294458
27	0x3f7e2e93	0.99289817
28	0x3f7dbef0	0.9911947
29	0x3f782415	0.96930057
30	0x3f817e12	1.0116599
31	0x3f7711a0	0.9651127
32	0x3f6e7526	0.93147504
33	0x3f7f1633	0.9964325
34	0x3f67f9eb	0.9061572
35	0x3f79e89e	0.9762057
36	0x3f6ada9d	0.9173983
37	0x3f6f385b	0.93445367
38	0x3f80f7bb	1.0075601
39	0x3f828fd6	1.0200145
40	0x3f7a0336	0.9766115
41	0x3f606173	0.87648696
42	0x3f817ce0	1.0116234
43	0x3f7c71e5	0.9861129
44	0x3f80420d	1.0020157
45	0x3f7c8b0f	0.98649687
46	0x3f4c232c	0.7974117
47	0x3f825801	1.0183107
48	0x3f73e3b8	0.95269346
49	0x3f7922fb	0.97319
50	0x3f803ae4	1.0017972
51	0x3f7378c7	0.95106167
52	0x3f828e6d	1.0199715
53	0x3f6d64c2	0.9273187
54	0x3f81cd11	1.0140706
55	0x3f7d9f9a	0.9907166
56	0x3f7e977e	0.9944991
57	0x3f7ab62a	0.9793421
58	0x3f83724b	1.0269254
59	0x3f7a5867	0.9779114
60	0x3f7c2a76	0.9850229
61	0x3f868115	1.0508143
62	0x3f840df4	1.0316758
63	0x3f823f4a	1.0175564
64	0x3f861f88	1.0478373
65	0x3f7feee8	0.99973917
66	0x3f80e0ef	1.0068644
67	0x3f7c8275	0.9863656
68	0x3f7b45f2	0.98153603
69	0x3f80b4a4	1.0055127
70	0x3f807df7	1.0038441
71	0x3f79db31	0.97600085
72	0x3f7d8b9b	0.99041146
73	0x3f7cdb6e	0.98772323
74	0x3f68421a	0.9072586
75	0x3f7d331b	0.98906106
76	0x3f79b7fe	0.97546375
77	0x3f800423	1.0001262
78	0x3f7652ee	0.9622029
79	0x3f804594	1.0021234
80	0x3f62252c	0.8833797
81	0x3f822504	1.0167546
82	0x3f7119f5	0.9418023
83	0x3f6b8763	0.9200346
84	0x3f808c83	1.0042881
85	0x3f80b568	1.0055361
86	0x3f77b63f	0.9676246
87	0x3f806cb8	1.0033178
88	0x3f7c9a65	0.9867309
89	0x3f7dcf37	0.9914431
90	0x3f83b023	1.0288128
91	0x3f712e46	0.9421123
92	0x3f6b2697	0.9185576
93	0x3f75d52c	0.960284
94	0x3f7fbaf3	0.99894637
95	0x3f7579e9	0.95889145
96	0x3f6bcc62	0.9210874
97	0x3f6308a9	0.8868509
98	0x3f813881	1.0095369
99	0x3f7a3ad0	0.9774599

bn2.bias f4 [100]
0	0x3e9b6e57	0.3035762
1	0x3f325ed6	0.6967596
2	0x3f3b789b	0.73230904
3	0xbf4a072f	-0.7891721
4	0xbf33edd4	-0.7028477
5	0x3f40a2df	0.7524852
6	0xbf48113c	-0.781513
7	0xbf4aa63a	-0.7915989
8	0xbf2df154	-0.6794636
9	0x3e9121cf	0.28346106
10	0xbf4578bc	-0.7713735
11	0xbf47c0fc	-0.78028846
12	0xbf475073	-0.7785713
13	0x3f41cd58	0.75703955
14	0xbf51c6c2	-0.81943905
15	0xbf0ed00a	-0.5578619
16	0xbf47c9d9	-0.7804237
17	0x3f29b6c9	0.66294533
18	0xbf3b776a	-0.73229086
19	0xbf4bbfd5	-0.7958959
20	0x3f48ddf4	0.78463674
21	0x3f31ab9a	0.6940247
22	0x3f32f1d4	0.6990025
23	0x3f374664	0.7159178
24	0xbed6503e	-0.41858095
25	0x3f412def	0.75460714
26	0xbf43720e	-0.7634591
27	0xbf3d53d1	-0.7395602
28	0x3f3ff96c	0.7498996
29	0x3f39d690	0.7259302
30	0x3f405d8f	0.7514276
31	0x3f167aa0	0.5878086
32	0xbf230d6b	-0.6369235
33	0xbf4b0084	-0.7929766
34	0x3f0ed568	0.5579438
35	0xbf287b97	-0.65813583
36	0x3f165cc9	0.5873533
37	0x3f3022fb	0.68803376
38	0xbf3cbb42	-0.7372323
39	0xbf4c27b5	-0.7974809
40	0xbf34144f	-0.7034349
41	0x3d95e6a1	0.073193796
42	0xbf455373	-0.7708046
43	0x3f3cdbe6	0.7377304
44	0x3f3ff957	0.7498984
45	0xbf4266c0	-0.75938034
46	0x3e6b2d91	0.22966601
47	0xbf462291	-0.77396494
48	0x3ecbd8a0	0.3981371
49	0x3f3cdf7b	0.73778504
50	0xbf50cb29	-0.8156
51	0x3ec99ba0	0.39376545
52	0xbf479905	-0.77967864
53	0xbf185f09	-0.5952001
54	0x3f48ae0c	0.78390574
55	0x3f417a10	0.7557688
56	0x3f457c3a	0.7714268
57	0x3f3a9649	0.72885567
58	0x3f46ec07	0.777039
59	0xbf233fab	-0.63769025
60	0xbef42800	-0.47686768
61	0xbf4d8901	-0.80287176
62	0x3f4bca63	0.7960569
63	0xbf3fea91	-0.74967295
64	0xbf4ee706	-0.80821264
65	0x3f46e179	0.77687794
66	0x3f46ea41	0.77701193
67	0xbf3c8489	-0.7363973
68	0x3f3a3e70	0.7275152
69	0xbf477eb9	-0.7792774
70	0x3f4634d6	0.7742437
71	0xbee5ae51	-0.44859555
72	0x3f414a85	0.7550433
73	0x3f3ca8f4	0.736953
74	0x3f1a01d5	0.60159045
75	0x3f3b15dc	0.7308023
76	0x3f4088ea	0.75208914
77	0xbf49c4a1	-0.78815657
78	0x3f110952	0.56654847
79	0x3f3f3576	0.7469095
80	0x3ece26d6	0.40264004
81	0x3f464d04	0.77461267
82	0xbe81e930	-0.2537322
83	0xbde6b534	-0.112650305
84	0xbf3c7c56	-0.7362722
85	0xbf4757b2	-0.7786819
86	0x3f2bf856	0.67175806
87	0xbf4463be	-0.76714694
88	0x3f3b7767	0.7322907
89	0x3f41a320	0.75639534
90	0xbf458de9	-0.7716966
91	0x3f2ed053	0.6828663
92	0x3c7b62b8	0.015343361
93	0x3f34aefd	0.7057951
94	0x3f46c88c	0.7764976
95	0x3f2062d9	0.6265083
96	0x3f22a6a2	0.6353551
97	0x3f1e74e1	0.61897093
98	0x3f48130d	0.7815407
99	0x3f3ede0e	0.7455758

bn2.running_mean f4 [100]
0	0x3e32f21f	0.17475174
1	0x3e11a551	0.1422322
2	0x3de19d93	0.11016383
3	0x3df3a9c0	0.118976116
4	0x3b69243e	0.003557458
5	0x3e4819bc	0.19541067
6	0x3e51604d	0.20446892
7	0x3e6732bb	0.22577946
8	0x3e805daf	0.25071475
9	0x3d0b59cd	0.034021188
10	0x3e05d749	0.13070406
11	0x3cae7c6d	0.021299565
12	0x3e5f046f	0.21779035
13	0x3e8e531b	0.2779778
14	0x3dc61802	0.09672548
15	0x3ea964b2	0.33084637
16	0x3ccce453	0.025011217
17	0x3e90d8a4	0.28290284
18	0x3e206709	0.15664305
19	0x3cf1c548	0.029513016
20	0x3d44790f	0.047967013
21	0x3dacd5f1	0.084392436
22	0x3e689adc	0.22715324
23	0x3e95f664	0.29289544
24	0x3e8497b0	0.25896978
25	0x3e7683a8	0.2407366
26	0x3df91aa2	0.12163283
27	0x3e2e00de	0.16992518
28	0x3de46a7c	0.11153123
29	0x3ec49a6e	0.3839907
30	0x3e6e9f9c	0.23303074
31	0x3ea84042	0.32861525
32	0x3edc8bc3	0.4307538
33	0x3e1480bd	0.14502235
34	0x3eb1d60e	0.34733623
35	0x3e27cd5c	0.16386932
36	0x3e81d95b	0.25361142
37	0x3f19de4e	0.60104835
38	0x3e09181e	0.13388106
39	0x3e1f9efe	0.15587994
40	0x3e1c08cc	0.1523773
41	0x3deb5a9d	0.114918925
42	0x3d80da5d	0.062916495
43	0x3e0ace59	0.13555278
44	0x3d44a657	0.048010197
45	0x3e3a30d5	0.1818269
46	0x3e97f40e	0.29678386
47	0x3eb472d5	0.3524386
48	0x3e0703cb	0.1318504
49	0x3dd3cfd8	0.103423774
50	0x3db12b7f	0.08650874
51	0x3ea1cd46	0.31601924
52	0x3e8b1d37	0.27170727
53	0x3e2a49de	0.1662974
54	0x3e2acffb	0.16680901
55	0x3e57cf1d	0.21075101
56	0x3ec71512	0.38883263
57	0x3e93e7b6	0.2888772
58	0x3d2ebe9a	0.04266224
59	0x3d81d94d	0.06340275
60	0x3d92f2c7	0.07175212
61	0x3eb1abda	0.34701425
62	0x3ea8dfb2	0.32983166
63	0x3e177aef	0.14792989
64	0x3e02e965	0.12784345
65	0x3dacb6ab	0.08433279
66	0x3e5c842f	0.21534799
67	0x3e50e6a5	0.20400484
68	0x3e22e2d0	0.15906835
69	0x3ded9651	0.11600936
70	0x3e1b90d9	0.15191974
71	0x3de7042d	0.11280093
72	0x3e889a4b	0.26680216
73	0x3e8a107c	0.26965702
74	0x3e7af3a9	0.24507011
75	0x3e411051	0.1885388
76	0x3f26939b	0.6506898
77	0x3d33d4fb	0.043904286
78	0x3dac5e96	0.08416478
79	0x3d93e38c	0.072211355
80	0x3e96b559	0.29435232
81	0x3defee44	0.117153674
82	0x3d71acb4	0.059002593
83	0x3e998087	0.2998087
84	0x3e079c96	0.13243327
85	0x3a3296ac	0.0006812613
86	0x3ee15211	0.44007924
87	0x3e3d900d	0.18511982
88	0x3dd68834	0.104751974
89	0x3e9cf0de	0.30652517
90	0x3ca099aa	0.019604523
91	0x3e65bc08	0.2243501
92	0x3d9d1227	0.07669478
93	0x3e856e6c	0.26060808
94	0x3e19bafb	0.15012734
95	0x3c89a415	0.016801873
96	0x3f1c0c06	0.60955846
97	0x3cac6a06	0.02104665
98	0x3df57ff9	0.119872995
99	0x3ea565bb	0.32304177

bn2.running_var f4 [100]
0	0x3e10e06b	0.14148109
1	0x3dbe5072	0.092926875
2	0x3d3fcf98	0.046828836
3	0x3dd8d101	0.10586739
4	0x39b31e13	0.00034163948
5	0x3d033ced	0.032040525
6	0x3d27e148	0.04098633
7	0x3dac2884	0.08406165
8	0x3dce12c9	0.10062177
9	0x3c3eb53e	0.011639891
10	0x3d25eeb5	0.040510852
11	0x3b40f64f	0.0029443686
12	0x3dc560b6	0.09637587
13	0x3ee9ab56	0.4563853
14	0x3d182f92	0.03715474
15	0x3ea5af9c	0.32360542
16	0x3bcc439a	0.0062336447
17	0x3e2cec8a	0.16887107
18	0x3d33f155	0.043931324
19	0x3c0e401f	0.00868228
20	0x3b9eb9bf	0.00484392
21	0x3caf4ebe	0.021399852
22	0x3e89e247	0.26930448
23	0x3e500713	0.20315199
24	0x3e35b7fd	0.17745967
25	0x3dd8cf9a	0.10586472
26	0x3ce86d95	0.028372565
27	0x3d1ecd11	0.038769785
28	0x3d442a63	0.047891986
29	0x3ebb7aea	0.36617213
30	0x3d282311	0.041049067
31	0x3d7de67f	0.061987396
32	0x3e1902de	0.149425
33	0x3dee8e4f	0.11648237
34	0x3dedd11b	0.11612149
35	0x3df17f81	0.117918976
36	0x3e8c8d2d	0.2745146
37	0x3f497f3a	0.7870976
38	0x3c8ad068	0.016945079
39	0x3d998fb5	0.07498113
40	0x3e2ba9fd	0.16764064
41	0x3d068db5	0.032849986
42	0x3c9a1650	0.018809468
43	0x3d749af6	0.059718095
44	0x3c5d8010	0.013519302
45	0x3db844b6	0.089974806
46	0x3d5282a1	0.05139411
47	0x3e2f5f02	0.17126086
48	0x3dc03a72	0.093861476
49	0x3d344e9a	0.044020273
50	0x3c6a9cd1	0.0143196145
51	0x3e900c9c	0.2813462
52	0x3e3627b5	0.17788585
53	0x3d0421cc	0.032258794
54	0x3d79b932	0.06096763
55	0x3e91d618	0.28483653
56	0x3e6fcbe0	0.23417616
57	0x3e27955b	0.16365568
58	0x3b817781	0.0039510136
59	0x3bdb6db6	0.006696428
60	0x3d4a8e3e	0.04945206
61	0x3e0d44d0	0.13795781
62	0x3e68b5db	0.22725622
63	0x3d3fb56d	0.04680388
64	0x3db7f7ad	0.08982787
65	0x3c84648e	0.01616123
66	0x3e86d793	0.26336345
67	0x3e286c7a	0.1644763
68	0x3dfef224	0.124485284
69	0x3d6fa211	0.058504168
70	0x3dab26c9	0.08357007
71	0x3e270673	0.16311054
72	0x3db61b2d	0.08891902
73	0x3d6c8a66	0.057749175
74	0x3d764e64	0.060133353
75	0x3cf4b7db	0.029872825
76	0x3e93c105	0.288582
77	0x3c619483	0.013768318
78	0x3cdd9e66	0.02705307
79	0x3cd0affc	0.02547454
80	0x3df7c827	0.12098723
81	0x3d2fc6b7	0.04291412
82	0x3bd09060	0.006364867
83	0x3e01c0f8	0.12671268
84	0x3cd72786	0.026263963
85	0x380ac733	3.3087283e-05
86	0x3e8e1538	0.27750564
87	0x3d55776e	0.05211585
88	0x3d742a8c	0.05961089
89	0x3d921bf1	0.07134236
90	0x3b55da2b	0.003263126
91	0x3e2e73a0	0.17036295
92	0x3cd1dafe	0.025617119
93	0x3e5f7504	0.21821982
94	0x3db4ccc0	0.088281155
95	0x3bfe7bf2	0.0077662403
96	0x3e987494	0.29776442
97	0x3bd7ae0f	0.0065820287
98	0x3cbf2893	0.023334777
99	0x3e6b5e34	0.22985154
