checkpoints/three-phase/13bus3p/safe-ddpg/three_single/value_net_checkpoint_a0.pth (torch, 52966 bytes, 13 tensors)

linear1.weight f4 [100, 6]
00000000: 332e 0cbd fc55 65bc ccc4 1cbe 6556 c03d
00000010: a22a 6fbe 6371 93bd eabb d03e c3d8 143f
00000020: 0df1 853e 3b9a 54be e973 13be 0656 6dbe
00000030: 0aba 903e 1783 e73d 9abe 4e3e 730a 0a3f
00000040: a3ad 50be cafd 2dbe ae5c 353f f5a9 133f
00000050: 308f 023f 5c18 2bbf b6aa 0cbf cdc3 16bf
00000060: 796f 3ebe b05d 1cbe b5a0 e4bd aacb 03bf
00000070: ede5 6bbf 1970 b3bd bf5b b03e 77f6 a33e
00000080: 4750 753e 75f4 ae3e c87d 593e e2a4 91be
00000090: 33e7 f63e 11b0 163d df37 c83e da4f 7d3e
000000a0: eb93 8e3e 1718 363e 47e2 d13d ae1c 8fbd
000000b0: 62a5 f63d 3e4b 0fbe be2a 233e 1569 993e
000000c0: 77ff 85be 0ee6 4a3d ddf1 2dbe 84f3 b53f
000000d0: 085b 5dbf 2580 053e 170b 10bd f940 843e
000000e0: d39f 7f3b 9179 0d3e f521 a93e dbb3 813e
000000f0: 2720 88be 1801 09bf 5b45 94bd b819 8b3e
00000100: a89e 433e 02fd 023f 6f4a e23e 5ed2 08bd
00000110: 67d2 ebbd e6d0 4e3e 1631 023f f76b 70bd
00000120: d0c2 09be f508 943e bc72 38be 301a 44be
00000130: 584a 63bf a4c9 09be 8ee8 ecbd a4a7 94bd
00000140: f0f8 1bbe b551 b8be 3208 133f ce4c 963d
00000150: c3c6 013f 5f1d 43bd 4d88 30bd 6201 123f
00000160: ab79 98be 6656 3dbe 89ec cc3d 1c04 423f
00000170: 5445 153f ef03 cbbe 7f3f bebe a38f fc39
00000180: 3458 c0bc 3fc5 6a3e eda7 b5bc 5d89 6ebf
00000190: db89 1ebd 1935 013f b833 e93e 31cf 153e
000001a0: 518d 57be 833d b23e 03c8 e43d 5c86 12bd
000001b0: d8be 0a3d 7bdc 833d 8355 963e 6819 8d3e
000001c0: c66b 773e cce1 cdbe d0df 203f fa2a 233e
000001d0: b6bd 893e 4ab9 a2be b761 b5be d3ce 173e
000001e0: 96c0 e53e 7d5e 403e e2fc 90be 99ee 393d
000001f0: 9eac a63e ef86 3dbe 36c0 aabe 7131 c23d
00000200: b88e b9be 1242 21bb 3093 4dbd 063a 803b
00000210: fa6c 2a3d cff5 afbc b3d8 56be b0ee 30be
00000220: 0727 a43e a2fb d23e 275d 0fbf b690 41bf
00000230: fbdb 11bf cdc6 ee3e c364 a43e d9d0 473d
00000240: baac a43e 3834 7b3e 09a8 033f a2ac ddbd
00000250: 7d90 ae3c 275f c5be 8f9a cbbd 5b3e 8d3e
00000260: b7e5 953d f2d8 93bf 3fc7 07bf 6e94 19bf
00000270: a53e 0e3f b63b 0e3f 4f18 0d3f eeed adbd
00000280: 990b 1cbf 147e 26bf e1b8 2fbd e27a 2dbd
00000290: 78b7 bdbe 1b8d 813e 02d8 9bbe 62d8 3bbc
000002a0: 201b d6be 0a44 523e 9662 403d fcbb a03f
000002b0: 5b47 373e 3086 23bf 59ec 113f 8ea6 61be
000002c0: df29 973e a7e6 7cbe 2ec5 293e 7d93 213d
000002d0: 2832 453e 5d98 87bd 24ae c23e 2e0a 133f
000002e0: c60a 2abd cf77 85be bb9e 3c3e fa5c ab3e
000002f0: 5d85 da3e 51df 0c3f 23db 313e ee5f 1cbe
00000300: 623c 20bd 732d 87bd 4407 033f ee8c 45bf
00000310: b33d 3dbe 533d 653e ce60 75be bb28 b4be
00000320: 5a9c debe 48b5 1b3f c50e 6b3e 8d47 073f
00000330: 89b6 803e 6209 2c3e a3d1 213f d451 0abf
00000340: 3f90 eabe e909 033e da17 eb3e 0541 3dbe
00000350: 1ec9 c6be e767 503e b3bf 8b3d 139b 723c
00000360: f271 aa3e af3e bc3d 6d7d 70be d570 053e
00000370: 52f5 a73e 060e 273d 4d06 c5bd 7218 fe3c
00000380: b851 febb 991b 08be d1b7 ae3e 19f4 923e
00000390: e924 293f 4ce0 233f 5bfd 853e 2932 fabe
000003a0: d628 993a 2f65 843b ff4a d73e f2fa c03e
000003b0: 1d32 a03e 596a 6b3e 5ff3 81bc 3d50 133e
000003c0: aff3 cebe 9d1c 4e3e 4677 e83d 17b7 de3d
000003d0: 5f25 e8bd 7826 f03d b7e4 953e 3b5a 16be
000003e0: 6b3b 363b 8f1f 9a3c ec80 a0be ee31 e6be
000003f0: 0013 da3e a0e3 ae3e f185 62be e9c8 873e
-0.034223747 -0.013997551 -0.15309447 0.093914784 -0.23356107 -0.07199361 0.40768367 0.5814325
0.2616047 -0.20761959 -0.14399685 -0.23177347 0.28266937 0.113043 0.20189896 0.53922194
-0.20378737 -0.16991344 0.7084454 0.5768121 0.50999737 -0.66834044 -0.54947984 -0.5889252
-0.18597211 -0.15270114 -0.11163465 -0.5148264 -0.92147714 -0.08761615 0.34444997 0.32023975
0.23956405 0.3417088 0.21239388 -0.28446108 0.48223266 0.036789004 0.39105126 0.24737492
0.27847227 0.17782627 0.10248237 -0.06987892 0.12043263 -0.13993546 0.15934274 0.29962984
-0.26171467 0.049535803 -0.16986795 1.421494 -0.8646703 0.13037165 -0.035166826 0.2583082
0.0039005175 0.13815905 0.3303372 0.2533253 -0.2658703 -0.53517294 -0.07239791 0.2716806
0.19103491 0.5116731 0.44197413 -0.033403747 -0.115147404 0.20196876 0.5085615 -0.058696713
-0.13453221 0.28913084 -0.18012518 -0.19150615 -0.88785315 -0.13455826 -0.11567794 -0.072585374
-0.15231681 -0.35999838 0.5743438 0.07338868 0.5069391 -0.047635432 -0.043098737 0.5703336
-0.29780325 -0.1848999 0.10006053 0.7578752 0.5830891 -0.3965144 -0.3715782 0.00048172203
-0.023479559 0.22926806 -0.0221748 -0.9317835 -0.038705688 0.50471646 0.4554727 0.14629818
-0.21050002 0.34812555 0.11170962 -0.035772666 0.03387341 0.06438538 0.29362115 0.27558446
0.24162206 -0.40211332 0.6284151 0.15934363 0.2690255 -0.3178199 -0.35426113 0.14824991
0.44873494 0.18786044 -0.28317934 0.04539356 0.3255357 -0.18508504 -0.3334977 0.094820864
-0.36241698 -0.0024606031 -0.050189197 0.003913167 0.041607834 -0.021479515 -0.20981102 -0.17278552
0.32061026 0.41207606 -0.56001514 -0.75611436 -0.5697629 0.46636048 0.32108125 0.048783157
0.3216303 0.24531639 0.51428276 -0.10823943 0.021309132 -0.38549158 -0.09941589 0.27586636
0.07319205 -1.1550581 -0.530384 -0.5999211 0.5556434 0.5555986 0.55115217 -0.08492647
-0.60955197 -0.6503613 -0.042900924 -0.04235352 -0.37054038 0.25302967 -0.30438238 -0.011465164
-0.4181757 0.20533767 0.04696902 1.2557368 0.17898314 -0.6387663 0.5700126 -0.22036192
0.29524133 -0.24697362 0.16579124 0.039447296 0.19257414 -0.06620858 0.38023484 0.5743741
-0.04151418 -0.2606797 0.18419926 0.33469373 0.42679873 0.55028254 0.1736875 -0.1527097
-0.039120086 -0.066004656 0.5118296 -0.77168167 -0.18480568 0.22386675 -0.2396271 -0.35187325
-0.43478662 0.6082349 0.22954853 0.5284355 0.25139263 0.16800454 0.63210505 -0.5403111
-0.45813176 0.12796749 0.45916635 -0.18481834 -0.38825315 0.20352136 0.06823673 0.01480748
0.33290058 0.091916434 -0.23485346 0.13031323 0.32804352 0.04078486 -0.096203424 0.031017516
-0.0077612065 -0.13291778 0.34124616 0.28701857 0.66071945 0.64014125 0.26169857 -0.48866394
0.0011685144 0.0040403823 0.42049405 0.37691456 0.31288233 0.22989787 -0.015863119 0.14386077
-0.4042029 0.20128103 0.113508746 0.10874765 -0.11335253 0.11726087 0.29276058 -0.14682858
0.0027806412 0.018813876 -0.3134836 -0.44959968 0.4259262 0.3415804 -0.22121407 0.2652047

linear1.bias f4 [100]
00000000: 019a a9be 860a 4a3f 16e6 5a3e fec0 8c3f
00000010: bb98 863e 6567 06bd e949 063f b7a3 4c3e
00000020: 9cee 823e b1e0 283f 68d1 2e3d db94 503e
00000030: 7887 27be 529f 763e c642 8e3e 65e6 cebc
00000040: adad 1dbd 60ef 073f e895 263e 1fe7 473f
00000050: 6d5d 673e 80c2 a13e 0928 1f3f a440 bb3c
00000060: 4ec9 4fbd 72c4 d43d 84b6 213f 2d69 98be
00000070: ca36 d4bb b584 9a3e ef35 e13e 0da0 9eba
00000080: 226b 0f3f 10ee bf3a c60e 9b3e a45b f73e
00000090: 1c82 5a3e 615a df3e 3899 283d 80cd e83d
000000a0: ba78 c9be 4914 1a3f 8161 0e3e 997e 103f
000000b0: 02d1 fd3e 2905 483e 45ae be3d e227 053f
000000c0: 13d0 4e3f 408c 2d3f c18e ef3e 9c12 a7be
000000d0: 7485 103f 6761 603f fea0 3a3f cb92 263f
000000e0: 62cd af3e 2d19 81be 61ea 2cbe 95ec 713e
000000f0: 1a15 583f 4758 c03e 33dc 283f d985 9abe
00000100: 7066 283f 6c54 97be dfd7 b13e 1605 a43d
00000110: 037c 3dbe cca1 3e3f 0176 2b3f bd38 143e
00000120: b131 12bd d984 ad3d 8e19 dcbd d3bd c2be
00000130: 232f aa3d 2d48 b2be acd5 adbe 8992 2e3f
00000140: 5e30 c33e e2d6 ecbd f969 ebbd 9904 2e3f
00000150: c7dc 39be 8334 d93e c640 203f 077f 6b3d
00000160: dad4 eb3e 3bb1 943e 1847 c0be e171 67be
00000170: b73e 283e 009f 493f b896 bebe 664d 2e3e
00000180: 47f8 fd3e 78b0 073f 2903 c73e dd7e d4bd
-0.33125308 0.7892231 0.21376833 1.0996397 0.262884 -0.03281345 0.5245653 0.19984327
0.2557267 0.6596785 0.042680174 0.20369284 -0.16360271 0.24084213 0.2778532 -0.025256345
-0.03849571 0.5309963 0.16268122 0.7808704 0.22594233 0.31593704 0.62170464 0.022857971
-0.05072909 0.103890315 0.6316912 -0.29767743 -0.006476258 0.30179372 0.4398646 -0.0012102142
0.56022847 0.0014643092 0.3028471 0.48312104 0.21338695 0.4362364 0.041161746 0.11367321
-0.3934992 0.601872 0.13904382 0.5644317 0.49573523 0.19533218 0.09310583 0.5201398
0.80786246 0.6779213 0.467886 -0.32631385 0.56453633 0.87648624 0.72901905 0.6506774
0.34336382 -0.2521452 -0.16886283 0.23625405 0.844072 0.3756735 0.65961 -0.30180243
0.6578131 -0.29556596 0.3473501 0.080087826 -0.18504338 0.7446563 0.66976935 0.14474769
-0.03569192 0.08472604 -0.10747062 -0.3803545 0.08309772 -0.3482069 -0.3395208 0.68192345
0.3812284 -0.11564423 -0.11494822 0.67975765 -0.18150626 0.42422876 0.62598836 0.05749419
0.4606083 0.29041466 -0.3755424 -0.22602035 0.16430174 0.7875824 -0.37224364 0.17021713
0.49603483 0.53003645 0.38869599 -0.1037576

linear2.weight f4 [100, 100]
00000000: 4ae9 923d 8222 1e3e 65c9 6e3e eb1e 603e
00000010: 5723 393f a916 71bb 37bd 3b3d 23af 473e
00000020: 0935 a5bf e0ce 2b3e b2cf ce3e 945f cb3d
00000030: 3b7b 5e3f eb62 22bf 53d1 bd3e 078c debd
00000040: fc47 2abf 80ca 033e c765 493e 03a1 583e
00000050: 41a9 183e e3d8 433d b9c2 c93e cee3 123f
00000060: 9256 0e3d 7855 dfbe 4c26 453e 5d9a 8cbd
00000070: 58b7 adbf 408e 093e a113 583e 8689 a53d
00000080: 07d5 253e 5f55 713f f69b 943d 749d ab3e
00000090: 2c5c 663e 6dd9 3b3e 2211 08bd 61d4 ce3d
000000a0: 4d7b 5a3d 8e3e f63e 49b9 393d 5d71 1d3e
000000b0: 3fac 933e b16e ba3e 7aa0 ad3d 2fd2 c83e
000000c0: e613 4b3e af79 523e 635f 883e 6527 95bf
000000d0: f783 2e3e 4b56 7e3e e0eb 1b3e 4e87 893d
000000e0: bb94 b13e 1497 58be ef7e e3be ef53 1ebf
000000f0: 46ed ff3d 3a95 a83e 011d f13d e620 50bf
00000100: 15f1 be3d 953e b9bd 9e27 353e 92bd e53d
00000110: e379 b03d 394c 533e 1f1f 143e c370 3dbf
00000120: a3c4 7ebf b90e d53d 60ed 6fbf 03bd 473d
00000130: b218 8fbf 5290 d4bd 6825 14bf 64e9 423e
00000140: d06c 013e 7375 e4be 5d82 85be 6131 ba3e
00000150: df44 fd3d c33a 763d 2890 1e3f 3caa 09bf
00000160: f1d1 ff3d 4576 163d ca2a 41bf e7c1 1dbf
00000170: a55f 66bf c8ac 663e 9d93 29bf cc35 1f3e
00000180: 142e b73e c0c8 963d 70df 5d3e 197f 50bf
00000190: c089 a03c 15d1 4b3e c8b8 8c3e 9ed3 1a3e
000001a0: 5d3c 223f 816b 103e ae3c 2b3e e2a2 673e
000001b0: 2c25 a6bf 4d2d f73d a529 b73e 99fe 1d3e
000001c0: 5203 1d3f 9d59 16bf 91a9 eb3e 92ab 47bd
000001d0: 6815 fabe 9956 4b3e 7011 573e 3f6d 853d
000001e0: ce9f 173e 8adb ab3d 1cd8 653e d501 103f
000001f0: 3413 e93d 317c 9fbe 89c5 063e 17e0 ad3d
00000200: 62cd 9dbf 3c63 f83d 6831 953e 1211 0b3c
00000210: ccce 85bb 9127 763f 4861 d53d a012 b53e
00000220: fa88 4b3e 84a5 893e 1ebf 2cbd 7058 96bc
00000230: b750 adbd 8b3e 0b3f d55d 1b3e 989d 423e
00000240: 7f1f ce3e 681f 663e 28de a53d 0b92 a03e
00000250: 3fdd 273e 2638 b43d b364 223e 0c4b 78bf
00000260: 8508 d13d f431 833e 9f6f 0d3e 1c1f 313e
00000270: 9241 ca3e f1f7 b6be 6583 0abf ed42 b8be
00000280: b364 8d3e 4f1f 633e 80c3 ca3c 99c6 1ebf
00000290: 8658 193e 9ac9 a7bc c3f0 633e 0880 b93d
000002a0: 760f a73d 4571 943d f1d2 2a3e c594 c7be
000002b0: 0fcb 6cbf ad42 29bd 28ed 7dbf ad8c ecbc
000002c0: 649e 6dbf 2040 803d 841a 0abf ab68 823e
000002d0: f7c6 ea3d 972c 4abe be36 0fbe 51a9 b33e
000002e0: cf0d 5abb 2db6 e43c 07aa ff3e 0dc7 b9be
000002f0: 924f 773c a190 3e3d de17 07bf 3d5a d4be
00000300: 555a 47bf 172d 433e 7f04 a6be 3f94 963e
00000310: 4f10 a33e 2ce6 8e3d c769 a63d fff7 61bf
00000320: d74d a8bd bdb9 7f3e 8f50 b93d c90a af3d
00000330: f78d 2c3f db8c 153e 8245 1b3e e917 153e
00000340: a311 abbf c3c4 e23d 784b 8d3e 385a 133e
00000350: d4ec 423f 27b4 01bf 8b98 d73e 0ecc 953d
00000360: ad82 00bf 1d5e 163e b94c 9b3d 7fcf 443e
00000370: 46a8 223e 3a52 60bd 1837 c43e a7c0 1d3f
00000380: 1a0e e6bc c995 c1be 6c6b 5c3e 1d85 4cbd
00000390: 4010 afbf c85b 033d bde7 493e 9796 933b
000003a0: c6ba 8aba 098a 643f 83dc e33c 8fbd ef3e
000003b0: 832a 4b3e f2b1 9f3e c504 4abd 2b63 e13d
000003c0: 675e 963d 925e d13e 8d56 0e3e c173 4d3e
000003d0: 68cb f53e 867b ab3e b7ba ab3d 6bab 9e3e
000003e0: bb7f 453d 5ffa 693d 670a 983e dc44 88bf
000003f0: eb6d f13d f597 f53d e9b8 b33d 17b6 043c
0.071734026 0.15442851 0.23319013 0.21886794 0.7231955 -0.0036787188 0.045834746 0.19500403
-1.290681 0.16778135 0.40392834 0.099303395 0.86906785 -0.63432187 0.37073764 -0.10866552
-0.6651609 0.12870216 0.19667731 0.21155171 0.14908315 0.04781426 0.39406374 0.5737885
0.03475053 -0.43619895 0.1925289 -0.0686538 -1.3571577 0.1343317 0.21101238 0.08082871
0.16194545 0.9427089 0.0725631 0.33518565 0.22496098 0.1834466 -0.033219464 0.10099102
0.053340245 0.480946 0.045342717 0.15375276 0.2884235 0.36412576 0.08477874 0.39222857
0.1983181 0.20554231 0.26635274 -1.1652647 0.17042528 0.24837606 0.15226698 0.067152604
0.34683785 -0.21151382 -0.4443278 -0.6184682 0.12496428 0.3292635 0.1177311 -0.813002
0.093233265 -0.0904514 0.17690894 0.11217798 0.08616998 0.20634545 0.14464997 -0.74000186
-0.99518794 0.10403199 -0.9372158 0.04876424 -1.1179411 -0.103790894 -0.5786958 0.19034344
0.12639165 -0.44620857 -0.26076022 0.36365798 0.12366652 0.060114633 0.61938715 -0.5377538
0.12491215 0.036733884 -0.75455916 -0.61623996 -0.8998969 0.22526848 -0.66240865 0.15547866
0.35777342 0.07362509 0.21667266 -0.81443936 0.019596934 0.19903977 0.27484727 0.15119788
0.6337336 0.1410351 0.16722366 0.22620729 -1.2980094 0.12069187 0.3577396 0.15429153
0.6133319 -0.5873049 0.46027806 -0.048747607 -0.48844457 0.19857253 0.21002746 0.06514978
0.14807054 0.08391483 0.2244572 0.56252795 0.11380616 -0.31149438 0.13161291 0.08490007
-1.2328303 0.121283025 0.29139256 0.008487957 -0.00408349 0.96154124 0.104189456 0.35365772
0.19876471 0.2688409 -0.04217445 -0.018352717 -0.08462661 0.5439231 0.15172513 0.1900543
0.40258405 0.22472918 0.080990136 0.31361422 0.16392992 0.08799772 0.15858726 -0.9698951
0.10206703 0.2562405 0.13812111 0.17297024 0.3950315 -0.3573604 -0.5410674 -0.3598856
0.2761589 0.22179912 0.024751425 -0.62021786 0.14975175 -0.020481873 0.22259812 0.09057623
0.08157246 0.07248167 0.1668203 -0.3898069 -0.9249734 -0.041323353 -0.99189997 -0.028875673
-0.9281981 0.06262231 -0.5394671 0.2547048 0.11463731 -0.19743572 -0.13985726 0.35090116
-0.003327239 0.0279189 0.49934408 -0.36284676 0.015094655 0.046524648 -0.52770793 -0.41475096
-0.7787221 0.19060169 -0.32425305 0.29409978 0.3184838 0.069774956 0.08125644 -0.88269037
-0.08217972 0.24973197 0.090485685 0.08546979 0.6740412 0.14604513 0.15163234 0.14559902
-1.3364757 0.110726856 0.2759664 0.14389884 0.7614262 -0.50665516 0.4210857 0.07314311
-0.50199395 0.14684339 0.07582993 0.19219778 0.15884504 -0.054765917 0.38323283 0.6162209
-0.028082896 -0.3780959 0.21525353 -0.049931634 -1.3676834 0.03206995 0.19717307 0.0045040357
-0.0010584227 0.89273125 0.02781511 0.4682431 0.19840436 0.3119045 -0.049320955 0.11005243
0.073422246 0.40892464 0.13900204 0.20063688 0.4800675 0.33492678 0.083852224 0.30990157
0.048217516 0.057123538 0.29695436 -1.0646014 0.11788543 0.11991874 0.08775503 0.008100054

linear2.bias f4 [100]
00000000: c451 343e 6e1d 3e3e 9124 683e fa87 203e
00000010: f2e7 543e 0f04 4b3e 9687 ef3d d2ae 83bc
00000020: 304b 843e 662e 103e 61b9 913e 96e4 a83e
00000030: d0e0 a83e 5483 823e ad2f 563e b260 873e
00000040: 0c24 963e 34cb 9d3e f032 333e a810 a73e
00000050: e05a 693e 1849 2d3e c471 6f3e 4793 c83b
00000060: 3789 583e d30c 863e fe0f 9b3e f24c 193e
00000070: d047 783e 3dd5 923e a1b4 9a3e 0a14 b33e
00000080: 532f 953e 27be a63e a578 843e 450f e23c
00000090: 9b66 9d3e 4796 903e 9c30 3b3e 785c 823e
000000a0: e557 953e 5a1c a33e d9a9 5e3e 44c0 903e
000000b0: f4ad 833e 8efe 41bd 91a6 923e ca0c 8c3e
000000c0: 41ca 483e 9361 a43e cc24 6d3e 648d 4a3e
000000d0: 00e7 a0bb 5ef5 923e 574a ad3e 71d5 683e
000000e0: 3034 15bd eca6 543e 8435 373e b86e 8b3e
000000f0: 6ca7 993e f3bc 113c 4fef a03e 81b1 823e
00000100: 6ddc a13e b9b7 a13e b487 a03e 9584 853e
00000110: c783 a6bd 05fd 8f3e 02ee 9dbd fffd 1b3e
00000120: 8a1c 883e 2416 263e 78b6 873e de4a 163e
00000130: a7fd c13d d92c 883e 18fc 9d3e 43a3 823e
00000140: 32f7 c1bd 5333 a1bd e6b3 9d3e e584 363e
00000150: 38f1 733e 58f8 2e3d e955 af3e 6306 893e
00000160: 414a 96bc 011c b23e e008 113e 2125 213d
00000170: b5dd 533e 4878 903e b5cd 6a3e 1e4d 893e
00000180: 37f9 483e 322f a13e c76f 4f3e 106c 2b3e
0.17609316 0.18565914 0.22670199 0.15676871 0.20791605 0.19825767 0.11695783 -0.016074572
0.25838614 0.140802 0.28461745 0.32986897 0.32984018 0.2549082 0.20916624 0.2644096
0.29324377 0.30819094 0.174999 0.32629895 0.22788572 0.16922414 0.23383242 0.0061210725
0.21146093 0.2618166 0.3028564 0.14970759 0.24246144 0.28678313 0.30215934 0.34976226
0.29137668 0.3256695 0.25873294 0.027595172 0.30742344 0.28239653 0.18280262 0.25461173
0.2916862 0.31857568 0.21744479 0.28271687 0.25718653 -0.047361903 0.28642705 0.27353507
0.19608404 0.32105693 0.23158568 0.19780499 -0.00491035 0.28702825 0.3384578 0.22737671
-0.036426723 0.207668 0.17891508 0.2723291 0.30010545 0.008895147 0.31432578 0.2552605
0.31613484 0.31585482 0.31353533 0.26077715 -0.08130603 0.28122726 -0.07711412 0.1523361
0.26584274 0.16219383 0.265064 0.14676997 0.094722085 0.26596716 0.30856395 0.25515184
-0.09470977 -0.078711174 0.30801314 0.17824133 0.23822486 0.042717308 0.34245232 0.26762685
-0.018345954 0.3478699 0.14163542 0.03934205 0.20690043 0.28216767 0.22930034 0.26816648
0.19626318 0.3148132 0.20257483 0.16740441

linear3.weight f4 [1, 100]
00000000: f728 29bf fc73 20bf 3e28 2cbf 5675 1cbf
00000010: aa5e 37bf c7b1 21bf a4f5 32bf 21b2 1039
00000020: a748 39bf f750 8bbf 35bf 2bbf 5549 2ebf
00000030: de62 38bf 3184 2bbf e64d 16bf 575e 18bf
00000040: 120c 1fbf 3a4b 1dbf f8a7 18bf 4eb3 26bf
00000050: db5b 30bf ac6d 2abf d709 153f 4836 b83b
00000060: 8f36 1ebf fda6 2cbf d6d8 3abf b793 34bf
00000070: c74f 3abf 96d2 2dbf 9432 31bf a57a 22bf
00000080: 89e2 1bbf 8e10 3fbf 0932 36bf 284d a4bb
00000090: f7e9 30bf 2e0a 23bf 72eb 2fbf babe 2cbf
000000a0: 1290 30bf dec5 22bf bdc5 26bf 1b19 31bf
000000b0: a79f 14bf 415d 22bb 4158 30bf 9612 3dbf
000000c0: a23f 22bf cabf 25bf 0fe8 3dbf 1975 27bf
000000d0: 81a1 82b9 2ee8 2dbf 26a6 22bf d55c 33bf
000000e0: 19e4 43ba 4bbf 42bf ac57 2abf d8af 16bf
000000f0: d2da 16bf 5414 99ba 2bd2 37bf 788a 20bf
00000100: 16ba 2abf fa35 24bf 8793 2abf 02eb 3cbf
00000110: ceca b63a 558f 2fbf 60f4 34bb e765 00bf
00000120: e0ae 14bf 0e4a 17bf f85f 32bf 47cb 23bf
00000130: d9c3 1fbb 26e6 17bf 895b 33bf 9684 22bf
00000140: c54e 283a 9adb db39 79dc 2abf 3ffa 21bf
00000150: 43b9 28bf 3421 4e3f cdd5 2bbf d6ca 27bf
00000160: 7834 caba 464c 2abf 30fd 313f 40f2 063f
00000170: b46e 1a3f f999 2fbf 05c8 20bf e02f 2dbf
00000180: 65cd 15bf 54a2 2dbf 2c53 3cbf 7a76 19bf
-0.6607813 -0.6267698 -0.67248905 -0.6111654 -0.7162882 -0.6316189 -0.6990607 0.00013799268
-0.72376484 -1.0884084 -0.67088634 -0.68080646 -0.7202586 -0.66998583 -0.58712614 -0.5951895
-0.6212779 -0.6144291 -0.596313 -0.6511735 -0.6889016 -0.66573596 0.5821814 0.005621705
-0.61802 -0.67442304 -0.72987115 -0.70537895 -0.7277798 -0.67899454 -0.692178 -0.6346839
-0.6089254 -0.74634635 -0.711701 -0.0050140806 -0.69107 -0.6368741 -0.68718636 -0.67478526
-0.68969834 -0.6358317 -0.65145475 -0.6917893 -0.5805611 -0.0024774822 -0.68884665 -0.73856485
-0.63378346 -0.6474577 -0.7418222 -0.6541305 -0.00024915862 -0.67932403 -0.6353477 -0.70063525
-0.0007472649 -0.7607314 -0.66540027 -0.58862066 -0.58927643 -0.0011679032 -0.71805066 -0.62711287
-0.66690195 -0.6414486 -0.6663136 -0.73796093 0.0013945939 -0.6857808 -0.002761148 -0.5015549
-0.5807934 -0.59097373 -0.69677687 -0.6398205 -0.002437821 -0.59335554 -0.70061547 -0.6348356
0.0006420429 0.0004193455 -0.66742665 -0.6327247 -0.65907687 0.80519414 -0.6712311 -0.6554388
-0.0015427014 -0.66522634 0.6952696 0.52713394 0.6032517 -0.6859432 -0.62805206 -0.67651176
-0.5851653 -0.6782582 -0.7356441 -0.59946406

bn1.weight f4 [100]
00000000: 0000 803f 0000 803f 0000 803f 0000 803f
00000010: 0000 803f 0000 803f 0000 803f 0000 803f
00000020: 0000 803f 0000 803f 0000 803f 0000 803f
00000030: 0000 803f 0000 803f 0000 803f 0000 803f
00000040: 0000 803f 0000 803f 0000 803f 0000 803f
00000050: 0000 803f 0000 803f 0000 803f 0000 803f
00000060: 0000 803f 0000 803f 0000 803f 0000 803f
00000070: 0000 803f 0000 803f 0000 803f 0000 803f
00000080: 0000 803f 0000 803f 0000 803f 0000 803f
00000090: 0000 803f 0000 803f 0000 803f 0000 803f
000000a0: 0000 803f 0000 803f 0000 803f 0000 803f
000000b0: 0000 803f 0000 803f 0000 803f 0000 803f
000000c0: 0000 803f 0000 803f 0000 803f 0000 803f
000000d0: 0000 803f 0000 803f 0000 803f 0000 803f
000000e0: 0000 803f 0000 803f 0000 803f 0000 803f
000000f0: 0000 803f 0000 803f 0000 803f 0000 803f
00000100: 0000 803f 0000 803f 0000 803f 0000 803f
00000110: 0000 803f 0000 803f 0000 803f 0000 803f
00000120: 0000 803f 0000 803f 0000 803f 0000 803f
00000130: 0000 803f 0000 803f 0000 803f 0000 803f
00000140: 0000 803f 0000 803f 0000 803f 0000 803f
00000150: 0000 803f 0000 803f 0000 803f 0000 803f
00000160: 0000 803f 0000 803f 0000 803f 0000 803f
00000170: 0000 803f 0000 803f 0000 803f 0000 803f
00000180: 0000 803f 0000 803f 0000 803f 0000 803f
1.0 1.0 1.0 1.0 1.0 1.0 1.0 1.0
1.0 1.0 1.0 1.0 1.0 1.0 1.0 1.0
1.0 1.0 1.0 1.0 1.0 1.0 1.0 1.0
1.0 1.0 1.0 1.0 1.0 1.0 1.0 1.0
1.0 1.0 1.0 1.0 1.0 1.0 1.0 1.0
1.0 1.0 1.0 1.0 1.0 1.0 1.0 1.0
1.0 1.0 1.0 1.0 1.0 1.0 1.0 1.0
1.0 1.0 1.0 1.0 1.0 1.0 1.0 1.0
1.0 1.0 1.0 1.0 1.0 1.0 1.0 1.0
1.0 1.0 1.0 1.0 1.0 1.0 1.0 1.0
1.0 1.0 1.0 1.0 1.0 1.0 1.0 1.0
1.0 1.0 1.0 1.0 1.0 1.0 1.0 1.0
1.0 1.0 1.0 1.0

bn1.bias f4 [100]
00000000: 0000 0000 0000 0000 0000 0000 0000 0000
00000010: 0000 0000 0000 0000 0000 0000 0000 0000
00000020: 0000 0000 0000 0000 0000 0000 0000 0000
00000030: 0000 0000 0000 0000 0000 0000 0000 0000
00000040: 0000 0000 0000 0000 0000 0000 0000 0000
00000050: 0000 0000 0000 0000 0000 0000 0000 0000
00000060: 0000 0000 0000 0000 0000 0000 0000 0000
00000070: 0000 0000 0000 0000 0000 0000 0000 0000
00000080: 0000 0000 0000 0000 0000 0000 0000 0000
00000090: 0000 0000 0000 0000 0000 0000 0000 0000
000000a0: 0000 0000 0000 0000 0000 0000 0000 0000
000000b0: 0000 0000 0000 0000 0000 0000 0000 0000
000000c0: 0000 0000 0000 0000 0000 0000 0000 0000
000000d0: 0000 0000 0000 0000 0000 0000 0000 0000
000000e0: 0000 0000 0000 0000 0000 0000 0000 0000
000000f0: 0000 0000 0000 0000 0000 0000 0000 0000
00000100: 0000 0000 0000 0000 0000 0000 0000 0000
00000110: 0000 0000 0000 0000 0000 0000 0000 0000
00000120: 0000 0000 0000 0000 0000 0000 0000 0000
00000130: 0000 0000 0000 0000 0000 0000 0000 0000
00000140: 0000 0000 0000 0000 0000 0000 0000 0000
00000150: 0000 0000 0000 0000 0000 0000 0000 0000
00000160: 0000 0000 0000 0000 0000 0000 0000 0000
00000170: 0000 0000 0000 0000 0000 0000 0000 0000
00000180: 0000 0000 0000 0000 0000 0000 0000 0000
0.0 0.0 0.0 0.0 0.0 0.0 0.0 0.0
0.0 0.0 0.0 0.0 0.0 0.0 0.0 0.0
0.0 0.0 0.0 0.0 0.0 0.0 0.0 0.0
0.0 0.0 0.0 0.0 0.0 0.0 0.0 0.0
0.0 0.0 0.0 0.0 0.0 0.0 0.0 0.0
0.0 0.0 0.0 0.0 0.0 0.0 0.0 0.0
0.0 0.0 0.0 0.0 0.0 0.0 0.0 0.0
0.0 0.0 0.0 0.0 0.0 0.0 0.0 0.0
0.0 0.0 0.0 0.0 0.0 0.0 0.0 0.0
0.0 0.0 0.0 0.0 0.0 0.0 0.0 0.0
0.0 0.0 0.0 0.0 0.0 0.0 0.0 0.0
0.0 0.0 0.0 0.0 0.0 0.0 0.0 0.0
0.0 0.0 0.0 0.0

bn1.running_mean f4 [100]
00000000: 0000 0000 0000 0000 0000 0000 0000 0000
00000010: 0000 0000 0000 0000 0000 0000 0000 0000
00000020: 0000 0000 0000 0000 0000 0000 0000 0000
00000030: 0000 0000 0000 0000 0000 0000 0000 0000
00000040: 0000 0000 0000 0000 0000 0000 0000 0000
00000050: 0000 0000 0000 0000 0000 0000 0000 0000
00000060: 0000 0000 0000 0000 0000 0000 0000 0000
00000070: 0000 0000 0000 0000 0000 0000 0000 0000
00000080: 0000 0000 0000 0000 0000 0000 0000 0000
00000090: 0000 0000 0000 0000 0000 0000 0000 0000
000000a0: 0000 0000 0000 0000 0000 0000 0000 0000
000000b0: 0000 0000 0000 0000 0000 0000 0000 0000
000000c0: 0000 0000 0000 0000 0000 0000 0000 0000
000000d0: 0000 0000 0000 0000 0000 0000 0000 0000
000000e0: 0000 0000 0000 0000 0000 0000 0000 0000
000000f0: 0000 0000 0000 0000 0000 0000 0000 0000
00000100: 0000 0000 0000 0000 0000 0000 0000 0000
00000110: 0000 0000 0000 0000 0000 0000 0000 0000
00000120: 0000 0000 0000 0000 0000 0000 0000 0000
00000130: 0000 0000 0000 0000 0000 0000 0000 0000
00000140: 0000 0000 0000 0000 0000 0000 0000 0000
00000150: 0000 0000 0000 0000 0000 0000 0000 0000
00000160: 0000 0000 0000 0000 0000 0000 0000 0000
00000170: 0000 0000 0000 0000 0000 0000 0000 0000
00000180: 0000 0000 0000 0000 0000 0000 0000 0000
0.0 0.0 0.0 0.0 0.0 0.0 0.0 0.0
0.0 0.0 0.0 0.0 0.0 0.0 0.0 0.0
0.0 0.0 0.0 0.0 0.0 0.0 0.0 0.0
0.0 0.0 0.0 0.0 0.0 0.0 0.0 0.0
0.0 0.0 0.0 0.0 0.0 0.0 0.0 0.0
0.0 0.0 0.0 0.0 0.0 0.0 0.0 0.0
0.0 0.0 0.0 0.0 0.0 0.0 0.0 0.0
0.0 0.0 0.0 0.0 0.0 0.0 0.0 0.0
0.0 0.0 0.0 0.0 0.0 0.0 0.0 0.0
0.0 0.0 0.0 0.0 0.0 0.0 0.0 0.0
0.0 0.0 0.0 0.0 0.0 0.0 0.0 0.0
0.0 0.0 0.0 0.0 0.0 0.0 0.0 0.0
0.0 0.0 0.0 0.0

bn1.running_var f4 [100]
00000000: 0000 803f 0000 803f 0000 803f 0000 803f
00000010: 0000 803f 0000 803f 0000 803f 0000 803f
00000020: 0000 803f 0000 803f 0000 803f 0000 803f
00000030: 0000 803f 0000 803f 0000 803f 0000 803f
00000040: 0000 803f 0000 803f 0000 803f 0000 803f
00000050: 0000 803f 0000 803f 0000 803f 0000 803f
00000060: 0000 803f 0000 803f 0000 803f 0000 803f
00000070: 0000 803f 0000 803f 0000 803f 0000 803f
00000080: 0000 803f 0000 803f 0000 803f 0000 803f
00000090: 0000 803f 0000 803f 0000 803f 0000 803f
000000a0: 0000 803f 0000 803f 0000 803f 0000 803f
000000b0: 0000 803f 0000 803f 0000 803f 0000 803f
000000c0: 0000 803f 0000 803f 0000 803f 0000 803f
000000d0: 0000 803f 0000 803f 0000 803f 0000 803f
000000e0: 0000 803f 0000 803f 0000 803f 0000 803f
000000f0: 0000 803f 0000 803f 0000 803f 0000 803f
00000100: 0000 803f 0000 803f 0000 803f 0000 803f
00000110: 0000 803f 0000 803f 0000 803f 0000 803f
00000120: 0000 803f 0000 803f 0000 803f 0000 803f
00000130: 0000 803f 0000 803f 0000 803f 0000 803f
00000140: 0000 803f 0000 803f 0000 803f 0000 803f
00000150: 0000 803f 0000 803f 0000 803f 0000 803f
00000160: 0000 803f 0000 803f 0000 803f 0000 803f
00000170: 0000 803f 0000 803f 0000 803f 0000 803f
00000180: 0000 803f 0000 803f 0000 803f 0000 803f
1.0 1.0 1.0 1.0 1.0 1.0 1.0 1.0
1.0 1.0 1.0 1.0 1.0 1.0 1.0 1.0
1.0 1.0 1.0 1.0 1.0 1.0 1.0 1.0
1.0 1.0 1.0 1.0 1.0 1.0 1.0 1.0
1.0 1.0 1.0 1.0 1.0 1.0 1.0 1.0
1.0 1.0 1.0 1.0 1.0 1.0 1.0 1.0
1.0 1.0 1.0 1.0 1.0 1.0 1.0 1.0
1.0 1.0 1.0 1.0 1.0 1.0 1.0 1.0
1.0 1.0 1.0 1.0 1.0 1.0 1.0 1.0
1.0 1.0 1.0 1.0 1.0 1.0 1.0 1.0
1.0 1.0 1.0 1.0 1.0 1.0 1.0 1.0
1.0 1.0 1.0 1.0 1.0 1.0 1.0 1.0
1.0 1.0 1.0 1.0

bn2.weight f4 [100]
00000000: 0000 803f 0000 803f 0000 803f 0000 803f
00000010: 0000 803f 0000 803f 0000 803f 0000 803f
00000020: 0000 803f 0000 803f 0000 803f 0000 803f
00000030: 0000 803f 0000 803f 0000 803f 0000 803f
00000040: 0000 803f 0000 803f 0000 803f 0000 803f
00000050: 0000 803f 0000 803f 0000 803f 0000 803f
00000060: 0000 803f 0000 803f 0000 803f 0000 803f
00000070: 0000 803f 0000 803f 0000 803f 0000 803f
00000080: 0000 803f 0000 803f 0000 803f 0000 803f
00000090: 0000 803f 0000 803f 0000 803f 0000 803f
000000a0: 0000 803f 0000 803f 0000 803f 0000 803f
000000b0: 0000 803f 0000 803f 0000 803f 0000 803f
000000c0: 0000 803f 0000 803f 0000 803f 0000 803f
000000d0: 0000 803f 0000 803f 0000 803f 0000 803f
000000e0: 0000 803f 0000 803f 0000 803f 0000 803f
000000f0: 0000 803f 0000 803f 0000 803f 0000 803f
00000100: 0000 803f 0000 803f 0000 803f 0000 803f
00000110: 0000 803f 0000 803f 0000 803f 0000 803f
00000120: 0000 803f 0000 803f 0000 803f 0000 803f
00000130: 0000 803f 0000 803f 0000 803f 0000 803f
00000140: 0000 803f 0000 803f 0000 803f 0000 803f
00000150: 0000 803f 0000 803f 0000 803f 0000 803f
00000160: 0000 803f 0000 803f 0000 803f 0000 803f
00000170: 0000 803f 0000 803f 0000 803f 0000 803f
00000180: 0000 803f 0000 803f 0000 803f 0000 803f
1.0 1.0 1.0 1.0 1.0 1.0 1.0 1.0
1.0 1.0 1.0 1.0 1.0 1.0 1.0 1.0
1.0 1.0 1.0 1.0 1.0 1.0 1.0 1.0
1.0 1.0 1.0 1.0 1.0 1.0 1.0 1.0
1.0 1.0 1.0 1.0 1.0 1.0 1.0 1.0
1.0 1.0 1.0 1.0 1.0 1.0 1.0 1.0
1.0 1.0 1.0 1.0 1.0 1.0 1.0 1.0
1.0 1.0 1.0 1.0 1.0 1.0 1.0 1.0
1.0 1.0 1.0 1.0 1.0 1.0 1.0 1.0
1.0 1.0 1.0 1.0 1.0 1.0 1.0 1.0
1.0 1.0 1.0 1.0 1.0 1.0 1.0 1.0
1.0 1.0 1.0 1.0 1.0 1.0 1.0 1.0
1.0 1.0 1.0 1.0

bn2.bias f4 [100]
00000000: 0000 0000 0000 0000 0000 0000 0000 0000
00000010: 0000 0000 0000 0000 0000 0000 0000 0000
00000020: 0000 0000 0000 0000 0000 0000 0000 0000
00000030: 0000 0000 0000 0000 0000 0000 0000 0000
00000040: 0000 0000 0000 0000 0000 0000 0000 0000
00000050: 0000 0000 0000 0000 0000 0000 0000 0000
00000060: 0000 0000 0000 0000 0000 0000 0000 0000
00000070: 0000 0000 0000 0000 0000 0000 0000 0000
00000080: 0000 0000 0000 0000 0000 0000 0000 0000
00000090: 0000 0000 0000 0000 0000 0000 0000 0000
000000a0: 0000 0000 0000 0000 0000 0000 0000 0000
000000b0: 0000 0000 0000 0000 0000 0000 0000 0000
000000c0: 0000 0000 0000 0000 0000 0000 0000 0000
000000d0: 0000 0000 0000 0000 0000 0000 0000 0000
000000e0: 0000 0000 0000 0000 0000 0000 0000 0000
000000f0: 0000 0000 0000 0000 0000 0000 0000 0000
00000100: 0000 0000 0000 0000 0000 0000 0000 0000
00000110: 0000 0000 0000 0000 0000 0000 0000 0000
00000120: 0000 0000 0000 0000 0000 0000 0000 0000
00000130: 0000 0000 0000 0000 0000 0000 0000 0000
00000140: 0000 0000 0000 0000 0000 0000 0000 0000
00000150: 0000 0000 0000 0000 0000 0000 0000 0000
00000160: 0000 0000 0000 0000 0000 0000 0000 0000
00000170: 0000 0000 0000 0000 0000 0000 0000 0000
00000180: 0000 0000 0000 0000 0000 0000 0000 0000
0.0 0.0 0.0 0.0 0.0 0.0 0.0 0.0
0.0 0.0 0.0 0.0 0.0 0.0 0.0 0.0
0.0 0.0 0.0 0.0 0.0 0.0 0.0 0.0
0.0 0.0 0.0 0.0 0.0 0.0 0.0 0.0
0.0 0.0 0.0 0.0 0.0 0.0 0.0 0.0
0.0 0.0 0.0 0.0 0.0 0.0 0.0 0.0
0.0 0.0 0.0 0.0 0.0 0.0 0.0 0.0
0.0 0.0 0.0 0.0 0.0 0.0 0.0 0.0
0.0 0.0 0.0 0.0 0.0 0.0 0.0 0.0
0.0 0.0 0.0 0.0 0.0 0.0 0.0 0.0
0.0 0.0 0.0 0.0 0.0 0.0 0.0 0.0
0.0 0.0 0.0 0.0 0.0 0.0 0.0 0.0
0.0 0.0 0.0 0.0

bn2.running_mean f4 [100]
00000000: 0000 0000 0000 0000 0000 0000 0000 0000
00000010: 0000 0000 0000 0000 0000 0000 0000 0000
00000020: 0000 0000 0000 0000 0000 0000 0000 0000
00000030: 0000 0000 0000 0000 0000 0000 0000 0000
00000040: 0000 0000 0000 0000 0000 0000 0000 0000
00000050: 0000 0000 0000 0000 0000 0000 0000 0000
00000060: 0000 0000 0000 0000 0000 0000 0000 0000
00000070: 0000 0000 0000 0000 0000 0000 0000 0000
00000080: 0000 0000 0000 0000 0000 0000 0000 0000
00000090: 0000 0000 0000 0000 0000 0000 0000 0000
000000a0: 0000 0000 0000 0000 0000 0000 0000 0000
000000b0: 0000 0000 0000 0000 0000 0000 0000 0000
000000c0: 0000 0000 0000 0000 0000 0000 0000 0000
000000d0: 0000 0000 0000 0000 0000 0000 0000 0000
000000e0: 0000 0000 0000 0000 0000 0000 0000 0000
000000f0: 0000 0000 0000 0000 0000 0000 0000 0000
00000100: 0000 0000 0000 0000 0000 0000 0000 0000
00000110: 0000 0000 0000 0000 0000 0000 0000 0000
00000120: 0000 0000 0000 0000 0000 0000 0000 0000
00000130: 0000 0000 0000 0000 0000 0000 0000 0000
00000140: 0000 0000 0000 0000 0000 0000 0000 0000
00000150: 0000 0000 0000 0000 0000 0000 0000 0000
00000160: 0000 0000 0000 0000 0000 0000 0000 0000
00000170: 0000 0000 0000 0000 0000 0000 0000 0000
00000180: 0000 0000 0000 0000 0000 0000 0000 0000
0.0 0.0 0.0 0.0 0.0 0.0 0.0 0.0
0.0 0.0 0.0 0.0 0.0 0.0 0.0 0.0
0.0 0.0 0.0 0.0 0.0 0.0 0.0 0.0
0.0 0.0 0.0 0.0 0.0 0.0 0.0 0.0
0.0 0.0 0.0 0.0 0.0 0.0 0.0 0.0
0.0 0.0 0.0 0.0 0.0 0.0 0.0 0.0
0.0 0.0 0.0 0.0 0.0 0.0 0.0 0.0
0.0 0.0 0.0 0.0 0.0 0.0 0.0 0.0
0.0 0.0 0.0 0.0 0.0 0.0 0.0 0.0
0.0 0.0 0.0 0.0 0.0 0.0 0.0 0.0
0.0 0.0 0.0 0.0 0.0 0.0 0.0 0.0
0.0 0.0 0.0 0.0 0.0 0.0 0.0 0.0
0.0 0.0 0.0 0.0

bn2.running_var f4 [100]
00000000: 0000 803f 0000 803f 0000 803f 0000 803f
00000010: 0000 803f 0000 803f 0000 803f 0000 803f
00000020: 0000 803f 0000 803f 0000 803f 0000 803f
00000030: 0000 803f 0000 803f 0000 803f 0000 803f
00000040: 0000 803f 0000 803f 0000 803f 0000 803f
00000050: 0000 803f 0000 803f 0000 803f 0000 803f
00000060: 0000 803f 0000 803f 0000 803f 0000 803f
00000070: 0000 803f 0000 803f 0000 803f 0000 803f
00000080: 0000 803f 0000 803f 0000 803f 0000 803f
00000090: 0000 803f 0000 803f 0000 803f 0000 803f
000000a0: 0000 803f 0000 803f 0000 803f 0000 803f
000000b0: 0000 803f 0000 803f 0000 803f 0000 803f
000000c0: 0000 803f 0000 803f 0000 803f 0000 803f
000000d0: 0000 803f 0000 803f 0000 803f 0000 803f
000000e0: 0000 803f 0000 803f 0000 803f 0000 803f
000000f0: 0000 803f 0000 803f 0000 803f 0000 803f
00000100: 0000 803f 0000 803f 0000 803f 0000 803f
00000110: 0000 803f 0000 803f 0000 803f 0000 803f
00000120: 0000 803f 0000 803f 0000 803f 0000 803f
00000130: 0000 803f 0000 803f 0000 803f 0000 803f
00000140: 0000 803f 0000 803f 0000 803f 0000 803f
00000150: 0000 803f 0000 803f 0000 803f 0000 803f
00000160: 0000 803f 0000 803f 0000 803f 0000 803f
00000170: 0000 803f 0000 803f 0000 803f 0000 803f
00000180: 0000 803f 0000 803f 0000 803f 0000 803f
1.0 1.0 1.0 1.0 1.0 1.0 1.0 1.0
1.0 1.0 1.0 1.0 1.0 1.0 1.0 1.0
1.0 1.0 1.0 1.0 1.0 1.0 1.0 1.0
1.0 1.0 1.0 1.0 1.0 1.0 1.0 1.0
1.0 1.0 1.0 1.0 1.0 1.0 1.0 1.0
1.0 1.0 1.0 1.0 1.0 1.0 1.0 1.0
1.0 1.0 1.0 1.0 1.0 1.0 1.0 1.0
1.0 1.0 1.0 1.0 1.0 1.0 1.0 1.0
1.0 1.0 1.0 1.0 1.0 1.0 1.0 1.0
1.0 1.0 1.0 1.0 1.0 1.0 1.0 1.0
1.0 1.0 1.0 1.0 1.0 1.0 1.0 1.0
1.0 1.0 1.0 1.0 1.0 1.0 1.0 1.0
1.0 1.0 1.0 1.0
