checkpoints/single-phase/13bus copy/safe-ddpg/policy_net_checkpoint_a2.pth (torch, 3103 bytes, 4 tensors)

b f4 [100]
0	0x00000000	0.0
1	0x00000000	0.0
2	0x00000000	0.0
3	0x00000000	0.0
4	0x00000000	0.0
5	0x00000000	0.0
6	0x00000000	0.0
7	0x00000000	0.0
8	0x00000000	0.0
9	0x00000000	0.0
10	0x00000000	0.0
11	0x00000000	0.0
12	0x00000000	0.0
13	0x00000000	0.0
14	0x00000000	0.0
15	0x00000000	0.0
16	0x00000000	0.0
17	0x00000000	0.0
18	0x00000000	0.0
19	0x00000000	0.0
20	0x00000000	0.0
21	0x00000000	0.0
22	0x00000000	0.0
23	0x00000000	0.0
24	0x00000000	0.0
25	0x00000000	0.0
26	0x3df901e5	0.121585645
27	0x00000000	0.0
28	0x00000000	0.0
29	0x00000000	0.0
30	0x00000000	0.0
31	0x00000000	0.0
32	0x00000000	0.0
33	0x00000000	0.0
34	0x00000000	0.0
35	0x00000000	0.0
36	0x3cb31e38	0.021864995
37	0x00000000	0.0
38	0x00000000	0.0
39	0x00000000	0.0
40	0x00000000	0.0
41	0x00000000	0.0
42	0x00000000	0.0
43	0x00000000	0.0
44	0x00000000	0.0
45	0x00000000	0.0
46	0x00000000	0.0
47	0x00000000	0.0
48	0x3b439e59	0.0029849021
49	0x00000000	0.0
50	0x00000000	0.0
51	0x00000000	0.0
52	0x3ae2bcf9	0.001729875
53	0x00000000	0.0
54	0x00000000	0.0
55	0x3a186e74	0.00058147986
56	0x00000000	0.0
57	0x00000000	0.0
58	0x00000000	0.0
59	0x00000000	0.0
60	0x00000000	0.0
61	0x00000000	0.0
62	0x39e09aa3	0.00042839823
63	0x00000000	0.0
64	0x39458686	0.00018837498
65	0x38323755	4.249004e-05
66	0x381135d5	3.462083e-05
67	0x00000000	0.0
68	0x37c7b6c2	2.3807752e-05
69	0x370f2592	8.532212e-06
70	0x380cca1a	3.3566823e-05
71	0x35c6265b	1.4763312e-06
72	0x37b88585	2.1996684e-05
73	0x37283e55	1.0028093e-05
74	0x372a431c	1.0148415e-05
75	0x37c6c2d0	2.3694156e-05
76	0x3803d2ec	3.142927e-05
77	0x3708c36c	8.151732e-06
78	0x38019c17	3.0901367e-05
79	0x37832420	1.5633239e-05
80	0x36b85d93	5.494521e-06
81	0x36a5c6da	4.9405326e-06
82	0x37da70b8	2.6040114e-05
83	0x36908f5b	4.308223e-06
84	0x37d087e0	2.4858804e-05
85	0x37dcebd0	2.6335852e-05
86	0x37f888d2	2.9627616e-05
87	0x37d7e142	2.5734891e-05
88	0x36173b6c	2.2535341e-06
89	0x36faecc8	7.4781456e-06
90	0x37da3413	2.6011874e-05
91	0x380e7b5e	3.3970333e-05
92	0x34c16451	3.602204e-07
93	0x380ab618	3.3071352e-05
94	0x37b83f39	2.196395e-05
95	0x35f1b1c6	1.8007638e-06
96	0x378a0704	1.6454149e-05
97	0x36c43936	5.8479154e-06
98	0x3762e09f	1.3522948e-05
99	0x37f9e544	2.9789873e-05

c f4 [100]
0	0x3a04304b	0.00050425966
1	0x3b36b74b	0.0027880247
2	0x367f8c5d	3.8079663e-06
3	0x3abd6c96	0.0014451917
4	0x3b05cec9	0.0020417443
5	0x3ac15ec8	0.0014752978
6	0x3a837dc5	0.0010031989
7	0x3b02b897	0.001994645
8	0x3b10e385	0.0022108268
9	0x3b0e2ea1	0.0021695273
10	0x3adca8c4	0.0016834964
11	0x3a810392	0.0009842983
12	0x3af66ed2	0.0018801338
13	0x3b0bfcf3	0.0021360486
14	0x3a931020	0.0011220016
15	0x3a27b24a	0.00063971116
16	0x3a11d469	0.00055629626
17	0x3785d6c9	1.5954853e-05
18	0x39cd96df	0.00039213055
19	0x3a8e661d	0.0010864172
20	0x39f95866	0.00047558843
21	0x3b3a0a46	0.002838747
22	0x3abb2e43	0.0014280755
23	0x3ab6fb5f	0.0013960412
24	0x3a81116f	0.0009847115
25	0x3a0626a7	0.0005117454
26	0x3b47465f	0.0030406935
27	0x3aa842ea	0.0012837325
28	0x3aa77fb2	0.0012779145
29	0x3adaa92f	0.0016682501
30	0x3ac57bd4	0.0015066811
31	0x3b3772de	0.002799205
32	0x3b0421c1	0.002016172
33	0x3b13b457	0.002253791
34	0x3ac9dd6e	0.0015401074
35	0x3956ab5e	0.0002047247
36	0x3ad43603	0.0016190413
37	0x3b10a55a	0.0022071213
38	0x3a1e3c57	0.0006036213
39	0x3b2ca786	0.002634497
40	0x3a4de463	0.00078541617
41	0x3a0aef7c	0.0005299968
42	0x3aefd473	0.0018297568
43	0x3b11057a	0.0022128508
44	0x3919e73c	0.00014677359
45	0x3ad617fe	0.0016334055
46	0x3b1e35a0	0.002414085
47	0x3a3b5d24	0.0007147363
48	0x3959c75a	0.00020768997
49	0x3b129158	0.0022364464
50	0x3b0c8bb9	0.0021445586
51	0x3b479611	0.0030454437
52	0x3b465b6f	0.00302669
53	0x39e01a85	0.00042744368
54	0x3a76b2cd	0.00094107987
55	0x3aea782c	0.0017888597
56	0x3ae91653	0.0017783142
57	0x3ab8ce09	0.0014099489
58	0x3a75deb0	0.00093791913
59	0x3b190dc2	0.0023354148
60	0x3b3342f6	0.0027353144
61	0x3aadc150	0.0013256464
62	0x3747a758	1.1900287e-05
63	0x3a851ef6	0.0010156322
64	0x3b034a13	0.0020033165
65	0x3afe94f1	0.001942305
66	0x3a9b9a6c	0.0011871583
67	0x39cc4edf	0.00038968676
68	0x3a6aab86	0.00089519506
69	0x3a91272d	0.0011074297
70	0x37ae4bb0	2.0777661e-05
71	0x3b4776ba	0.0030435757
72	0x3b01e2d7	0.0019819045
73	0x3aa36510	0.0012466032
74	0x3a2af004	0.00065207505
75	0x3b23a163	0.002496802
76	0x3b24a6e6	0.0025123893
77	0x3a27664e	0.0006385789
78	0x3b396219	0.002828723
79	0x3ad1ef43	0.001601674
80	0x3a675f66	0.0008826166
81	0x3b046578	0.0020202082
82	0x3af46482	0.0018645676
83	0x39748d86	0.00023322375
84	0x3b0339fe	0.002002358
85	0x3b120eff	0.002228677
86	0x3a619ee2	0.0008606744
87	0x3b00baa1	0.001964249
88	0x3b135f04	0.0022487054
89	0x3b466feb	0.003027911
90	0x3acec306	0.0015774674
91	0x3ac2ad6f	0.0014852713
92	0x37f473bd	2.9140961e-05
93	0x39711e49	0.00022994833
94	0x3b31c39a	0.0027124644
95	0x3ae95669	0.0017802241
96	0x3ac13489	0.0014740388
97	0x3b09b04a	0.0021009617
98	0x3a5eeded	0.00085040816
99	0x3aee899a	0.0018198967

q f4 [1, 100]
0	0x3db68067	0.089112096
1	0x3d7f1887	0.06227925
2	0x3f721f72	0.9457923
3	0x3cc57f0e	0.024108436
4	0x3ee7100e	0.45129436
5	0x3f57d51c	0.84309554
6	0x3f6ea57d	0.93221265
7	0x3eade693	0.33964977
8	0x3c8d7038	0.017265424
9	0x3ea48fe0	0.32141018
10	0x3f0d409f	0.5517673
11	0x3da8634f	0.082220666
12	0x3f485398	0.78252554
13	0x3f0f22fe	0.5591277
14	0x3f332c28	0.6998925
15	0x3ebcc7be	0.3687114
16	0x3f045088	0.5168538
17	0x3f32b868	0.6981263
18	0x3f13aeb8	0.57688475
19	0x3ebe2a8c	0.37141836
20	0x3f3a5eb7	0.72800773
21	0x3ebb9931	0.36640313
22	0x3f73bd4f	0.95210737
23	0x3f452051	0.77002436
24	0x3ef0be88	0.47020364
25	0x3dc4d510	0.09610951
26	0x3fc581bb	1.5430216
27	0x3f883621	1.0641519
28	0x3ef08731	0.46978143
29	0x3e5616c2	0.20907119
30	0x3f379b38	0.7172122
31	0x3f381eb0	0.71921825
32	0x3f22b763	0.63561076
33	0x3f3e3910	0.7430582
34	0x3f2f5c25	0.68499976
35	0x3f1f7a74	0.62296224
36	0x3fad7463	1.3551143
37	0x3e7f6978	0.24942577
38	0x3e560626	0.20900783
39	0xb6c551e4	-5.880591e-06
40	0x3f06ef1b	0.52708596
41	0x3ea75af0	0.32686567
42	0x3e1af495	0.15132363
43	0x3eec1d36	0.46116036
44	0x3f45fa6e	0.7733525
45	0x3f4dd4b2	0.8040267
46	0x3f27bfa8	0.6552682
47	0xb45007d5	-1.9374359e-07
48	0x3f962ffe	1.1733396
49	0x3ea33c90	0.31882143
50	0x3ed1a2d7	0.4094455
51	0x3f336fee	0.70092666
52	0x3f90a69c	1.1300845
53	0x3c9144f2	0.017733071
54	0x3f4bf739	0.79674107
55	0x3f7d1261	0.9885617
56	0x3ceaf4a7	0.028681112
57	0x3e7a6aac	0.24454755
58	0x3e9639aa	0.2934087
59	0x3f36e1cb	0.7143828
60	0x3ecb1439	0.39663866
61	0x3ed93a11	0.42427114
62	0x3f63fba5	0.89055854
63	0x3e804485	0.25052276
64	0x3f550319	0.8320785
65	0x3e160ec4	0.1465407
66	0x3e4876c4	0.19576555
67	0x3f40b550	0.7527666
68	0x3ecd2f11	0.4007497
69	0x3f080613	0.5313427
70	0x3ee266b4	0.4421898
71	0x3f65a397	0.89702743
72	0x3f5e57fa	0.8685299
73	0x3f34d489	0.706368
74	0x3e19ced0	0.15020299
75	0x3ea932a6	0.33046454
76	0x3bd58280	0.006515801
77	0x3e0e6854	0.13906986
78	0x3de1b888	0.11021525
79	0x3f733de0	0.9501629
80	0x3e0f3298	0.13984144
81	0x3f15a118	0.58448935
82	0x3ef2e77c	0.47442234
83	0x3f2fe817	0.68713516
84	0x3f797386	0.974419
85	0x3e20c4f8	0.15700138
86	0x3c7dca00	0.015490055
87	0x3f5f5d33	0.87251586
88	0x3f3408f2	0.7032615
89	0x3ee82554	0.4534098
90	0x3ec608f4	0.38678706
91	0x3b3a1d00	0.0028398633
92	0x3ee37a0a	0.44429046
93	0x3f36eaeb	0.71452206
94	0x3e8e3992	0.27778298
95	0x3ede4654	0.4341303
96	0x3e3e5820	0.18588305
97	0x3d1ec250	0.03875953
98	0x3e786cdc	0.24260277
99	0x3f59cd50	0.85078907

z f4 [1, 100]
0	0x3eebbc94	0.4604231
1	0x3ec3b2e0	0.38222408
2	0x3de8b050	0.11361754
3	0x3f184123	0.5947439
4	0x3edd2dce	0.4319901
5	0x3e541d0c	0.20714206
6	0x3e99b32c	0.3001951
7	0x3e830ae4	0.25594246
8	0x3f5579f1	0.8338919
9	0x3f65a23c	0.89700675
10	0x3d5f8710	0.054572165
11	0x3f680668	0.90634775
12	0x3f51ffb8	0.8203082
13	0x3e363210	0.17792535
14	0x3ed168bc	0.40900218
15	0x3f6847e1	0.9073468
16	0x3f0b2608	0.54354906
17	0x3f531d87	0.8246693
18	0x3f4a3bc1	0.7899743
19	0x3ee71a2c	0.45137155
20	0x3cd8c0e0	0.026459157
21	0x3eea4d62	0.45762163
22	0x3edb3b26	0.42818564
23	0x3eaee980	0.3416252
24	0x3ee7b45c	0.4525479
25	0x3f36c16b	0.7138888
26	0x3eefe570	0.46854734
27	0x3df41a18	0.119190395
28	0x3ebeb476	0.37247056
29	0x3e2b2c78	0.16716182
30	0x3ea22fca	0.31677085
31	0x3f7fcf95	0.9992612
32	0x3ea836e2	0.32854372
33	0x3f7d5809	0.98962456
34	0x3e8602fc	0.26174152
35	0x3f23cef7	0.6398768
36	0x3e77df50	0.2420628
37	0x3f407ed5	0.7519353
38	0x3f55e21b	0.83548135
39	0x3f4a62ad	0.7905682
40	0x3f580ca9	0.8439432
41	0x3f0f18da	0.55897295
42	0x3f27dc06	0.65570104
43	0x3da81b20	0.08208299
44	0x3f758537	0.95906395
45	0x3e52a600	0.20571136
46	0x3e90fa62	0.28316027
47	0x3f2919d7	0.66055053
48	0x3edc16ea	0.42986232
49	0x3f44fe4b	0.7695052
50	0x3f29b706	0.66294897
51	0x3f12cc1b	0.5734269
52	0x3da1d3e8	0.07901746
53	0x3e19a9f4	0.15006238
54	0x3f3f914f	0.748311
55	0x3e87ddc2	0.26536375
56	0x3e5fc2c8	0.21851647
57	0x3d643d10	0.055722296
58	0x3ec259d6	0.37959164
59	0x3f4f607d	0.81006604
60	0x3f43a642	0.76425564
61	0x3f3f1254	0.7463734
62	0x3eca72ca	0.39540702
63	0x3e5e202c	0.2169196
64	0x3ed7c6d6	0.42143887
65	0x3f6f2e86	0.93430364
66	0x3f181dee	0.5942067
67	0x3f7d1fba	0.98876536
68	0x3f3cccc7	0.73749965
69	0x3e89dec4	0.2692777
70	0x3f34b70d	0.70591813
71	0x3eeee39c	0.46658027
72	0x3f76264f	0.96152204
73	0x3f447253	0.76736945
74	0x3f50c0e2	0.81544316
75	0x3f41166a	0.75424826
76	0x3ea852ce	0.32875675
77	0x3ef13826	0.4711315
78	0x3f3a26e9	0.7271562
79	0x3f2bb3a2	0.6707097
80	0x3e8dd9c6	0.2770521
81	0x3f21fd20	0.63276863
82	0x3ecdfaac	0.4023031
83	0x3f6a6da0	0.91573524
84	0x3f0c9df0	0.54928493
85	0x3eb15990	0.34638643
86	0x3e72042c	0.23634404
87	0x3f2ba645	0.6705058
88	0x3ce64a60	0.028111637
89	0x3ee93e14	0.45555174
90	0x3eb9f8ce	0.36322635
91	0x3f252ed2	0.6452457
92	0x3f1226f0	0.57090664
93	0x3f1aec67	0.6051697
94	0x3f175368	0.5911164
95	0x3f2fcf3d	0.68675596
96	0x3f4be334	0.7964356
97	0x3db5c088	0.08874613
98	0x3f221080	0.63306427
99	0x3f144542	0.5791818
