checkpoints/single-phase/13bus copy/safe-ddpg/policy_net_checkpoint_a0.pth (torch, 3103 bytes, 4 tensors)

b f4 [100]
0	0x00000000	0.0
1	0x00000000	0.0
2	0x00000000	0.0
3	0x00000000	0.0
4	0x00000000	0.0
5	0x00000000	0.0
6	0x00000000	0.0
7	0x00000000	0.0
8	0x00000000	0.0
9	0x00000000	0.0
10	0x00000000	0.0
11	0x00000000	0.0
12	0x00000000	0.0
13	0x00000000	0.0
14	0x00000000	0.0
15	0x00000000	0.0
16	0x00000000	0.0
17	0x00000000	0.0
18	0x00000000	0.0
19	0x3de84589	0.11341388
20	0x00000000	0.0
21	0x00000000	0.0
22	0x3c969a2c	0.018384062
23	0x00000000	0.0
24	0x00000000	0.0
25	0x3bb5224c	0.00552777
26	0x00000000	0.0
27	0x3ac01600	0.0014654994
28	0x00000000	0.0
29	0x00000000	0.0
30	0x00000000	0.0
31	0x3ac2c96d	0.0014861055
32	0x00000000	0.0
33	0x00000000	0.0
34	0x3a978899	0.0011561095
35	0x00000000	0.0
36	0x38884894	6.498504e-05
37	0x39609d5f	0.0002142093
38	0x390e5fa7	0.00013577809
39	0x38a54b10	7.8817946e-05
40	0x38a56cf8	7.88811e-05
41	0x38a583f5	7.892392e-05
42	0x38a831db	8.0201506e-05
43	0x38a78b32	7.989108e-05
44	0x3b54fbc3	0.0032498694
45	0x00000000	0.0
46	0x00000000	0.0
47	0x3a9e2cb8	0.0012067771
48	0x00000000	0.0
49	0x00000000	0.0
50	0x00000000	0.0
51	0x00000000	0.0
52	0x00000000	0.0
53	0x00000000	0.0
54	0x00000000	0.0
55	0x39d0a2f6	0.00039794267
56	0x39b42c8e	0.0003436547
57	0x383cd9a5	4.502539e-05
58	0x3825f8b5	3.9570692e-05
59	0x38eedacf	0.00011389481
60	0x3782173b	1.5508025e-05
61	0x3749d381	1.2029778e-05
62	0x3855a4b7	5.093656e-05
63	0x38431f94	4.6521032e-05
64	0x38e8e677	0.000111055495
65	0x3648303d	2.98304e-06
66	0x386db689	5.6675202e-05
67	0x38bdfb1c	9.058995e-05
68	0x3714bf00	8.865958e-06
69	0x38e1dfb2	0.000107705026
70	0x37aae737	2.0373247e-05
71	0x3789400e	1.63615e-05
72	0x3893ea3c	7.053136e-05
73	0x38b4d2e7	8.6223525e-05
74	0x380b2f9e	3.318453e-05
75	0x38b383f1	8.559961e-05
76	0x38c46813	9.3653936e-05
77	0x38e0605a	0.00010699099
78	0x37aa604b	2.031042e-05
79	0x38e8797d	0.00011085251
80	0x38385098	4.3944077e-05
81	0x38d8df09	0.00010341226
82	0x38c9122e	9.587813e-05
83	0x38c458bf	9.3625385e-05
84	0x379a6d12	1.840902e-05
85	0x38907c06	6.889556e-05
86	0x387751b2	5.8965474e-05
87	0x38bb4d9c	8.931311e-05
88	0x38aebfb0	8.332671e-05
89	0x38b9aa73	8.853236e-05
90	0x37a468a8	1.9599058e-05
91	0x37f74057	2.9474655e-05
92	0x380f2c5a	3.4135162e-05
93	0x38ba52fc	8.884628e-05
94	0x38897260	6.553973e-05
95	0x378e068a	1.6930764e-05
96	0x38dd682b	0.00010557504
97	0x3892b20b	6.9949856e-05
98	0x3781be02	1.5466478e-05
99	0x37b33685	2.136385e-05

c f4 [100]
0	0x3a781cdf	0.00094647513
1	0x3836f028	4.3615844e-05
2	0x3a6f21b6	0.000912215
3	0x3a16199d	0.00057258626
4	0x38df1fa5	0.00010639363
5	0x3a9732e9	0.0011535558
6	0x3aeb409f	0.0017948336
7	0x3a22c162	0.0006208626
8	0x3aeefb93	0.0018232934
9	0x3b24389d	0.0025058158
10	0x3b2daa6b	0.0026499282
11	0x3abe6b3e	0.001452781
12	0x3a3b4f36	0.0007145287
13	0x3acdde4f	0.0015706512
14	0x3af58f60	0.0018734746
15	0x3b042f9b	0.0020169977
16	0x3990257f	0.00027493757
17	0x3b13e6c7	0.0022567974
18	0x3aa89672	0.0012862219
19	0x3a3314ba	0.00068313966
20	0x3adbb02c	0.0016760877
21	0x3ac1fc96	0.0014800008
22	0x3a469e99	0.00075767335
23	0x3ac7c27b	0.0015240455
24	0x3b1ace0e	0.0023621353
25	0x39d620c8	0.00040841685
26	0x3ad1acd4	0.0015996941
27	0x3af9acfc	0.0019048746
28	0x3b1a175f	0.0023512465
29	0x3b23a867	0.0024972202
30	0x3af8dec7	0.0018987291
31	0x3b2776ff	0.0025553105
32	0x3af8bc26	0.0018976971
33	0x3ae8dc15	0.0017765785
34	0x3b233172	0.0024901298
35	0x3afae4a6	0.0019141629
36	0x3a7a4987	0.00095476996
37	0x3ac5aa09	0.0015080582
38	0x3b1e672a	0.0024170377
39	0x3b19db0c	0.002347651
40	0x3a95aa4a	0.0011418548
41	0x3b0ac305	0.002117337
42	0x3ab02090	0.0013437439
43	0x3a5474e1	0.00081045745
44	0x3b0e6c91	0.002173219
45	0x3aef00ae	0.0018234455
46	0x3a3b4bdf	0.00071447896
47	0x3ae7ae5e	0.0017675867
48	0x3ab3bb7b	0.001371249
49	0x3a028cef	0.0004980107
50	0x3aa595f3	0.0012633189
51	0x3b031596	0.002000188
52	0x3b29197b	0.002580254
53	0x3ab6d285	0.0013948238
54	0x3a5d6894	0.00084460643
55	0x3a9b50b3	0.0011849612
56	0x39704258	0.00022912899
57	0x3aeac811	0.0017912408
58	0x3b1941af	0.0023385098
59	0x3abda04a	0.0014467326
60	0x3b22b1ae	0.0024825144
61	0x3ab6a250	0.0013933871
62	0x3b170dac	0.002304892
63	0x3b1447e8	0.0022625867
64	0x3b20b170	0.0024519823
65	0x3ad6534d	0.001635173
66	0x3982364a	0.0002483598
67	0x3b02e557	0.0019973123
68	0x399f6921	0.0003040517
69	0x3ad48174	0.0016212896
70	0x3ad83037	0.0016493861
71	0x37a87d76	2.0085583e-05
72	0x3afcd47d	0.0019289401
73	0x3879995c	5.9509053e-05
74	0x3b298a83	0.0025869913
75	0x3ae5905f	0.0017514339
76	0x3b07cc2f	0.0020721068
77	0x3aa1032b	0.0012284269
78	0x38936546	7.02837e-05
79	0x39944952	0.00028283388
80	0x3b09f26a	0.002104903
81	0x3a08889c	0.00052083447
82	0x3a89f29a	0.0010524571
83	0x3b28e913	0.0025773689
84	0x3b1d5fd7	0.0024013424
85	0x3ae01ffb	0.0017099375
86	0x3a960259	0.0011444791
87	0x3b26c5e9	0.0025447553
88	0x3a7c001b	0.0009613053
89	0x3b1f5a28	0.0024315212
90	0x3af8c9aa	0.0018980999
91	0x3af1edd3	0.0018457718
92	0x3a94dee8	0.0011357935
93	0x3ae6637d	0.0017577257
94	0x3a345867	0.0006879628
95	0x3b0f786a	0.002189184
96	0x39e280dc	0.00043202087
97	0x38cfbae0	9.905337e-05
98	0x3ac6c99b	0.0015166284
99	0x3b11973a	0.0022215382

q f4 [1, 100]
0	0x3ed52cae	0.4163565
1	0x3f0859ab	0.5326182
2	0x3e9fb73e	0.3119449
3	0x3f5089f7	0.8146052
4	0x3e9c2633	0.30497894
5	0x3f51cd65	0.8195403
6	0x3ef4af59	0.4779003
7	0x3f750141	0.9570504
8	0x3ead4a00	0.3384552
9	0x3f23adc6	0.6393703
10	0x3d546fb0	0.051864326
11	0x3f8c9b01	1.0984803
12	0x3f2148d2	0.6300174
13	0x3f07f7ec	0.53112674
14	0x3e1bd578	0.1521815
15	0x3f818991	1.0120107
16	0x3ecd18aa	0.4005788
17	0x3f3cf717	0.7381453
18	0x3f2c35fd	0.6726988
19	0x3fc51263	1.5396236
20	0x3f65c960	0.897604
21	0x3ead5b8d	0.3385891
22	0x3fa23190	1.2671375
23	0x3e4035ba	0.18770495
24	0x3de05b62	0.1095493
25	0x3f8a7bad	1.0818993
26	0x3dad7d64	0.08471182
27	0x3f48574c	0.78258204
28	0x3eed208b	0.4631389
29	0x3d870693	0.06593051
30	0x3e450f96	0.19244227
31	0x3f471ac1	0.777752
32	0x3f00b761	0.50279814
33	0x3ee8ad79	0.4544485
34	0x3f4fb4d2	0.81135285
35	0xb90a9f6e	-0.00013220098
36	0x3f4a2f8b	0.78978795
37	0x3f727b14	0.9471905
38	0x3f307ede	0.68943584
39	0x3f0a8d3e	0.5412177
40	0x3effdbcf	0.49972388
41	0x3ef41d94	0.47678816
42	0x3e3faff1	0.1871946
43	0x3e8047d2	0.25054795
44	0x2322c06e	8.822786e-18
45	0x3f78d1a5	0.9719489
46	0x3ee8fd2f	0.45505664
47	0x3dc82bce	0.0977398
48	0x3f0b3409	0.54376274
49	0x3f400521	0.75007826
50	0x3e8829dc	0.26594436
51	0x3f023854	0.508672
52	0x3f2947e8	0.66125345
53	0x3ec16407	0.37771627
54	0x3f6581f3	0.8965141
55	0x3e6197d9	0.22030582
56	0x3ec724ba	0.38895208
57	0x3f66954f	0.90071577
58	0x3f0ff95e	0.5623988
59	0x3f7ea4cb	0.99470204
60	0x3f569d9c	0.8383424
61	0x3f011b7c	0.5043256
62	0x3ec12eea	0.37731105
63	0x3f319d01	0.69380194
64	0x3e9e1372	0.3087421
65	0x3e06940c	0.13142413
66	0x3eb8a272	0.36061436
67	0x3e4e3a90	0.20139527
68	0x3f4c5f32	0.79832757
69	0x3eb2539e	0.3482942
70	0x3d8ad830	0.06779516
71	0x3f743efb	0.954086
72	0x3e8da4ea	0.27664882
73	0x3f08840d	0.53326494
74	0x3d779820	0.060447812
75	0x3f4b2260	0.7934933
76	0x3f0007a5	0.50011665
77	0x3e6bbe04	0.23021704
78	0x3ebcf636	0.36906594
79	0x3ea723cc	0.32644498
80	0x3e6a5060	0.22882223
81	0x3e9a063a	0.30082875
82	0x3d945bf0	0.07244098
83	0x3ee859ba	0.45380956
84	0x3f3f93c4	0.7483485
85	0x3ecc0620	0.39848423
86	0x3da16710	0.07880986
87	0x3e8b5010	0.2720952
88	0x3ea3bb9e	0.31979078
89	0x3ec3800c	0.3818363
90	0x3edf98f2	0.43671376
91	0x3ee4d7a6	0.44695777
92	0x3f5c9dbe	0.86178195
93	0x3eaf7080	0.34265518
94	0x3dc967c0	0.09834242
95	0x3f5ce889	0.8629232
96	0x3f1b2982	0.6061021
97	0x3f12ab43	0.57292575
98	0x3f73b6a0	0.9520054
99	0x3ec013b0	0.3751502

z f4 [1, 100]
0	0x3e76bd40	0.2409563
1	0x3e1d7460	0.15376425
2	0x3e3d87f4	0.18508893
3	0x3f5de82b	0.86682385
4	0x3f3a03a2	0.72661793
5	0x3db5e948	0.088823855
6	0x3f7cc3c5	0.9873622
7	0x3eeec846	0.46637172
8	0x3f5a4b17	0.8527083
9	0x3f3942a5	0.72367316
10	0x3ed1d67c	0.4098395
11	0x3f6f330f	0.93437284
12	0x3ed0ece2	0.40805727
13	0x3eba62c8	0.3640349
14	0x3f37c12b	0.71779126
15	0x3f761256	0.9612173
16	0x3f5d4708	0.8643651
17	0x3f215940	0.6302681
18	0x3f408e39	0.75217015
19	0x3ee44e6c	0.4459108
20	0x3ef183aa	0.47170764
21	0x3e02b998	0.12766111
22	0x3eeee3a2	0.46658045
23	0x3f76d86c	0.96423984
24	0x3f2798f7	0.6546778
25	0x3e8b66f6	0.2722699
26	0x3e5c9874	0.21542531
27	0x3f17ddf9	0.5932308
28	0x3f2dab6e	0.67839706
29	0x3f5988a3	0.84974116
30	0x3f44edf2	0.76925576
31	0x3f2e5196	0.6809324
32	0x3ea81be2	0.32833773
33	0x3cfc73a0	0.030816853
34	0x3f2ecad5	0.6827825
35	0x3ef41ffa	0.47680646
36	0x3e3378a4	0.1752649
37	0x3f5d669a	0.8648468
38	0x3eb96fde	0.3621816
39	0x3f034520	0.5127735
40	0x3f34c991	0.70620066
41	0x3d623720	0.055228353
42	0x3e01c5f8	0.12673175
43	0x3f023ff5	0.5087884
44	0x3e6ca4d8	0.23109758
45	0x3f4fffed	0.81249887
46	0x3f1df698	0.617044
47	0x3f11b84f	0.5692186
48	0x3f0c729c	0.5486238
49	0x3f7bd4d6	0.98371637
50	0x3e9382b2	0.2881065
51	0x3eeabd0c	0.45847356
52	0x3f221c26	0.633242
53	0x3f3d44c3	0.7393305
54	0x3f438b3a	0.7638432
55	0x3ec03bc0	0.37545586
56	0x3f0803df	0.53130907
57	0x3f2a622a	0.66556036
58	0x3eaaf000	0.3338623
59	0x3ee90e72	0.45518833
60	0x3e9c56c4	0.30534947
61	0x3ecfc430	0.40579367
62	0x3f4ad5de	0.79232585
63	0x3dedffa0	0.11621022
64	0x3e17cc10	0.14823937
65	0x3f75d8a5	0.960337
66	0x3f5127a8	0.81701136
67	0x3f3b80af	0.7324323
68	0x3eb8e1ba	0.36109716
69	0x3d230e70	0.03980869
70	0x3ea71666	0.32634276
71	0x3deaa6a8	0.114575684
72	0x3da73cd8	0.08165902
73	0x3f69f3fc	0.91387916
74	0x3f10ab95	0.56511813
75	0x3dbfe3f8	0.093696535
76	0x3f011dde	0.504362
77	0x3f37c017	0.7177748
78	0x3f3dbfb5	0.74120647
79	0x3f1b64d2	0.60700715
80	0x3f11e45f	0.5698909
81	0x3e055fb8	0.13024795
82	0x3f6233c4	0.8836024
83	0x3ec6ac4e	0.38803333
84	0x3f35b649	0.7098127
85	0x3e017f2c	0.12646168
86	0x3f205892	0.6263515
87	0x3f774e01	0.966034
88	0x3f01cc70	0.5070257
89	0x3f3fc9a7	0.7491707
90	0x3f605323	0.87626857
91	0x3f3aa4da	0.72907794
92	0x3eaac6a6	0.33354682
93	0x3f661452	0.89874756
94	0x3f5b5c38	0.8568759
95	0x3e08dc84	0.1336537
96	0x3e8e9088	0.27844644
97	0x3d7ffc90	0.06249672
98	0x3f6bbd2b	0.9208552
99	0x3e6ce4d4	0.23134166
