checkpoints/single-phase/123bus/ddpg copy 2/value_net_checkpoint_a1.pth (torch, 44119 bytes, 5 tensors)

linear1.weight f4 [100, 2]
0.17333871 -0.62696105 -0.085147984 -0.29671523 0.27292198 0.15456702 0.35998854 -0.005437057
-0.3661076 0.056434054 0.4631136 -0.54964805 0.86519724 -0.25968903 -0.5790127 -0.53919274
0.26103392 -0.051721 -0.26044586 0.0675531 -0.015661106 -0.12138274 -0.24682195 -0.52327555
0.1407976 -0.72109115 0.89607894 0.4385838 0.34331307 -0.5375646 -0.015077421 0.098252095
-0.09841809 -0.43482003 -0.28545803 -0.49740055 -0.74714184 -0.6650411 0.19349064 -0.5851097
0.24963857 0.32358888 -0.025771154 -0.29185638 0.03714196 -0.37129137 -0.63381714 0.32946977
-0.5328597 0.3058252 0.07566256 0.48543864 0.9145392 0.27453217 -0.3583712 0.6155169
0.22624323 -0.074237764 0.6631788 0.35411125 0.4579069 -0.06163327 -0.23882191 -0.7221997
0.3774028 0.30778688 -0.13137522 -0.7099624 -0.7131379 0.18424334 0.4041384 0.13907424
0.4059163 -0.44686738 -0.23772356 0.55130595 0.20591027 0.08453518 0.19525743 -0.45757908
-0.39116013 -0.27357876 0.49862418 0.18731241 0.14909862 -0.64557785 0.6217456 0.3061111
0.16218022 0.13387236 0.13881724 -0.43873796 0.1131056 -0.22861104 0.27538598 0.7070397
0.99346703 0.4774127 -0.3497847 -0.6263079 1.2138978 0.36679268 -0.23723234 0.41997206
-0.18289055 -0.40932575 0.4005162 -0.46215764 -1.2236004 0.10592066 -0.34600565 -0.17635341
-0.39625183 0.65479374 -0.25569734 0.06235305 -0.0056142528 0.62078506 0.2585684 -0.33698687
-0.11122202 -0.02486689 -0.6477687 0.21546392 1.0851349 0.44920948 0.1591824 -0.36223355
0.2139707 -0.6859357 0.7161201 0.019926015 0.9335955 0.5358528 -0.6553152 0.369831
-0.44667605 0.042825818 -0.5279079 0.54209733 0.41000637 -0.42975065 -0.65136015 0.5237414
-0.2112117 -0.48438665 -0.05285591 -0.024919828 -0.612067 0.4065508 -0.09892482 -0.38925552
0.39392993 0.29618692 0.12017253 0.38114116 -0.09325347 0.45795375 -0.35296693 -0.64286536
0.41537595 0.115753725 0.63080823 -0.03542418 0.27603734 -0.31827426 0.23206541 0.28940263
0.7345524 0.23212749 0.078705244 -0.49173626 -0.7353633 0.11358537 -0.35787404 -0.62769914
-0.009606101 -0.4742801 -0.5811059 0.012763246 0.0054791705 0.4856665 0.07804111 0.11090583
0.22994822 0.08503334 0.6507322 -0.064245164 0.3869681 0.54409134 -0.19668633 -0.23637068
-0.5019906 0.58090925 0.34509084 -0.4696358 -0.049181007 0.44492486 0.060911093 0.09773559
00000000: b47f 313e 8580 20bf 1162 aebd 0feb 97be
00000010: 6ebc 8b3e d146 1e3e 6b50 b83e 5729 b2bb
00000020: 7572 bbbe 6527 673d 3a1d ed3e bcb5 0cbf
00000030: 917d 5d3f f6f5 84be 2d3a 14bf 8908 0abf
00000040: 3da6 853e 66d9 53bd 2959 85be 4859 8a3d
00000050: b84b 80bc 8497 f8bd e5be 7cbe 63f5 05bf
00000060: 3f2d 103e 6e99 38bf 6e65 653f 0e8e e03e
00000070: bbc6 af3e d59d 09bf 4a07 77bc 6538 c93d
00000080: 6c8f c9bd bba0 debe 8e27 92be 49ab febe
00000090: b044 3fbf 2240 2abf 6922 463e c0c9 15bf
000000a0: 41a1 7f3e 71ad a53e 071e d3bc 336e 95be
000000b0: 2b22 183d e719 bebe d741 22bf 43b0 a83e
000000c0: 7e69 08bf 1f95 9c3e f9f4 9a3d 6a8b f83e
000000d0: 3e1f 6a3f 7b8f 8c3e 6e7c b7be 8492 1d3f
000000e0: 4eac 673e f809 98bd 16c6 293f 124e b53e
000000f0: c672 ea3e 2b73 7cbd bb8d 74be 14e2 38bf
00000100: f13a c13e 3e96 9d3e 3a87 06be 19c0 35bf
00000110: 3590 36bf 49aa 3c3e 3aeb ce3e 7a69 0e3e
00000120: 43d4 cf3e cdcb e4be ce6d 73be 6322 0d3f
00000130: 24da 523e c820 ad3d 90f1 473e ce47 eabe
00000140: 2446 c8be 8412 8cbe ab4b ff3e d3ce 3f3e
00000150: 4fad 183e 9744 25bf b82a 1f3f 98ba 9c3e
00000160: 9212 263e d615 093e 1b26 0e3e 43a2 e0be
00000170: e9a3 e73d 0319 6abe 64ff 8c3e 8e00 353f
00000180: db53 7e3f 706f f43e fb16 b3be b755 20bf
00000190: 0161 9b3f 40cc bb3e 09ed 72be 9406 d73e
000001a0: a947 3bbe 2593 d1be 7610 cd3e ed9f ecbe
000001b0: f09e 9cbf eeec d83d a727 b1be fd95 34be
000001c0: 85e1 cabe 90a0 273f c3ea 82be e965 7f3d
000001d0: c4f7 b7bb c5eb 1e3f 1463 843e 8b89 acbe
000001e0: 5fc8 e3bd a6b5 cbbc 2bd4 25bf 93a2 5c3e
000001f0: b3e5 8a3f c9fe e53e b600 233e ad76 b9be
00000200: 231b 5b3e 7b99 2fbf a653 373f e23b a33c
00000210: 1d00 6f3f a62d 093f bdc2 27bf 7d5a bd3e
00000220: b9b2 e4be 206a 2f3d f924 07bf e4c6 0a3f
00000230: 5bec d13e 4708 dcbe 8abf 26bf eb13 063f
00000240: e147 58be 8701 f8be 707f 58bd ab24 ccbc
00000250: 6cb0 1cbf 6d27 d03e 1999 cabd 804c c7be
00000260: 2fb1 c93e d0a5 973e 041d f63d ef24 c33e
00000270: adfb bebd ea78 ea3e 15b8 b4be d392 24bf
00000280: 28ac d43e 4a10 ed3d a67c 213f f218 11bd
00000290: c454 8d3e d8f4 a2be 8ea2 6d3e 952c 943e
000002a0: a00b 3c3f d4b2 6d3e 3730 a13d dbc4 fbbe
000002b0: c540 3cbf 729f e83d 443b b7be e4b0 20bf
000002c0: e862 1dbc d7d4 f2be 5bc3 14bf ef1c 513c
000002d0: 9d8a b33b 48a9 f83e 04d4 9f3d 9922 e33d
000002e0: 8c77 6b3e f625 ae3d 6396 263f f892 83bd
000002f0: af20 c63e 9249 0b3f 2468 49be 280b 72be
00000300: 7582 00bf 78b6 143f bfaf b03e 1b74 f0be
00000310: 0672 49bd 31cd e33e e97d 793d 9929 c83d

linear1.bias f4 [100]
-0.5560457 -0.38839447 1.6644112 0.96433973 1.6631424 0.1972858 -0.39267802 -0.5692001
1.1415815 1.8045594 0.797424 -0.5326118 0.4598532 -0.4631756 -0.6965715 1.5405097
0.9328959 -0.4650082 0.6442313 0.99680984 -0.48480576 -0.48102036 0.30318043 -0.7333575
1.4630452 1.0949805 -0.6847195 -0.6568139 1.0697504 -0.76252705 1.2434813 0.49410582
-0.6010939 -0.50897485 -1.0006845 1.241635 -0.42366093 -0.31291547 1.6733407 0.2637805
0.6798924 0.82640636 -0.8012693 -0.7283418 1.7069927 -0.061252087 -0.4826302 -0.81511265
-0.6703756 1.0184047 -0.396858 -0.76332116 -0.4570726 -0.8261731 -0.39904952 0.7695891
-0.6850218 1.6799607 -0.49190393 0.14426205 0.700261 0.15027726 0.18035054 0.83760047
-0.57845277 -0.93666583 -0.5558469 0.7129236 1.4414638 0.83767426 -0.34961483 1.2538906
0.6103756 0.67078865 1.3854096 -0.5467974 1.7210661 -0.71646905 -0.6349099 -0.02909547
0.79201627 0.39299223 -0.7126212 1.5156353 1.6676575 -0.7393532 0.7393659 0.3958789
-0.72527075 -0.22592185 -0.6941515 1.7030065 1.6674321 1.077809 -0.78759915 -0.37917113
1.1175188 -0.28721887 -0.90344095 1.2093226
00000000: 0359 0ebf a4db c6be 6d0b d53f f8de 763f
00000010: dae1 d43f 4a05 4a3e 180d c9be 19b7 11bf
00000020: 581f 923f cdfb e63f fb23 4c3f 3f59 08bf
00000030: e171 eb3e 5a25 edbe 8352 32bf 6c2f c53f
00000040: 44d2 6e3f 8e15 eebe 58ec 243f ee2e 7f3f
00000050: 7638 f8be 4d48 f6be 773a 9b3e 51bd 3bbf
00000060: 1145 bb3f 5228 8c3f c749 2fbf f524 28bf
00000070: 95ed 883f f934 43bf 652a 9f3f 70fb fc3e
00000080: 4ae1 19bf 2d4c 02bf 6e16 80bf e5ed 9e3f
00000090: 16ea d8be 7536 a0be 0730 d63f 3d0e 873e
000000a0: 6e0d 2e3f 5e8f 533f fc1f 4dbf 9c74 3abf
000000b0: bd7e da3f 78e3 7abd 4e1b f7be 39ab 50bf
000000c0: bc9d 2bbf 165b 823f f930 cbbe 0469 43bf
000000d0: 6b05 eabe 1580 53bf 3850 ccbe cb03 453f
000000e0: 975d 2fbf f408 d73f d5da fbbe 6eb9 133e
000000f0: 4e44 333f 48e2 193e d0ad 383e fc6c 563f
00000100: 7b15 14bf 55c9 6fbf fc4b 0ebf 2982 363f
00000110: e381 b83f d271 563f b700 b3be 7d7f a03f
00000120: 9341 1c3f ceb8 2b3f 1a55 b13f eafa 0bbf
00000130: e54b dc3f 846a 37bf 7589 22bf a059 eebc
00000140: 94c1 4a3f 4736 c93e 586e 36bf 5600 c23f
00000150: cd75 d53f 4046 3dbf 1547 3d3f a4b0 ca3e
00000160: 58ab 39bf 0f58 67be eab3 31bf 1efc d93f
00000170: 6a6e d53f a5f5 893f 19a0 49bf b822 c2be
00000180: db0a 8f3f 5a0e 93be e847 67bf 15cb 9a3f

linear2.weight f4 [100, 100]
0.1073933 0.035476655 0.32337135 0.025739042 0.8684235 0.12368265 -0.14918898 0.072867066
0.22297549 0.6310438 0.20886585 -0.030638829 0.04686486 -0.19258448 -0.047193803 0.63940585
0.2213385 -0.086890824 0.078055725 0.15914601 -0.12665786 0.02839845 0.062325288 -0.12089057
0.22958072 0.12206627 -0.28325698 -0.14271232 0.14473745 -0.2819444 0.1273736 0.11638413
-0.29865238 0.05234997 -0.08934381 0.35853764 0.0091191465 -0.056366988 0.463593 0.18091936
0.16737044 0.3351289 -0.04561937 -0.30987912 0.42768624 0.059412356 -0.0040952307 0.026797164
-0.092967056 0.19912034 -0.102543965 -0.19744608 -0.10073587 -0.13075343 -0.46132755 0.3040557
0.037120264 0.8455129 -0.103535764 0.051386215 0.20183407 0.17993309 -0.06249042 0.25597474
-0.007366326 1.6119831 -0.0403935 0.07898452 1.0879304 0.14046521 -0.03329289 0.26646426
0.07940573 0.3005552 0.24943787 -0.072210625 0.20834333 -0.29334298 -0.10993391 -0.037022647
0.18577106 -0.031036464 0.0075182864 0.29096153 0.1611164 -0.029166348 0.28692475 0.08086642
0.015464866 0.036619868 -0.16678306 0.5369827 0.63842124 0.08905184 -0.1649558 0.021411944
0.05875078 0.09662491 -0.27253965 0.24000289 0.095054515 0.018229248 0.28915498 0.12059899
0.89723414 0.009053589 -0.023277743 0.12673059 0.1617348 0.6115538 0.21958095 0.064868875
0.07375037 -0.05828057 0.02580003 0.55361754 0.16577908 0.039343297 0.006669981 0.21524733
0.036966097 -0.08119798 0.11991848 -0.02774222 0.31919685 0.021871857 -0.4037401 0.031113012
0.17664932 -0.15621692 0.20697197 0.16188999 -0.34593487 -0.07616125 -0.18353929 0.3624995
-0.10336762 0.019702343 0.6059706 0.1407145 0.020516343 0.22486271 0.04702343 -0.35017818
0.37570992 -0.023362113 0.031242758 -0.03379035 -0.1392874 0.14280246 -0.19347152 -0.13292797
-0.056409087 -0.08457468 -0.3897279 0.28552008 -0.11555338 0.8006791 -0.0079321 0.09194437
0.23256552 0.22023736 -0.012819208 0.0769184 -0.016015166 1.5495912 -0.18356153 0.1429264
1.0929723 0.06434077 -0.06639267 0.11652292 0.17664254 0.2956273 0.14704455 0.018130321
0.25584468 -0.3440027 -0.123719625 0.05342327 0.16778587 0.03227273 -0.068030186 0.13889961
0.28372088 -0.0056108413 0.3346843 0.12276623 0.052166373 0.08669909 -0.17563358 0.49948198
0.54675037 0.09080552 -0.15437393 -0.011693482 0.077686556 0.052626386 -0.25472596 0.31861052
0.12230135 0.019448606 0.2881625 0.19281122 0.91836745 0.09568019 0.056616068 -0.050921127
0.19803359 0.53896236 0.13029286 -0.105372824 0.058090333 -0.21275131 -0.044949822 0.6652555
0.14219153 -0.0680841 0.13972227 0.107033886 -0.052636165 0.03970541 0.04341176 0.018008478
0.3215396 0.13088024 -0.3672764 0.04109702 0.17178692 -0.16137469 0.09400913 0.08002059
-0.14892669 -0.093885385 -0.12666872 0.44261837 0.06632435 -0.0767403 0.6362075 0.09722933
0.054560024 0.21136123 -0.11047627 -0.32820964 0.4450278 0.13777764 -0.10031732 0.02163305
-0.07522978 0.19676858 -0.2535004 -0.110764794 0.0762273 -0.026268797 -0.37237057 0.18072495
00000000: 05f1 db3d f84f 113d ee90 a53e afda d23c
00000010: 0151 5e3f 544d fd3d ffc4 18be 543b 953d
00000020: b053 643e 168c 213f eee0 553e 48fe fabc
00000030: 5ef5 3f3d de34 45be 4a4e 41bd 1ab0 233f
00000040: 8fa6 623e d1f3 b1bd aedb 9f3d 2cf7 223e
00000050: 99b2 01be dea3 e83c cd48 7f3d 7a95 f7bd
00000060: 3517 6b3e e1fd f93d 0f07 91be 2e23 12be
00000070: 0e36 143e 045b 90be 3a6e 023e ce5a ee3d
00000080: f7e8 98be ec6c 563d e3f9 b6bd 3f92 b73e
00000090: 7968 153c 12e1 66bd 105c ed3e ed42 393e
000000a0: 2863 2b3e 0496 ab3e 60db 3abd 7aa8 9ebe
000000b0: b1f9 da3e 5f5a 733d 4931 86bb ba85 db3c
000000c0: 8365 bebd 34e6 4b3e 9202 d2bd 4e2f 4abe
000000d0: 9c4e cebd 3ae4 05be 2033 ecbe 30ad 9b3e
000000e0: 6b0b 183d 8973 583f 8f0a d4bd 5a7a 523d
000000f0: 97ad 4e3e 6140 383e f4f5 7fbd 1f0f 833e
00000100: 3961 f1bb 7655 ce3f a873 25bd a3c2 a13d
00000110: 4e41 8b3f 1dd6 0f3e 205e 08bd 016e 883e
00000120: 799f a23d 5fe2 993e a46c 7f3e 2ae3 93bd
00000130: f457 553e 0d31 96be 0825 e1bd 0fa5 17bd
00000140: c53a 3e3e 2f40 febc f55b f63b e9f8 943e
00000150: b3fb 243e 44ee eebc cde7 923e 4b9d a53d
00000160: 5960 7d3c b7fe 153d 2ec9 2abe b377 093f
00000170: 936f 233f d060 b63d 2cea 28be 1a68 af3c
00000180: a8a4 703d 48e3 c53d 518a 8bbe 51c3 753e
00000190: f1ab c23d 8155 953c 1f0c 943e 9afc f63d
000001a0: 23b1 653f 8155 143c f7b0 bebc aac5 013e
000001b0: cf9d 253e ca8e 1c3f d4d9 603e f9d9 843d
000001c0: 6f0a 973d 9bb7 6ebd 965a d33c e1b9 0d3f
000001d0: fec1 293e 7026 213d db8f da3b cc69 5c3e
000001e0: c369 173d 204b a6bd d297 f53d a743 e3bc
000001f0: c56d a33e 9c2c b33c 06b7 cebe b7e0 fe3c
00000200: 8fe3 343e 54f7 1fbe 76f0 533e 7dc6 253e
00000210: 601e b1be 6efa 9bbd b9f1 3bbe 8999 b93e
00000220: 67b2 d3bd cf66 a13c e420 1b3f 7617 103e
00000230: e411 a83c 6942 663e a49b 403d 8e4a b3be
00000240: 0d5d c03e e761 bfbc d0f0 ff3c c067 0abd
00000250: 5ba1 0ebe cf3a 123e 661d 46be 451e 08be
00000260: 370d 67bd 7d35 adbd 6a8a c7be b02f 923e
00000270: 40a7 ecbd 4ef9 4c3f a4f5 01bc 544d bc3d
00000280: a825 6e3e e785 613e a807 52bc 6587 9d3d
00000290: 3d32 83bc 0159 c63f 8ef7 3bbe 4c5b 123e
000002a0: 84e6 8b3f 18c5 833d e1f8 87bd 92a3 ee3d
000002b0: c8e1 343e 765c 973e d992 163e 0a86 943c
000002c0: 13fe 823e 1f21 b0be b760 fdbd 5cd2 5a3d
000002d0: 0fd0 2b3e 6930 043d 6953 8bbd b33b 0e3e
000002e0: dd43 913e 26db b7bb be5b ab3e dc6c fb3d
000002f0: 68ac 553d 4b8f b13d 4ad9 33be 1abc ff3e
00000300: d5f7 0b3f 3ff8 b93d 3314 1ebe 0596 3fbc
00000310: 211a 9f3d c48e 573d 716b 82be eb20 a33e
00000320: 2179 fa3d af52 9f3c 098a 933e 4e70 453e
00000330: 211a 6b3f faf3 c33d 40e6 673d ac92 50bd
00000340: 51c9 4a3e 70f9 093f 7e6b 053e b5cd d7bd
00000350: 21f0 6d3d 7bdb 59be 4e1d 38bd 2f4e 2a3f
00000360: a89a 113e ad6f 8bbd 5b13 0f3e 9534 db3d
00000370: 0599 57bd 24a2 223d 88d0 313d 8486 933c
00000380: d7a0 a43e 7805 063e a70b bcbe 5955 283d
00000390: e9e8 2f3e 683f 25be dc87 c03d d6e1 a33d
000003a0: 3d80 18be fb46 c0bd 72b5 01be e09e e23e
000003b0: 10d5 873d 052a 9dbd 7fde 223f 2c20 c73d
000003c0: 557a 5f3d 146f 583e 6241 e2bd 180b a8be
000003d0: afda e33e 9515 0d3e 2b73 cdbd cb37 b13c
000003e0: 1212 9abd b47d 493e ceca 81be a7d8 e2bd
000003f0: 0f1d 9c3d a931 d7bc 5ba7 bebe f60f 393e

linear2.bias f4 [100]
0.42205688 0.38705966 0.30393267 0.27282414 0.43811676 0.28046635 -0.03950567 0.2937695
-0.073962085 0.28922215 0.44115362 0.3396525 -0.10481142 0.35242277 0.28762332 0.45315543
0.44587278 0.342883 -0.0025595666 0.38749805 0.26865008 0.3410225 0.4404228 0.41331515
0.27108285 0.4249251 0.37599814 0.31534 0.27660292 0.36342746 0.4056755 0.27558553
0.044678915 0.29930767 -0.08606484 0.37791273 0.31891415 0.28457016 0.26672125 0.2751829
0.3637988 0.40465927 0.335142 0.42541274 -0.03469137 0.026311016 0.45190325 0.4289918
0.33926067 0.43894798 0.35339522 0.4330773 0.43445018 0.36873683 0.07731004 0.32420588
0.01069088 0.2986541 0.39091855 0.43636578 0.40440315 0.29824746 0.3161689 0.3528697
0.4026884 0.3510013 0.42914465 0.27088442 0.25930536 0.44179085 0.2618347 0.33281747
0.36202523 0.32250422 0.38588732 0.27943704 0.29817146 0.30555615 0.3586794 0.3897596
0.36025068 0.2632158 -0.005795115 0.3708564 0.27264446 -0.02367196 -0.021313136 0.4076081
0.32547444 0.4083598 0.39656746 0.38928878 0.40444523 0.26796347 0.2953536 0.3189882
0.287323 0.28156698 0.4366127 0.38101152
00000000: d717 d83e af2c c63e 109d 9b3e 9baf 8b3e
00000010: d750 e03e 4999 8f3e b3d0 21bd f568 963e
00000020: 6f79 97bd ed14 943e e3de e13e efe6 ad3e
00000030: 5fa7 d6bd c270 b43e 5d43 933e fd03 e83e
00000040: 7049 e43e 5c8e af3e 67be 27bb 2566 c63e
00000050: 818c 893e 809a ae3e 197f e13e 0b9e d33e
00000060: 5fcb 8a3e c88f d93e d482 c03e 3f74 a13e
00000070: e69e 8d3e 2a13 ba3e b3b4 cf3e 8c19 8d3e
00000080: 3d01 373d db3e 993e c342 b0bd c77d c13e
00000090: b748 a33e 2eb3 913e b08f 883e c6e4 8c3e
000000a0: d643 ba3e 802f cf3e bb97 ab3e b3cf d93e
000000b0: 8a18 0ebd 338a d73c dd5f e73e d0a4 db3e
000000c0: 93b3 ad3e cabd e03e 38f0 b43e 4fbc dd3e
000000d0: 4170 de3e 13cb bc3e ba54 9e3d 50fe a53e
000000e0: cd28 2f3c 31e9 983e 7a26 c83e 566b df3e
000000f0: ee0d cf3e e4b3 983e e4e0 a13e 56ab b43e
00000100: 2d2d ce3e 71b6 b33e d9b8 db3e 5db1 8a3e
00000110: acc3 843e 6932 e23e 330f 863e 0d67 aa3e
00000120: 5f5b b93e 461f a53e 0693 c53e 5f12 8f3e
00000130: eea9 983e db71 9c3e d4a4 b73e 928e c73e
00000140: c772 b83e 39c4 863e f3e4 bdbb e4e0 bd3e
00000150: 0e98 8b3e b3eb c1bc e398 aebc 02b2 d03e
00000160: 96a4 a63e 8914 d13e e40a cb3e dc50 c73e
00000170: 7213 cf3e 8232 893e 9638 973e 6c52 a33e
00000180: 001c 933e 8c29 903e b38b df3e f113 c33e

linear3.weight f4 [1, 100]
-0.3246057 -0.3107852 -0.30309448 -0.336211 -0.30387586 -0.36743703 0.0019020399 -0.3652245
-0.0031676104 -0.3564556 -0.28767335 -0.38929075 -0.0030151838 -0.39212474 -0.35874185 -0.32445407
-0.33999923 -0.32207522 0.0007260053 -0.2985358 -0.29988286 -0.36420444 -0.36710837 -0.34569308
0.21930547 -0.29099736 -0.3752027 -0.31356627 -0.32139158 -0.3700973 -0.367409 -0.3545159
-0.0018163036 -0.34575775 -0.0016341988 -0.3459296 -0.28323096 -0.33074212 -0.27357307 -0.3276594
-0.32757795 -0.36545926 -0.33929068 -0.29419696 0.0015065561 -0.0012044427 -0.3521365 -0.38817796
-0.3763639 0.20723979 -0.33644596 -0.35964024 -0.4034779 -0.29502538 -0.0025570379 -0.35068586
0.0023258242 -0.416766 -0.3172409 -0.7114651 -0.37184426 -0.32205313 -0.4151517 -0.3321435
-0.3789615 -0.3846386 0.20498046 -0.2930699 -0.30200562 -0.31654376 -0.30538037 -0.34106666
-0.3801564 -0.31874457 -0.34309745 -0.35444313 -0.2958195 -0.289671 -0.32593778 -0.34643623
-0.3122953 -0.30962402 -0.0037329742 -0.346378 -0.281715 0.0007414788 -0.0036411658 -0.3481157
-0.35510385 -0.3342137 -0.27960226 -0.36208558 -0.29703793 -0.33021742 -0.28850478 0.20704584
-0.31540895 -0.30078116 -0.35726914 -0.41091967
00000000: b832 a6be 3d1f 9fbe 332f 9bbe d923 acbe
00000010: 9e95 9bbe b520 bcbe de4d f93a b5fe babe
00000020: af97 4fbb 5981 b6be ec49 93be 1e51 c7be
00000030: 649a 45bb 93c4 c8be 03ad b7be d81e a6be
00000040: 6114 aebe 0be7 a4be 6451 3e3a afd9 98be
00000050: 3f8a 99be 0179 babe a1f5 bbbe affe b0be
00000060: 9d91 603e 9bfd 94be 911a c0be c28b a0be
00000070: 708d a4be 657d bdbe 081d bcbe 1c83 b5be
00000080: 0911 eeba 2907 b1be 9d32 d6ba af1d b1be
00000090: a603 91be 0857 a9be c511 8cbe f9c2 a7be
000000a0: 4cb8 a7be 7a1d bbbe 82b7 adbe fca0 96be
000000b0: a277 c53a 64de 9dba 3c4b b4be 43bf c6be
000000c0: c5b2 c0be ab36 543e a542 acbe c422 b8be
000000d0: a894 cebe 910d 97be fa93 27bb 198d b3be
000000e0: db6c 183b 5a62 d5be 666d a2be 9422 36bf
000000f0: 5f62 bebe 26e4 a4be c38e d4be b60e aabe
00000100: 3e07 c2be 5aef c4be 66e6 513e 420d 96be
00000110: 7ba0 9abe 0612 a2be d15a 9cbe 4aa0 aebe
00000120: dca3 c2be 7d32 a3be 78aa afbe 9279 b5be
00000130: a775 97be c24f 94be 51e1 a6be 1760 b1be
00000140: 2be5 9fbe 0a87 9ebe eaa4 74bb 7558 b1be
00000150: f33c 90be cd5f 423a a0a0 6ebb 393c b2be
00000160: 2cd0 b5be 0f1e abbe 0728 8fbe 4863 b9be
00000170: 5b15 98be 4212 a9be e6b6 93be d303 543e
00000180: 487d a1be fdff 99be fbeb b6be 1064 d2be
