checkpoints/single-phase/123bus/ddpg copy 2/value_net_checkpoint_a5.pth (torch, 44119 bytes, 5 tensors)

linear1.weight f4 [100, 2]
000000 42 85 10 3f 15 1d 38 3d f5 5f f6 bd aa 53 f6 be
       0.56453335 0.04494961 -0.12030021 -0.48110706
000010 3e b9 09 bf 1a 41 3b bc 82 00 13 bf 82 ed e8 3e
       -0.5379828 -0.011429096 -0.5742265 0.45493704
000020 c3 58 55 bf 8e 77 f3 3e 1c a3 eb 3e 56 0b 09 bf
       -0.83338565 0.4755215 0.4602288 -0.5353292
000030 1f 93 f4 bd 2a 93 84 be ad a9 df be 45 92 2c 3f
       -0.119421236 -0.25893527 -0.4368414 0.6741069
000040 91 44 a5 3c 2e 58 17 3f 51 c2 02 bf a6 05 d6 3d
       0.020174297 0.59118927 -0.51077753 0.10450296
000050 3e 02 72 bf 8d b6 33 3e 90 e2 6a bf 9f 97 06 be
       -0.9453467 0.17550106 -0.91751957 -0.13143776
000060 2b 5d 08 bf bf e3 2e be d5 c7 ee 3e 22 ad 08 bf
       -0.53267163 -0.17079066 0.46636835 -0.5338918
000070 fb 6f 58 be 28 31 c8 bd c7 b2 d6 3e 76 a9 39 3f
       -0.21136467 -0.09775001 0.4193327 0.725242
000080 70 2f 2a 3f 7d e2 37 3f 25 b5 d6 be 28 8a f6 3e
       0.66478634 0.7182997 -0.41935077 0.4815228
000090 87 51 5d 3f 57 c4 b4 bd 88 5e c9 be 11 d6 15 bf
       0.86452526 -0.08826511 -0.39329934 -0.58529764
0000a0 33 11 f7 3d be 7a 17 3e 8e b1 80 3f b9 ea 2f 3f
       0.12063827 0.14792916 1.0054185 0.68717533
0000b0 8e e6 66 3e 52 5b 00 3f e3 db 87 bf 9d 04 0f 3e
       0.22548887 0.50139344 -1.0613979 0.13966604
0000c0 b1 2c c0 be e7 94 ca be 9e a1 41 3f 1e a0 71 3d
       -0.37534097 -0.39566728 0.75637233 0.05899059
0000d0 80 4a 6b be 7e 92 07 bf 52 d5 99 bf ee 1b 1c be
       -0.22977638 -0.52957904 -1.2018225 -0.1524503
0000e0 b7 72 eb 3e f9 87 2a bf 64 6b b1 bf bd b8 b1 3d
       0.45985958 -0.6661373 -1.3860898 0.08677814
0000f0 0e 41 3e be 26 26 47 3d 67 2b 20 bf 46 1d db 3e
       -0.18579504 0.048620366 -0.62566227 0.4279577
000100 f3 ce 95 bc 90 b7 d1 be b3 93 27 bf 33 7f 40 3b
       -0.018287158 -0.4096036 -0.65459746 0.0029372692
000110 e1 4c 33 bf 63 96 5f 3e 28 1c 29 bd 85 d7 1f 3f
       -0.7003918 0.21834712 -0.041286618 0.6243823
000120 f3 0e 09 3f 11 66 95 be 9a f4 2e 3f fd df 44 be
       0.53538436 -0.29179433 0.6834198 -0.1922607
000130 c5 bf 8a 3e 02 44 d4 3e d8 72 18 3e 6e f6 cd bd
       0.27099434 0.41458136 0.1488756 -0.10056768
000140 97 a9 09 3f a4 4d b7 3c 67 54 76 3e 78 8c 15 3b
       0.537744 0.02237589 0.24055634 0.0022819322
000150 eb 39 5a 3f 9f 00 39 3e bb 85 d3 bc 0e 11 27 bd
       0.85244626 0.18066643 -0.025820604 -0.04078775
000160 d6 ee 3c bf 35 ea b3 bd c0 24 fb 3e d6 59 9c bd
       -0.73801935 -0.08784906 0.49051476 -0.07634322
000170 04 80 c1 3e 59 10 de bd c1 f1 4d be a6 bf 08 bf
       0.3779298 -0.10842962 -0.20111753 -0.5341743
000180 3d 67 c9 bd bc 5e 4a 3d b4 9f 35 3f c4 66 1b 3f
       -0.09834144 0.049406752 0.7094681 0.6070368
000190 1f 65 24 bf 9b a5 e8 bd d2 1d 3c 3f 5b 57 2a 3e
       -0.642168 -0.11359712 0.73483 0.16634886
0001a0 aa 2b 24 be 96 5c 17 bf 72 20 11 bf dc f3 1b 3d
       -0.16032282 -0.5912565 -0.5669013 0.03807436
0001b0 dc 3f aa bf 7b eb d1 3d 4f a4 64 3f 97 41 2c bf
       -1.3300738 0.102499925 0.89313215 -0.6728758
0001c0 dc ad 2b bf 66 13 29 3e 09 0f c5 bd 0b 29 b2 3d
       -0.67062163 0.16511306 -0.09622008 0.086992346
0001d0 b9 06 e3 bc 80 60 0c 3f 04 0c ca 3e f6 ab c2 be
       -0.027713167 0.5483475 0.39462292 -0.3802182
0001e0 14 2a fd be 9b de 1e bc 00 f0 f5 3e 91 2f 1a bf
       -0.49446166 -0.009696628 0.48034668 -0.6022883
0001f0 d2 46 39 bf ec 06 8e bb c9 99 8f bf 7c 3a 07 be
       -0.7237369 -0.0043343212 -1.1218807 -0.13205904
000200 68 37 38 3f a4 7a a4 3d e2 31 d4 3d 0b d4 e4 bd
       0.71959543 0.08031204 0.10361077 -0.111732565
000210 6b 58 1e be ae 3d b4 3e 49 1c 53 3e e3 05 32 3f
       -0.15463416 0.35203308 0.20616259 0.6954023
000220 e9 8a b2 be 64 d8 be 3e fa e9 0f 3f eb 28 07 bb
       -0.34871605 0.37274468 0.56216395 -0.0020623754
000230 6d c3 17 bf f7 6c 83 bc 8e f1 d9 3e 9c dc 34 3f
       -0.5928257 -0.01604317 0.42567104 0.70649123
000240 61 3b c3 3e 91 18 58 3e bd e2 55 bf 72 6d e5 3c
       0.3813124 0.21103121 -0.835491 0.02800629
000250 f9 9b 05 3e db 10 14 bf 5f 35 d8 be 57 06 1f bf
       0.1304778 -0.5783822 -0.4222822 -0.6211905
000260 bc 62 8e 3f 86 30 c2 be af 4c 2e bf bc ae 0a bf
       1.1123881 -0.37927645 -0.6808576 -0.54172873
000270 a9 4c bd bd 6c 3b 22 3f 8b 57 15 bf 2c ce d5 be
       -0.092431374 0.6337192 -0.58336705 -0.4175886
000280 a7 df 9e be fc 73 0c bf 51 17 f8 be db 6b a1 be
       -0.31030008 -0.5486448 -0.4845529 -0.315276
000290 c8 1d 0e bf f5 d7 11 bd 0e 0c 08 3f 0c 2a 3b bf
       -0.5551419 -0.035606343 0.53143394 -0.73111033
0002a0 a7 5c 26 be 14 f4 04 3d c9 9e 17 bf b6 7e 01 bf
       -0.16246282 0.032459334 -0.5922666 -0.5058397
0002b0 e2 60 60 bf 36 f0 06 3f 51 82 57 bf fd 9f e7 be
       -0.8764783 0.5271028 -0.8418322 -0.4523925
0002c0 68 37 8b bf 66 06 b5 3d f5 18 04 3f da 23 2a be
       -1.0876284 0.08839111 0.5160058 -0.16615239
0002d0 68 40 c1 be 89 dd c2 bd 84 07 2e 3f 27 96 7b be
       -0.3774445 -0.09514911 0.6798022 -0.24568997
0002e0 ad aa 8c bf b7 69 97 3e 28 8d 86 bf b3 78 90 3d
       -1.0989586 0.29572842 -1.0511827 0.070542715
0002f0 9f ed 20 bb 77 65 cb bd 59 92 4f bd 23 c9 1c 3f
       -0.0024555696 -0.09931462 -0.050676677 0.6124441
000300 c1 37 49 3e cd 47 33 3f f7 cb c9 be a8 5d 1e bf
       0.19650175 0.70031434 -0.39413425 -0.6186166
000310 66 da 0a bf 55 5f 23 bf a7 f0 c8 be e7 b4 03 3f
       -0.542395 -0.6381734 -0.39246103 0.5144791

linear1.bias f4 [100]
000000 80 f1 9c 3e 3b fc 89 3e 8a 2f 47 bd 35 e2 86 3f
       0.30653 0.2695025 -0.04862932 1.0537783
000010 e5 a3 64 bf 67 cc 8f 3e 04 bb fa be ea 96 90 3f
       -0.89312583 0.28085634 -0.48970807 1.1296055
000020 1e ad 23 bf 89 5a 6f bf a4 c0 4d bf 02 f8 ea bc
       -0.6393603 -0.9349752 -0.8037207 -0.028682712
000030 ab d9 8b 3f bf 51 d4 3d 10 ce fb 3e 77 96 22 3f
       1.0925802 0.10367154 0.4918065 0.6351084
000040 20 ab ac bd 42 6e 78 3f 58 a3 b4 3c 89 17 4e 3e
       -0.08431077 0.9704324 0.022050545 0.20126165
000050 a3 19 ae 3e 56 0e 1b bf a1 10 9a 3f ca f7 2c bf
       0.34003934 -0.6056875 1.2036325 -0.67565596
000060 64 64 5c 3f 00 d4 40 3e 1c 9f 60 3e 38 ca 34 bf
       0.86090684 0.18830872 0.21935695 -0.7062106
000070 2b be d1 bd 29 06 ff be aa ef 9b 3f 89 fa 66 bf
       -0.1024135 -0.49809387 1.2182515 -0.90226036
000080 58 64 38 bf 32 d7 31 3f 9c c1 83 bf a1 28 64 3f
       -0.7202811 0.69468987 -1.029346 0.89124495
000090 c8 94 7f 3d 95 77 8d 3f 77 8c 3d 3f 97 cd 96 3f
       0.06239775 1.1052119 0.7404246 1.1781491
0000a0 1e 96 0f 3f d0 c5 8e 3f 28 bb 38 3e ef 4f 2e 3f
       0.56088436 1.1154118 0.18040144 0.6809072
0000b0 95 04 b6 3f 0f e3 01 3f a6 1e 7e 3f ef 7f 0e 3f
       1.4220148 0.5073709 0.99265516 0.5566396
0000c0 03 62 92 3f d7 65 91 bd dc dd a9 3f 7c 80 5d 3e
       1.1436161 -0.070995025 1.3270831 0.21631044
0000d0 82 20 3d bf a9 13 a9 3f 7f 41 0f bf 2e a8 a8 3e
       -0.7387773 1.3209125 -0.55959314 0.3294081
0000e0 7d dd 75 bf 7e fd f8 3e 3a 1b 75 3f 21 0d 37 bf
       -0.9604109 0.486309 0.9574467 -0.7150441
0000f0 28 a9 76 3f 13 33 02 3e a6 ce 88 3f de 41 5d bf
       0.9635186 0.12714796 1.0688064 -0.8642863
000100 b3 e6 74 3f de 3a a4 3f 39 f3 1e 3f 8b 90 28 3f
       0.9566452 1.2830465 0.6208988 0.65845555
000110 81 85 5d 3f 2d 84 78 3f 6f 4b a4 3f f2 0e e3 3e
       0.86531836 0.97076684 1.283552 0.4434734
000120 ab 96 1a bf 97 6c d9 be 4d c1 34 bf f8 3f e9 be
       -0.6038615 -0.4246566 -0.70607454 -0.45556617
000130 9c 52 54 3e 78 1f 01 be 58 88 80 bf af c0 a0 3f
       0.20734638 -0.1260966 -1.0041609 1.2558802
000140 84 8e 27 bf be ed 96 3f 23 50 ac 3f ab 2c 49 be
       -0.65451837 1.1791303 1.3461956 -0.19645946
000150 94 ec 54 3f e5 f5 47 3f 06 c1 73 3f 9d 2a cc bc
       0.8317349 0.7810958 0.95216405 -0.024922663
000160 56 ed 32 bf e1 b6 9f 3f 1b f3 b8 3f d3 16 b9 3f
       -0.69893396 1.2477685 1.444919 1.446009
000170 51 8c 90 bf 29 b5 f9 be ed 71 a7 3f 4a 3d 9e 3e
       -1.1292821 -0.48771027 1.3081642 0.30906135
000180 de 27 0c 3f e2 cb 9e 3f 06 ed 2b 3f 61 06 22 bf
       0.5474833 1.240597 0.67158544 -0.63290983

linear2.weight f4 [100, 100]
000000 59 10 84 3c 66 76 ab bc 1e ac cc bb 88 50 39 3e
       0.016121076 -0.02093048 -0.006246104 0.18097126
000010 d8 ed 11 be 61 a6 fd bb 99 e3 bc be 04 51 11 3e
       -0.14250886 -0.007740781 -0.36892393 0.14191061
000020 3a 74 02 be 7a c1 90 be f3 51 f3 bd f3 7d 51 3f
       -0.1273965 -0.2827261 -0.11880865 0.8183281
000030 5e b4 8b 3e e6 09 a3 bc d4 d0 11 3e 57 8c ff 3c
       0.27286047 -0.01990218 0.14239818 0.031194849
000040 30 b7 41 bd ef d8 84 3e 8e fa a8 be 69 0a f0 3c
       -0.04729384 0.25946757 -0.33003658 0.029301839
000050 ad 0e fe 3d 70 35 78 be 06 17 07 3e dd 17 9e be
       0.12405143 -0.24239135 0.13192376 -0.3087758
000060 cc c8 5e 3e 27 80 47 bd e7 07 80 bd 5c d4 5c 3f
       0.21756285 -0.0487062 -0.06251507 0.86261535
000070 fc 33 84 bc a6 0c ce be 9f b7 d2 3e 3f 2e e5 bd
       -0.01613807 -0.40244025 0.41155717 -0.11190461
000080 7a 84 9f be 69 1e 29 40 24 00 9a bd a9 87 52 3e
       -0.3115576 2.642481 -0.07519558 0.20559563
000090 d1 d2 f5 bd 37 77 7c 3e b4 cc 05 3d a8 d7 fd 3e
       -0.12003101 0.24654852 0.032665923 0.49578595
0000a0 31 a0 55 3d 7f 58 bc 3e 8b 7a a5 be 10 70 66 3e
       0.052154724 0.36786267 -0.32320055 0.22503686
0000b0 87 12 6c 3f a1 cc 0b 3c 90 58 af 3d a7 ce fc 3d
       0.9221577 0.008532674 0.08561814 0.12344103
0000c0 48 c1 06 3f f2 74 0a be 52 f0 a1 3e dc 94 0f be
       0.52638674 -0.13521174 0.31628662 -0.14021629
0000d0 67 64 90 be 29 c0 57 3f 13 10 6f be 76 1a 08 be
       -0.282016 0.8427759 -0.23345976 -0.13291344
0000e0 57 62 23 be a2 a2 95 3e 18 bd 65 3e 98 89 bd be
       -0.15955482 0.2922564 0.22435415 -0.37019038
0000f0 9e 5c 06 3f 64 27 ce 3c 59 3e 68 3f 54 f4 80 3f
       0.5248507 0.025165267 0.90720135 1.0074563
000100 99 a3 53 3e 6b 9c bb 3e 40 78 c2 3d 18 35 50 3d
       0.20667876 0.36642775 0.09495592 0.050831884
000110 f3 c3 2c 3e b4 48 b0 3d 16 8b 83 3f a6 68 ac 3d
       0.16871624 0.08607617 1.0276821 0.084183976
000120 d9 f8 35 be 9c 31 66 3e b8 24 60 be 6a fb 4f be
       -0.17770709 0.22479862 -0.21889007 -0.2031075
000130 0b a5 72 bd cd 1d 9e bd a2 c5 bc bd c5 33 61 3e
       -0.05923943 -0.07720528 -0.09217383 0.21992405
000140 c4 8d 6a be 7c ac 85 3e 38 e3 37 3f 57 51 18 be
       -0.22905642 0.26108158 0.71831083 -0.14874779
000150 d4 a1 0d 3f 80 25 eb 3d 01 29 28 3e a8 b1 46 bc
       0.55325055 0.11481762 0.16421892 -0.0121273175
000160 96 41 f8 be 4b 96 8d 3e 2c 39 07 3f 5f ed a9 3e
       -0.48487538 0.27653727 0.5282161 0.33188912
000170 25 d6 44 be c8 6b 01 bf 15 fb 0a 3f cd b5 ca bb
       -0.19222315 -0.50555086 0.5428937 -0.006186223
000180 5d 60 f0 3d 4c 88 47 3e 3d 6c 93 3d 3b 9d f6 bd
       0.1173713 0.19485587 0.07198379 -0.12041708
000190 f3 22 bf bc 27 ed 91 bd b6 af 17 bd 18 00 3a 3e
       -0.023332095 -0.07125311 -0.037032805 0.18164098
0001a0 d4 57 0f be 0e ae 33 bd 59 fa 9c be 12 ad 4e 3e
       -0.13998348 -0.043867163 -0.3065975 0.20183209
0001b0 cf 5e 10 be 11 2d cf be d3 a5 6e be 63 83 2f 3f
       -0.14098667 -0.4046407 -0.23305444 0.68559855
0001c0 49 02 e0 3e 10 e1 e8 bd a1 60 5d 3d 3e 65 0b 3e
       0.43751743 -0.11371052 0.05404723 0.1361284
0001d0 4d 3a 2c be e5 88 96 3e c1 03 af be 0f 34 11 3d
       -0.16819115 0.29401317 -0.34182552 0.035450038
0001e0 76 62 cd 3d ba 16 09 be dd 2d 12 3e 70 0b 16 be
       0.100285456 -0.13387576 0.14275308 -0.146528
0001f0 28 69 cd 3d 51 34 fd bd d6 7e 83 bd c6 63 6a 3f
       0.100298226 -0.12363494 -0.064206764 0.9155849
000200 03 cd 30 be 82 7d 8b be c5 17 12 3f 25 05 9c bd
       -0.17265706 -0.27244192 0.5706752 -0.07618169
000210 ee f4 cb be 04 a0 1d 40 d1 d9 1c be e8 b5 1f 3d
       -0.39835304 2.4628916 -0.15317465 0.03899184
000220 70 51 e2 bc 30 56 83 3e a0 fb 59 3d 96 45 d6 3e
       -0.027626723 0.25651693 0.053218484 0.41849965
000230 f4 7a 24 3d 55 90 ad 3e 49 43 8e be 1f 21 56 3e
       0.04015632 0.3389918 -0.2778571 0.20911072
000240 bc 4f 4f 3f b1 70 33 3e 7d f5 ba 3d b2 4c 3a 3d
       0.8098104 0.17523457 0.091288544 0.0454833
000250 a8 2a 18 3f a5 a5 52 bd 44 6f a1 3e 35 e5 4d be
       0.5944009 -0.051427502 0.315302 -0.20106967
000260 80 8d 50 be c7 4d 51 3f e7 93 9c be 13 b2 04 bd
       -0.20366478 0.81759304 -0.3058159 -0.032396387
000270 7e a5 24 be a2 2c 96 3e 90 73 6d 3e 99 88 ea be
       -0.16078755 0.29330927 0.23188615 -0.4580734
000280 c0 35 12 3f 81 1b 89 ba dc 17 6d 3f ff 6f 88 3f
       0.57113266 -0.0010460467 0.9261453 1.0659178
000290 7c a5 cc 3d 38 89 cf 3e 0a ad 63 3e 2a 10 e4 3c
       0.09992501 0.40534377 0.22233978 0.027839739
0002a0 e3 11 75 3e 06 2e e3 3d 4e 47 75 3f f0 7f 9e bb
       0.23932604 0.11092763 0.9581193 -0.0048370287
0002b0 c9 9f 62 be cf 2a a8 3e 8d 61 8f be 85 d8 58 bd
       -0.22131266 0.3284516 -0.28004113 -0.052940864
0002c0 d0 8e 20 be 03 f4 60 bd 38 6b 04 be 2d fa 8a 3e
       -0.15679479 -0.054920208 -0.12931526 0.27143994
0002d0 76 a4 9e be 23 d7 14 3e 3b 0a 3f 3f 99 b2 f7 bd
       -0.3098485 0.14535193 0.74624985 -0.12094612
0002e0 0d d8 2d 3f ec 54 3a 3e 73 fb 93 3e ac db a7 bc
       0.6790779 0.18196458 0.28902778 -0.02049049
0002f0 66 b9 ae be d5 e5 c7 3e ce 11 32 3f 25 ba 84 3e
       -0.34125823 0.39042535 0.6955842 0.25923267
000300 2f dd 9f bd 7e 5c f9 be 5c 76 f3 3e 51 15 1e 3b
       -0.07805859 -0.48703378 0.4755124 0.0024121592
000310 31 3a b2 3d 8c a9 86 3e 80 a5 0f 3d a3 18 23 bd
       0.087025054 0.2630123 0.035069942 -0.039818417
000320 35 80 b7 3d db 67 9b bd cb 56 ac 3c 2f e7 84 3e
       0.089600004 -0.07588168 0.02103748 0.2595763
000330 ec aa 3b 3c 53 3c 5d bd ea 8e a3 be 05 ca 54 3e
       0.011454325 -0.054012608 -0.31944972 0.2078019
000340 93 3a 95 bd 3c 6f af be 36 6a 8d be 96 6b 35 3f
       -0.07286563 -0.34264553 -0.27620095 0.7086729
000350 9c 14 c2 3e e4 8c 25 bd ab ee eb 3d 27 d8 6a 3c
       0.3790635 -0.040417567 0.11520132 0.014333761
000360 f2 2f 4e bd a0 f7 e7 3d f7 42 be be 30 67 4e bd
       -0.050338693 0.113265276 -0.37160465 -0.050391376
000370 b5 9f 27 bd 78 d5 f5 bd 01 d7 b3 3b 8e 7e 69 be
       -0.040923793 -0.120036066 0.005488277 -0.22802183
000380 ac 27 41 3e 91 5a 22 be 59 dd c7 3d 66 64 7f 3f
       0.1886279 -0.15854861 0.097590156 0.9976257
000390 2a 63 21 be 79 68 82 be 06 f9 db 3e 34 14 51 bb
       -0.15760484 -0.2547033 0.42963427 -0.003190291
0003a0 fd 31 8f be 88 79 24 40 f0 22 ed bd 1a 92 40 3e
       -0.27967826 2.5699177 -0.115789294 0.18805733
0003b0 4a 86 c7 bd 20 5d 81 3e ff 14 c3 3d 43 7b a2 3e
       -0.097424105 0.2526636 0.09525489 0.31734666
0003c0 2f e6 76 3d 92 8a a4 3e b1 d9 a9 be 41 aa 92 3e
       0.060278114 0.3213697 -0.33173898 0.28645518
0003d0 51 49 6a 3f 27 05 14 3e 92 45 5e 3e 60 e0 0e 3e
       0.9151812 0.1445509 0.21706226 0.1395278
0003e0 57 6a 01 3f 09 15 bd bc 52 6c 8d 3e f5 bf 47 be
       0.50552887 -0.02308132 0.27621704 -0.1950682
0003f0 49 ff 38 be 72 c9 3f 3f e6 f7 a1 be 2f bd 2d bc
       -0.18066134 0.74916756 -0.31634444 -0.010604187

linear2.bias f4 [100]
000000 59 dc e0 3e 33 6f cd 3e 02 ed bd 3e b4 e6 eb 3e
       0.43918112 0.401239 0.37094885 0.4607445
000010 94 67 f4 3e 2b 86 0e 3f ca 77 d5 3e 6c ae be 3e
       0.47735274 0.55673474 0.41692954 0.37242448
000020 75 76 c6 3e 08 40 e2 bc cd 0d db bb cb 52 be 3e
       0.3876225 -0.027618423 -0.006684995 0.3717254
000030 0f 55 d2 3e 60 ed fd 3e 14 39 e2 3e 49 d6 c0 3e
       0.4108052 0.49595165 0.44184172 0.37663487
000040 17 31 0d 3f bd c8 d5 3e b5 0c 03 3f de e2 f3 3e
       0.5515303 0.41754714 0.51191264 0.47634023
000050 7b 39 d4 3e dd 0c ea 3e fb 40 e1 3e 94 ef 09 3f
       0.41450104 0.4571294 0.4399489 0.5388119
000060 6d 9c e2 3c d7 a1 c6 3e 38 a0 e4 3e f7 1d 0e bd
       0.02766248 0.3879535 0.44653487 -0.034696545
000070 33 67 f5 3a f1 ba 07 3f b3 15 49 bd b8 98 f8 3e
       0.0018722772 0.53019625 -0.04909296 0.48554015
000080 72 1c 05 3f 6e 2d eb 3e 70 a1 1d 3d 6e c7 02 3f
       0.5199653 0.45933098 0.038484037 0.51085556
000090 6e 6b e3 ba b7 d6 e8 3e 18 94 d2 3e d6 7a c6 3e
       -0.0017350742 0.45476314 0.41128612 0.3876559
0000a0 6c 30 fe 3e a2 59 12 3f 2c 00 dd 3e 8b f1 c2 3e
       0.49646318 0.5716802 0.43164194 0.38074908
0000b0 52 62 ea 3e ca 04 ec 3e ce 22 cd 3e 0c cd 0d 3f
       0.45778137 0.46097404 0.40065616 0.55391
0000c0 fb 45 fe 3e fe eb b2 bd ef 22 e3 3e 93 ba 15 bd
       0.49662766 -0.08736418 0.4436259 -0.036554884
0000d0 1a be 09 3f da 24 f7 3e 7d e1 cc 3e 8c 2f b7 bc
       0.53805697 0.48270303 0.40015784 -0.02236154
0000e0 38 b2 fd 3e 02 42 cd 3e af 7f cc bd 99 3d b4 3e
       0.49550033 0.40089422 -0.09985291 0.35203245
0000f0 90 f0 f6 3e 26 d2 00 3f 5f 89 f5 3e 59 b4 b4 3e
       0.4823041 0.5032066 0.47956368 0.35293844
000100 6d 41 cf 3e 40 d2 9c 3c 76 8f f0 3e 71 f9 ef 3e
       0.40479603 0.019143224 0.46984452 0.46869996
000110 98 88 bf 3e 94 32 da 3e b1 b7 d2 3e 0d 82 91 3c
       0.374089 0.42616713 0.4115577 0.017762208
000120 d1 76 e1 3e 24 dd ea 3e 9c 98 84 bd 05 54 cf 3e
       0.44035962 0.45871842 -0.064744204 0.4049379
000130 a5 23 a4 3d b0 d6 b8 3e c0 79 0a 3f 96 51 ed 3e
       0.08014611 0.36101294 0.54092026 0.46351308
000140 73 a1 a4 bd 23 8c f6 3e 32 73 c0 3e e9 22 f7 3e
       -0.080386065 0.4815379 0.37587887 0.48268822
000150 ab 4a f9 3e ad 3d f2 3d cb 62 cf 3e 2a 85 de 3e
       0.4868978 0.1182817 0.4050506 0.4346097
000160 53 95 d9 3e c6 27 0a 3f 77 ca cb 3e fc b8 0f 3f
       0.42496738 0.5396694 0.39802906 0.5614164
000170 33 9f ee ba fe e6 ef 3e 7d 7e 37 bd 9b 9d ce 3e
       -0.0018205404 0.4685592 -0.044798363 0.40354618
000180 8a d2 55 3d e7 aa fc 3e fb 55 e9 3e f1 19 04 3f
       0.05220274 0.49349138 0.4557341 0.51602083

linear3.weight f4 [1, 100]
000000 d0 a3 d5 be af f4 d0 be 6b 46 b0 be ff 36 a9 be
       -0.41726542 -0.4081168 -0.34428725 -0.3304977
000010 b2 a8 c2 be 9b 3f cc be 47 ae c8 be ef fe e4 be
       -0.3801933 -0.39892277 -0.39195463 -0.4472575
000020 b1 69 ba be e1 bf 4f bb 89 e5 b1 3a 64 eb bd be
       -0.3640876 -0.0031700062 0.0013572435 -0.3709365
000030 82 68 bf be 2c 06 b3 be ab 6f e8 be ae c0 b9 be
       -0.3738442 -0.34965646 -0.45397696 -0.36279815
000040 cb 86 c9 be dd da ac be 50 3a bc be 17 b3 c4 be
       -0.3936065 -0.3376073 -0.3676324 -0.38417885
000050 40 ca c3 be 59 ed c7 be 37 86 ab be 46 48 c5 be
       -0.38240242 -0.3904827 -0.33500835 -0.38531703
000060 d4 19 2c bb c5 0a bf be 8f e5 c3 be 1b 92 42 ba
       -0.0026260512 -0.37312904 -0.38261077 -0.0007422284
000070 aa 75 60 3a 29 27 da be c6 7a db ba 53 b5 a6 be
       0.0008562455 -0.42608002 -0.0016744963 -0.32560214
000080 96 4b dc be 30 cb bd be 34 bd d8 ba 2f a0 a6 be
       -0.43026417 -0.37069082 -0.0016535879 -0.32544085
000090 06 ea 6f bb 2f 3d c0 be 83 d3 b0 be 77 ae d1 bf
       -0.0036607995 -0.3754668 -0.3453637 -1.6381367
0000a0 4c c3 c9 be c4 6b c8 be 48 3e d1 be 9e 64 b6 be
       -0.39406812 -0.3914472 -0.4086783 -0.3562364
0000b0 22 72 d2 be 9c 41 cb be 67 18 cf be 66 6d c3 be
       -0.411027 -0.39698493 -0.40448305 -0.38169402
0000c0 99 51 c3 be 95 ba 01 bb e9 83 b6 be 30 8b bd ba
       -0.38148192 -0.001979505 -0.35647514 -0.0014461037
0000d0 4d c3 c3 be 90 cd ba be 3b 16 de be 7c 4d 76 bd
       -0.3823494 -0.36484957 -0.43376336 -0.06013249
0000e0 5d e9 9f be 13 77 bc be 1e 62 00 bb b9 0c bc be
       -0.3123273 -0.36809596 -0.0019589732 -0.36728457
0000f0 8a 0c b2 be 58 2a aa be 60 63 b0 be ab 79 ba be
       -0.34775192 -0.3323543 -0.34450817 -0.3642095
000100 fd 1e bd be ae 8b ed 3a 63 3d be be 88 1e ce be
       -0.36937705 0.0018123293 -0.3715621 -0.40257668
000110 82 74 a6 be c3 e1 b8 be 61 92 c9 be 2b 21 15 bb
       -0.32510763 -0.36109743 -0.3936949 -0.0022755365
000120 63 36 c4 be e8 1d d5 be 45 79 a8 3b a9 83 a7 be
       -0.38322744 -0.4162438 0.0051414096 -0.32717636
000130 ad f6 ad ba 35 d3 ad be 9c 27 aa be 3a 12 d4 be
       -0.0013272368 -0.339502 -0.33233345 -0.41420156
000140 a3 e5 dd ba ac 88 a5 be de 1a d0 be f7 9e c4 be
       -0.0016929399 -0.32330835 -0.40645498 -0.3840253
000150 ac e5 b9 be 57 b5 1d bf 35 b3 c1 be 9f 98 b8 be
       -0.36308038 -0.6160483 -0.37832037 -0.3605394
000160 14 9e bb be a5 6f a9 be 94 4f c9 be c9 f5 ca be
       -0.36644042 -0.3309299 -0.39318526 -0.39640644
000170 25 4c 8f 39 f0 71 a7 be 00 20 31 3b 96 b4 d6 be
       0.00027331818 -0.32704115 0.002702713 -0.4193465
000180 62 f8 11 ba a9 85 ad be 06 2f bb be af f3 ac be
       -0.0005568323 -0.33891037 -0.36559314 -0.33779666
